Code/model_Valetudo.pt (torch, 98298 bytes, 16 tensors)

conv0.weight f4 [10, 3, 5, 5]
0	0x3d1c59e7	0.038171675
1	0x3c4ecbca	0.012621829
2	0x3da08a35	0.07838861
3	0x3d65bec1	0.05609012
4	0xbd411c00	-0.047145844
5	0x3f3fb79f	0.7488956
6	0xbe4f492e	-0.2024276
7	0xbe9a4296	-0.30128926
8	0x3ec9097b	0.39265046
9	0xbf0b89f0	-0.5450735
10	0x3dc67779	0.09690756
11	0x3dce9399	0.10086746
12	0xbecdb867	-0.4017975
13	0x3e7d35ec	0.24727601
14	0x3dfd3c7e	0.123650536
15	0x3caf45d0	0.021395594
16	0x3d5517c6	0.052024625
17	0xbb87a15e	-0.0041391095
18	0x3d9262fa	0.071477845
19	0xbe885ec2	-0.26634794
20	0x3f0a3a6d	0.539954
21	0xbea7c36a	-0.32766277
22	0xbf080c51	-0.53143793
23	0x3ecff038	0.4061296
24	0xbf39e671	-0.7261725
25	0x3eb365b1	0.35038522
26	0xbebb91c1	-0.3663464
27	0xbd8f2eaa	-0.06991322
28	0xbdb7f6bd	-0.089826085
29	0x3c302e32	0.010753201
30	0x3dd60b6b	0.104513966
31	0x3e2d587a	0.16928282
32	0xbdaa80e9	-0.08325369
33	0xbe01f65f	-0.1269164
34	0xbdc73dd9	-0.097285934
35	0xbdd11176	-0.102084085
36	0xbf2796ff	-0.65464777
37	0x3f1d33fc	0.61407447
38	0x3ec5a21c	0.38600242
39	0xbd56c22c	-0.05243127
40	0x3eac594e	0.33661884
41	0xbeb27cc8	-0.34860826
42	0x3d22fbbc	0.039790854
43	0x3e0d4bd7	0.13798462
44	0xbdcc007f	-0.09961032
45	0x3dc0c8af	0.09413277
46	0x3da83941	0.08214045
47	0x3e3636ff	0.17794417
48	0xbe627dc2	-0.22118285
49	0xbdae5b32	-0.08513488
50	0xbe50c5fb	-0.20388024
51	0xbeae515a	-0.3404644
52	0xbedaad0c	-0.4271015
53	0x3f1f0151	0.62111384
54	0x3e9d2e88	0.30699563
55	0xbd3f0e8c	-0.046644732
56	0xbd10be67	-0.03533783
57	0x3d82c7bd	0.06385753
58	0x3e771c5d	0.24131913
59	0xbe6d7e7c	-0.23192781
60	0x3e599373	0.21247654
61	0x3dba5aa9	0.09099323
62	0xbc851b7f	-0.016248463
63	0xbd963a1d	-0.07335303
64	0xbd61d287	-0.055132415
65	0x3c464e3c	0.0121036135
66	0xbe3eac19	-0.18620338
67	0xbed77260	-0.4207945
68	0x3ed9553c	0.4244784
69	0x3e4e02c3	0.20118241
70	0x3e41f690	0.18941712
71	0xbce78093	-0.028259551
72	0x3c8ac56c	0.016939841
73	0x3ca86c36	0.020559411
74	0xbe39060a	-0.1806871
75	0xbe429f51	-0.19006087
76	0xbe8710ce	-0.26380008
77	0x3ecc2dec	0.39878786
78	0xbdbdbeb2	-0.09264888
79	0xbead2ea3	-0.33824643
80	0x3ec272f3	0.37978324
81	0xbeec2398	-0.46120906
82	0x3db72f6d	0.089445926
83	0x3f05cbbe	0.5226401
84	0xbecc1932	-0.39862972
85	0xbd03b2fd	-0.03215312
86	0xb91e0db7	-0.00015073163
87	0xbe411abd	-0.18857856
88	0x3d844142	0.064577594
89	0xbda355d9	-0.079753585
90	0xbd162b71	-0.036662523
91	0xbe432f65	-0.19061048
92	0x3e548f48	0.20757782
93	0xbdc4a76b	-0.09602245
94	0xbe9bb942	-0.30414778
95	0x3f3a48f2	0.72767556
96	0xbe7acdb4	-0.24492532
97	0x3ec60ea1	0.38683036
98	0x3efcf14b	0.49402842
99	0xbe97add7	-0.29624817
100	0xbf26cafb	-0.65153474
101	0x3eef35e6	0.4672081
102	0xbea25b12	-0.31710106
103	0xbf05f21b	-0.5232255
104	0x3ede48ec	0.4341501
105	0xbc9b6995	-0.018971244
106	0x3e04a102	0.12952045
107	0x3c8b7101	0.017021658
108	0xbd92ebdc	-0.07173893
109	0xbcfe5ab1	-0.031049104
110	0x3c538210	0.012909427
111	0x3ee81793	0.45330486
112	0xbf16751b	-0.5877244
113	0x3e8f49c5	0.2798597
114	0x3f146625	0.5796836
115	0xbf10b6e2	-0.5652906
116	0x3ec5ae37	0.38609478
117	0xbea61571	-0.32438233
118	0xbf1d6675	-0.6148446
119	0x3ec84bc1	0.39120296
120	0x3c1812de	0.009281842
121	0x3e057485	0.1303273
122	0x3cb5b6fc	0.02218198
123	0xbe25b04c	-0.16180533
124	0xbd51a2aa	-0.05118052
125	0x3c34490b	0.011003743
126	0x3db51138	0.08841175
127	0x3deef83c	0.11668441
128	0xbbf675ae	-0.0075213527
129	0xbdb22a86	-0.08699517
130	0xbc97678e	-0.018481996
131	0x3d9665dc	0.07343647
132	0x3df7aad0	0.12093127
133	0xbca5dea3	-0.020247763
134	0xbd283bbd	-0.041072596
135	0x3e1ca76d	0.15298243
136	0xbd736102	-0.059418686
137	0x3e0eef9b	0.1395859
138	0x3d32ccfb	0.043652516
139	0xbe2a563f	-0.16634463
140	0xbdceaad9	-0.1009118
141	0xbacd664b	-0.0015670744
142	0xbd6a39ae	-0.057183914
143	0x3d67952c	0.056538746
144	0x3cf69ddf	0.030104576
145	0x3e29b7fb	0.16574089
146	0xbd8b9edf	-0.06817412
147	0xbd4d366c	-0.05010073
148	0x3d15f7c9	0.03661326
149	0xbe37adef	-0.17937444
150	0x3cae3642	0.021266107
151	0x3ded3005	0.115814246
152	0x3ee22d0c	0.44174993
153	0x3d32e021	0.043670777
154	0x3cb157ad	0.021648252
155	0xbe07a7a7	-0.13247548
156	0x3e64516d	0.22296686
157	0x3e310ffb	0.17291252
158	0x3d868a3d	0.065693356
159	0x3e9604f8	0.29300666
160	0xbe33b1fc	-0.17548364
161	0x3d668f89	0.05628923
162	0xbe3d4e6b	-0.18486945
163	0x3d95585d	0.072922446
164	0xbdd3d54d	-0.10343418
165	0xbdc03bc5	-0.093864
166	0xbeaf5883	-0.34247217
167	0xbe0cd835	-0.13754351
168	0xbe059045	-0.13043316
169	0xbe811735	-0.25213018
170	0xbeb30bd1	-0.34969953
171	0xbe43c3cd	-0.19117661
172	0xbe63a163	-0.22229533
173	0xbe37be88	-0.17943776
174	0x3d977842	0.07395984
175	0x3d55b6b5	0.052176196
176	0x3e55a91f	0.20865296
177	0xbe1de63a	-0.15419856
178	0xbe804a10	-0.25056505
179	0xbdc06db6	-0.09395926
180	0xbe2b8f4a	-0.16753879
181	0xbdcd3b61	-0.10021091
182	0x3ed61f7b	0.41820893
183	0x3d946853	0.07246461
184	0xbe6aacd8	-0.22917497
185	0xbe55da87	-0.20884143
186	0x3e04ac1d	0.12956281
187	0xbe4d8d43	-0.20073418
188	0xbb84254f	-0.004032768
189	0x3f064089	0.5244222
190	0x3e074620	0.13210344
191	0x3dd90d73	0.10598268
192	0xbdf1b9d5	-0.11803023
193	0x3cda0fb9	0.026618825
194	0x3e713909	0.23556913
195	0x3df0fd4e	0.11767064
196	0xbde3bd38	-0.11120075
197	0x3e907825	0.28216663
198	0x3d97b2fa	0.07407184
199	0x3d32f347	0.04368904
200	0x3e0e526a	0.13898626
201	0xbe44520b	-0.19171922
202	0xbec3f782	-0.3827477
203	0x3eb8a454	0.36062872
204	0xbe5087ba	-0.20364276
205	0xbcc9b5b2	-0.024622772
206	0x3f8e95a8	1.1139421
207	0xbf0430ab	-0.5163676
208	0xbedd0f62	-0.431758
209	0x3eb90e24	0.361436
210	0x3e6f65c2	0.23378661
211	0xbdb11a58	-0.08647603
212	0xbd3f4bb5	-0.04670306
213	0xbe22ffe0	-0.15917921
214	0xbe92277e	-0.28545755
215	0x3e25c6b5	0.16189082
216	0xbd75ddbf	-0.060025927
217	0xbe104333	-0.14088134
218	0x3ec5d7cd	0.38641205
219	0xbe9d1e96	-0.30687398
220	0x3ec8dfc1	0.3923321
221	0x3f53b5b0	0.8269911
222	0xbf2eed44	-0.6833079
223	0x3e9dfc42	0.3085652
224	0x3f7a659f	0.9781131
225	0xbe73ce3a	-0.23809138
226	0x3ebdbe66	0.37059325
227	0x3ec625e6	0.3870079
228	0x3ef48cac	0.47763574
229	0xbde4e841	-0.111771114
230	0xbee54be0	-0.4478445
231	0x3e01c1ae	0.12671539
232	0x3e954198	0.29151607
233	0x3f000e90	0.5002222
234	0xbe657e34	-0.22411424
235	0xbea4ff5e	-0.3222608
236	0xbe89e3ea	-0.26931697
237	0xbdc84ccf	-0.09780275
238	0x3ede9558	0.43473315
239	0x3e97bfa1	0.2963839
240	0xbeb97e62	-0.36229235
241	0xbf076970	-0.5289526
242	0xbe88a6b8	-0.26689696
243	0x3e3962e7	0.18104135
244	0x3d97a189	0.07403857
245	0x3e1237c8	0.14279091
246	0x3e222b5c	0.15836853
247	0xbe91c552	-0.28470856
248	0x3cd4c29d	0.025971705
249	0xbe8723e6	-0.26394576
250	0xbeac302c	-0.33630502
251	0x3e806b69	0.25081947
252	0x3cd670c7	0.026176823
253	0x3e357baf	0.17722963
254	0xbe69e61a	-0.22841683
255	0x3e06d147	0.1316577

conv0.bias f4 [10]
0	0xbcf02c70	-0.029318064
1	0x3dd1ea26	0.102497384
2	0x3d9ef37c	0.07761285
3	0xbd4e791c	-0.050408468
4	0x3b9634ea	0.0045839446
5	0x3dd952ab	0.10611471
6	0x3d664b98	0.056224436
7	0x3cf86ced	0.030325377
8	0xbddc54b7	-0.107583456
9	0x3cb6f2a4	0.022332497

bn0.weight f4 [10]
0	0x3f64ab7c	0.89324164
1	0x3f52fcaf	0.82416815
2	0x3f31d2bc	0.6946218
3	0x3f905b3b	1.1277841
4	0x3f3ebaac	0.7450359
5	0x3f360fcc	0.71117854
6	0x3fbf3768	1.4938784
7	0x3f257a15	0.6463941
8	0x3f56edf6	0.8395685
9	0x3fabdde4	1.3427091

bn0.bias f4 [10]
0	0xbd3cc133	-0.046082687
1	0xbe47f6c1	-0.19527723
2	0xbe39f89a	-0.1816124
3	0x3efdf26c	0.49599016
4	0xbec23674	-0.3793217
5	0xbdedb3c0	-0.1160655
6	0x3f28fedf	0.660139
7	0xbda2cdcb	-0.07949408
8	0x3e5e9530	0.21736598
9	0xbe1b80b1	-0.1518581

bn0.running_mean f4 [10]
0	0xc1469a6f	-12.4127035
1	0xc204cc03	-33.19923
2	0x431f3305	159.1993
3	0x3f972e2b	1.1810964
4	0xc35b7db2	-219.491
5	0xc1e470f3	-28.555151
6	0xc10a5966	-8.646826
7	0x4345e569	197.89613
8	0x4193fc20	18.498108
9	0xc113f620	-9.247589

bn0.running_var f4 [10]
0	0x4621a1e2	10344.471
1	0x466b0dbb	15043.433
2	0x46efe943	30708.63
3	0x45794a59	3988.6467
4	0x46dcc0b9	28256.361
5	0x461d2c4b	10059.073
6	0x4583cdc9	4217.723
7	0x471127d4	37159.83
8	0x46963b13	19229.537
9	0x45fce62d	8092.772

conv1.weight f4 [16, 10, 3, 3]
0	0x3e7e65f0	0.24843574
1	0xbf255d0a	-0.6459509
2	0x3f0678b3	0.5252792
3	0x3f06309b	0.52417916
4	0xbe2882bd	-0.16456123
5	0xbe3879ac	-0.18015164
6	0xbf2d3de6	-0.67672575
7	0xbf014d11	-0.5050822
8	0xbd98548e	-0.074380025
9	0xbe239ef4	-0.15978605
10	0xbd396491	-0.045261923
11	0x3e139c8a	0.14415184
12	0x3d7c5198	0.06160125
13	0xbe07e3ed	-0.1327054
14	0xbe10f4b6	-0.1415585
15	0xba2a5e03	-0.0006498994
16	0x3e4892fb	0.19587319
17	0xbe97b25a	-0.2962826
18	0x3ecbec79	0.39828852
19	0xbd587820	-0.052848935
20	0xbdef8563	-0.116953634
21	0x3e796560	0.24355078
22	0xbdfebd6a	-0.124384716
23	0xbeb8dfd7	-0.36108276
24	0x3e2c277a	0.16811934
25	0xbd529f00	-0.051421165
26	0xbead0cfb	-0.33798966
27	0xbd3b03d3	-0.045657944
28	0xbeff990e	-0.4992146
29	0x3e3769d4	0.17911464
30	0x3e636c30	0.22209239
31	0x3d53a4ab	0.05167071
32	0x3e0a18a5	0.13485964
33	0xbdef2ae5	-0.11678103
34	0xbdafdbff	-0.08586883
35	0x3e3ac979	0.18240918
36	0xbdc3b39e	-0.09555744
37	0x3e8c6a42	0.27424818
38	0xbdc12b83	-0.09432127
39	0xbe68a992	-0.22720936
40	0xbe0663ba	-0.1312398
41	0xbe8e5ff3	-0.27807578
42	0x3e478264	0.19483334
43	0x3ef7d8f6	0.48407716
44	0xbe060805	-0.13088997
45	0x3f3062f4	0.6890099
46	0xbdea57dc	-0.11442539
47	0xbe1dbb1a	-0.15403405
48	0xbbe50920	-0.006989613
49	0x3de8e6d6	0.113721535
50	0xbe3ce42a	-0.18446413
51	0xbcac5e43	-0.021041041
52	0xbe69e04e	-0.22839472
53	0xbd1fe797	-0.03903922
54	0xbe523dfa	-0.20531455
55	0x3de83459	0.113381095
56	0xbd299350	-0.041400254
57	0xbe92a977	-0.28644916
58	0x3e89f68e	0.2694592
59	0x3e944f7b	0.2896689
60	0xbe2e3888	-0.17013752
61	0x3d3e061a	0.046392538
62	0xbc7d2138	-0.0154498145
63	0xbe41feab	-0.18944804
64	0xbebd2110	-0.36939287
65	0x3e39180b	0.18075578
66	0x3e98f5e1	0.2987509
67	0xbe46aaed	-0.1940114
68	0xbe4d0822	-0.20022634
69	0xbe2f768a	-0.17135063
70	0xbe57b42b	-0.21064822
71	0x3e4a84be	0.197772
72	0x3c419520	0.011815339
73	0xbe0d1cc7	-0.13780509
74	0x3e285400	0.16438293
75	0x3f1dc4b5	0.61628276
76	0xbf1031a1	-0.5632573
77	0xbeb2822b	-0.34864935
78	0x3cd7a4c4	0.026323684
79	0xbe6b14e5	-0.2295719
80	0xbed4dd84	-0.41575253
81	0x3c2e9dd8	0.01065775
82	0xbf111cb0	-0.566844
83	0x3d8cee07	0.068813376
84	0xbdf21630	-0.11820638
85	0x3e8a6e79	0.2703741
86	0xbe191f5a	-0.14953366
87	0xbf6d9789	-0.9280935
88	0x3e19c319	0.1501583
89	0xbe913137	-0.2835786
90	0x3e8eca3a	0.27888662
91	0xbec5fc22	-0.38668925
92	0x3dc87d2a	0.09789498
93	0x3d8e740c	0.06955728
94	0xbe8054af	-0.25064608
95	0xbdc196b3	-0.09452572
96	0x3dd5f6ff	0.104475014
97	0x3db2b3a8	0.08725673
98	0xbd990525	-0.07471684
99	0x3e9b4451	0.3032556
100	0x3ec99bdd	0.39376727
101	0xbe1c062e	-0.15236732
102	0x3e7955cb	0.24349134
103	0x3d0ef0a8	0.034897476
104	0xbde00431	-0.109382994
105	0xbeaa911c	-0.33313835
106	0x3da789c5	0.08180574
107	0xbdffd66b	-0.12492069
108	0x3e91e649	0.28496006
109	0x3f4efe26	0.8085655
110	0x3da22168	0.07916528
111	0x3efd8663	0.4951659
112	0x3c44c11f	0.012008934
113	0xbc846ba9	-0.016164618
114	0xbe015eb0	-0.12633777
115	0x3d3dc05b	0.046326023
116	0x3ebfe650	0.37480402
117	0x3f2a37f5	0.66491634
118	0x3d84ad0b	0.06478318
119	0x3cdadef6	0.026717644
120	0x3e8f2ee6	0.27965468
121	0x3e95f1eb	0.2928613
122	0xbcfdf5f5	-0.03100107
123	0xbeb0b1e2	-0.34510714
124	0xbcd7bca7	-0.026335074
125	0xbe1e58df	-0.15463589
126	0x3e517c77	0.20457636
127	0x3ee6a843	0.45050249
128	0x3f4ee054	0.8081105
129	0xbe5f2e2e	-0.2179496
130	0x3e85a08e	0.26099056
131	0xbb98d500	-0.0046640635
132	0x3e9d5aad	0.30733243
133	0xbd6e12ad	-0.05812328
134	0x3e218a3f	0.15775393
135	0x3ede3608	0.43400598
136	0x3e1e4167	0.15454637
137	0xbcfdfb10	-0.031003505
138	0xbdb651e5	-0.08902339
139	0xbe0f8d93	-0.1401885
140	0x3e893691	0.26799443
141	0x3e311d94	0.1729644
142	0x3e89cc64	0.2691375
143	0xbdd9a281	-0.10626698
144	0x3e77a86d	0.24185343
145	0x3e52d471	0.20588852
146	0xbe98ca8f	-0.2984204
147	0xbd8fea36	-0.07027094
148	0x3e7d0632	0.24709395
149	0xbd040a4f	-0.032236394
150	0xbed9b2c1	-0.4251919
151	0x3e6a1d22	0.22862676
152	0x3ebf5df2	0.37376362
153	0x3d9c24fa	0.0762424
154	0x3eb7c9fa	0.35896283
155	0x3f177dd8	0.591764
156	0x3df532a6	0.11972551
157	0x3efe02ef	0.49611613
158	0xbe953dfc	-0.29148853
159	0x3f0370d3	0.5134403
160	0xbe2907bd	-0.16506858
161	0xbd37f279	-0.044908974
162	0xbd7c1f72	-0.061553426
163	0xbe7ad489	-0.24495138
164	0xbe35264f	-0.17690395
165	0xbf06d0d1	-0.5266238
166	0x3e2209eb	0.15824096
167	0x3e349e81	0.1763859
168	0xbe885d72	-0.26633793
169	0x3e3c5b40	0.18394184
170	0xbe54b71e	-0.20772979
171	0x3d585ed8	0.052824825
172	0x3e3dedf3	0.18547802
173	0x3e623217	0.2208942
174	0x3dba4c6c	0.090966076
175	0x3dee83e9	0.116462536
176	0x3eb6c7d9	0.35699347
177	0xbe14cf98	-0.14532316
178	0x3dd33a3e	0.10313843
179	0x3ef394bf	0.47574422
180	0x3e16e97c	0.14737505
181	0x3e06a845	0.13150127
182	0xbe83b6b3	-0.25725326
183	0xbe96f367	-0.29482576
184	0xbcef21a8	-0.029190853
185	0x3e93ff10	0.28905535
186	0xbdcd641e	-0.100288615
187	0x3e142a68	0.14469302
188	0xbe228efb	-0.15874855
189	0x3da50c61	0.08059002
190	0xbc5ad983	-0.013357523
191	0xbd3ac113	-0.045594286
192	0x3ef9e4f6	0.48807496
193	0xbea17b8f	-0.3153958
194	0xbe313a0e	-0.17307302
195	0x3da52e4b	0.0806547
196	0xbf8b5520	-1.0885353
197	0x3f5bfa90	0.85929203
198	0x3db203c4	0.086921245
199	0xbdc08542	-0.09400417
200	0x3d46c461	0.048527125
201	0xbdd0d63a	-0.101971105
202	0xbe3118e0	-0.17294645
203	0x3d0f3243	0.034960043
204	0xbad9a5aa	-0.0016605158
205	0xbd5e7d7d	-0.054318894
206	0xbbad17de	-0.005282386
207	0xbd7cb2ca	-0.061693944
208	0x3d7bd9d4	0.061487034
209	0x3d8c7c5e	0.06859659
210	0x3e8e75a6	0.27824134
211	0x3b9553bf	0.0045571025
212	0xbddd1f9e	-0.10797046
213	0xbe1289ab	-0.14310329
214	0xbdca33c7	-0.09873157
215	0x3e3a5c53	0.18199281
216	0xbf486636	-0.7828096
217	0xbbcee971	-0.0063144495
218	0xbe353e5c	-0.1769957
219	0xbd36fc1d	-0.044674028
220	0x3e33c238	0.17554557
221	0xbf4e168a	-0.8050314
222	0xbe16ce34	-0.14727098
223	0xbce857b0	-0.028362125
224	0xbde04db9	-0.109523244
225	0xbea86c50	-0.32895136
226	0x3ee7673a	0.45195943
227	0xbe87b26f	-0.26503322
228	0xbd64f6b5	-0.05589934
229	0x3e39bcd7	0.18138443
230	0xbdb5815b	-0.08862563
231	0xbcf4d61c	-0.029887252
232	0xbdec88cb	-0.11549529
233	0x3c758486	0.014985209
234	0xbf395198	-0.7239013
235	0x3f3ddc11	0.7416392
236	0xbdf3b0aa	-0.1189893
237	0x3e7e62ca	0.24842373
238	0xbe26f6a5	-0.16305025
239	0xbdacaf89	-0.08431918
240	0x3e825240	0.25453377
241	0xbe26f71e	-0.16305205
242	0xbe31906d	-0.1734025
243	0x3e8285a8	0.25492597
244	0x3e08a906	0.13345727
245	0xbef91138	-0.4864595
246	0x3d8f45bb	0.06995722
247	0xbe9aaa07	-0.30207846
248	0x3e51031a	0.2041134
249	0xbe7e2df8	-0.24822223
250	0x3de8490a	0.11342056
251	0xbb9b638c	-0.0047420915
252	0xbddc3ccd	-0.10753784
253	0x3ed95c43	0.42453203
254	0xbe21b5cd	-0.15792008
255	0xbe88d026	-0.26721305

conv1.bias f4 [16]
0	0xbd05fc02	-0.032711037
1	0xbfc95a42	-1.573067
2	0x3e020ef4	0.12701017
3	0x3e713f9d	0.23559423
4	0x3f755715	0.95836
5	0x3e0e3608	0.13887799
6	0x3dadfb33	0.08495178
7	0x3e1a42fb	0.15064614
8	0xbef2c28a	-0.47414047
9	0x3f1c9b78	0.61174726
10	0x3f0c0a7e	0.5470351
11	0x3ed56972	0.4168201
12	0x3ecb9499	0.3976181
13	0x3ec0e03a	0.3767107
14	0x3d9174c9	0.07102353
15	0x3f786dd8	0.9704261

convnorm1.weight f4 [16]
0	0x3fc82f03	1.5639347
1	0x3fe4f42b	1.7887014
2	0x3fb652ab	1.4243978
3	0x3fb55905	1.4167792
4	0x3f8d6e50	1.104929
5	0x3fdaa7eb	1.7082494
6	0x3f8b2584	1.0870824
7	0x3f8502a3	1.039143
8	0x400aa261	2.1661608
9	0x3fa0d174	1.256392
10	0x3fc37e5e	1.5272939
11	0x3fe1251f	1.7589453
12	0x3fea2f5c	1.8295703
13	0x3fce5bd5	1.6121775
14	0x3fd46fac	1.659658
15	0x3f97b83c	1.1853099

convnorm1.bias f4 [16]
0	0x3e637ba6	0.22215137
1	0xbe907741	-0.28215984
2	0x3eb78c52	0.35849243
3	0x3e67fb14	0.22654372
4	0x3ed95af2	0.42452198
5	0x3eaab368	0.3334
6	0x3e4ada41	0.1980982
7	0x3e8acad6	0.27107877
8	0xbd1a53e7	-0.03767767
9	0x3eb9b8cf	0.3627381
10	0x3ed8c3fa	0.42337018
11	0x3ee3a223	0.44459638
12	0x3ebf8cbd	0.37412062
13	0x3ebc26a6	0.36748236
14	0x3c0f8ef8	0.008762114
15	0x3ea417a5	0.3204929

convnorm1.running_mean f4 [16]
0	0x3d902727	0.07038718
1	0x3f70996b	0.939841
2	0x3e9c5200	0.3053131
3	0x3ecaad42	0.3958531
4	0x3e8a14f4	0.2696911
5	0x3dc39a0b	0.09550866
6	0x3dc7b4f9	0.09751315
7	0x3e3d0a10	0.1846087
8	0x3e337a44	0.1752711
9	0x3e8315ff	0.2560272
10	0x3ed626dc	0.41826522
11	0x3e0083e8	0.12550318
12	0x3ead243d	0.3381671
13	0x3f63ace6	0.889357
14	0x3e944498	0.28958583
15	0x3f0eebc5	0.55828506

convnorm1.running_var f4 [16]
0	0x3dad15c5	0.08451418
1	0x3fce50da	1.6118424
2	0x3efed60d	0.49772683
3	0x3f06ef3b	0.52708787
4	0x3eb123fd	0.3459777
5	0x3e03eb01	0.12882616
6	0x3de75470	0.11295402
7	0x3e97cc7c	0.29648197
8	0x3ea24abf	0.31697652
9	0x3ed57f5f	0.4169874
10	0x3f353a3f	0.70792
11	0x3e4764a8	0.19471991
12	0x3f3b4ed0	0.73167133
13	0x40040518	2.062811
14	0x3f01d06f	0.5070867
15	0x3f3e55cb	0.7434966

conv2.weight f4 [128, 16, 3, 3]
0	0xbd6d1d0f	-0.05788904
1	0xbea706cc	-0.32622373
2	0xbd926209	-0.07147605
3	0x3e578f4f	0.21050762
4	0xbf848173	-1.0352005
5	0x3d05fedb	0.032713752
6	0xbddac9a1	-0.10682989
7	0xbf010d75	-0.5041116
8	0x3ea2fd10	0.31833696
9	0x3df7888f	0.12086593
10	0x3dfa4341	0.12219859
11	0x3dd8ee4c	0.105923265
12	0xbe67d917	-0.22641407
13	0xbf13d232	-0.5774261
14	0xbe6a72e9	-0.22895397
15	0xbd9a6cad	-0.075402595
16	0xbe084ecf	-0.13311313
17	0xbdfe0dc9	-0.12404973
18	0xbf4925f3	-0.7857353
19	0xbeb03d09	-0.34421566
20	0xbf10a7d4	-0.56506085
21	0xbd966cec	-0.07344994
22	0xbfa5cdb7	-1.2953404
23	0xbf1c4f11	-0.61058146
24	0xbf1bb419	-0.6082168
25	0xbf3ffc81	-0.74994665
26	0x3e341f66	0.17590103
27	0xbe2d5437	-0.16926657
28	0x3e99663b	0.29960808
29	0x3f18973d	0.5960577
30	0xbd85df9e	-0.06536792
31	0x3ef5e2da	0.48024637
32	0xbea0d3fe	-0.31411737
33	0xbe66371b	-0.22481959
34	0xbeed372a	-0.4633115
35	0xbe0cba7f	-0.13743018
36	0xbec5956e	-0.38590568
37	0xbe2a9ba3	-0.16660933
38	0xbe6c921f	-0.23102616
39	0x3eb6e488	0.3572123
40	0x3dc422e1	0.09576965
41	0x3ed0b471	0.40762666
42	0xbe52709c	-0.2055077
43	0x3df32ef1	0.11874188
44	0x3e6e4dbb	0.2327184
45	0xbe51ad7d	-0.20476337
46	0xbf5678c0	-0.83778
47	0xbe77a559	-0.24184169
48	0xbe37c7d4	-0.17947322
49	0xbdf2c484	-0.11853889
50	0x3efe0cbc	0.4961909
51	0xbe4e6d47	-0.20158873
52	0xbddde15d	-0.10834
53	0xbf3364f1	-0.700759
54	0xbef1e5a9	-0.4724553
55	0xbe0d6256	-0.13807043
56	0x3e5d621b	0.21619456
57	0xbc03aaf1	-0.008036361
58	0xbe196bb7	-0.14982496
59	0xbe385ea8	-0.18004858
60	0x3e5db115	0.21649583
61	0xbe98e669	-0.2986329
62	0x3ed610b8	0.4180963
63	0xbe9836c8	-0.29729295
64	0x3e8c2b9e	0.27377027
65	0x3ef97439	0.48721483
66	0xbf87a074	-1.0595841
67	0xbec75e68	-0.38939214
68	0xbe61a64d	-0.22036095
69	0xbe7552a9	-0.23957314
70	0xbd7602f1	-0.0600614
71	0x3ed8051e	0.42191404
72	0x3e7abd96	0.24486384
73	0xbebd776c	-0.37005174
74	0xbd3dd946	-0.046349786
75	0x3ead95f1	0.3390346
76	0xbf1d9943	-0.61561984
77	0xbea4ed50	-0.32212305
78	0x3eeeee1c	0.46666038
79	0xbe9e8ce7	-0.30966875
80	0xbecbb7e2	-0.3978873
81	0x3ea477b3	0.32122573
82	0xbdc11f7e	-0.09429835
83	0x3e11e205	0.14246376
84	0xbe26a7e6	-0.16274986
85	0x3d0c31c8	0.034227163
86	0x3e0b0ea9	0.13579811
87	0x3cd8f12b	0.026482185
88	0x3e70576b	0.23470847
89	0x3e6edb52	0.23325852
90	0xbee78b6c	-0.45223558
91	0x3ed405ae	0.41410583
92	0x3ed7c5b6	0.4214303
93	0xbebf0ade	-0.37312979
94	0x3d93a557	0.072092704
95	0xbe40df40	-0.18835163
96	0xbe464dfa	-0.19365683
97	0xbe2033d7	-0.15644775
98	0x3eb417fb	0.35174546
99	0x3c81546c	0.015787326
100	0xbeae02cd	-0.33986512
101	0xbe06a465	-0.13148649
102	0x3cf635f5	0.030055026
103	0x3da15376	0.07877247
104	0xbd51220b	-0.051057857
105	0xbe65c60c	-0.2243883
106	0xbdf21599	-0.11820526
107	0xbe39c2b0	-0.18140674
108	0xbeed8d1f	-0.4639673
109	0xbf8ea478	-1.1143942
110	0xbe9e74e9	-0.3094857
111	0xbd4ca129	-0.04995838
112	0xbec2af4a	-0.3802436
113	0x3e885009	0.26623562
114	0xbf97fe8f	-1.187456
115	0xbf1cc445	-0.61236984
116	0x3e02bee1	0.12768127
117	0xbd0b5f68	-0.034026533
118	0xbea763dd	-0.32693377
119	0xbed1b0f0	-0.40955305
120	0x3e4f6cd8	0.20256364
121	0xbda8f2d6	-0.08249442
122	0xbe0f9e96	-0.1402534
123	0x3b05d91e	0.0020423601
124	0xbe0fc9a9	-0.14041771
125	0xbe9b46b5	-0.30327383
126	0xbdefd1e0	-0.11709952
127	0x3e0fd0d7	0.1404451
128	0x3dc306d7	0.09522789
129	0xbd343a19	-0.04400072
130	0x3eb53556	0.35392255
131	0x3f08116d	0.5315159
132	0x3dd5edfd	0.10445783
133	0x3e96c28b	0.294453
134	0xbe24208d	-0.16028042
135	0xbe1503b6	-0.14552197
136	0x3eab300f	0.33435103
137	0xbed754b9	-0.42056826
138	0x3eb22848	0.34796357
139	0x3d31c9a7	0.0434052
140	0x3e8e10c3	0.27747163
141	0xbed8ce6d	-0.4234499
142	0xbd5938b1	-0.05303258
143	0x3df27d5f	0.11840319
144	0x3c4de712	0.0125672985
145	0xbc69b29e	-0.014263777
146	0xbef4421b	-0.47706684
147	0x3b4fb524	0.0031693662
148	0xbecec077	-0.40381214
149	0xbf441c19	-0.76605374
150	0xbee30e37	-0.44346783
151	0xbe839977	-0.25703022
152	0xbe60b0c0	-0.21942425
153	0xbfccd8a0	-1.6003609
154	0xbfc707f6	-1.5549304
155	0xbf0021b5	-0.5005143
156	0xc0051ca9	-2.0798743
157	0xbff83f89	-1.9394389
158	0xbec20222	-0.37892252
159	0xc003ba3b	-2.0582416
160	0xbfbe5a62	-1.4871333
161	0xbf0ae8bb	-0.5426137
162	0xbe497903	-0.19675069
163	0x3d8f0329	0.069830246
164	0x3ec0856b	0.3760179
165	0x3cb70f6f	0.022346226
166	0x3e0a40eb	0.13501327
167	0x3eac80ad	0.33691922
168	0x3e101adb	0.14072745
169	0xbd1af365	-0.037829775
170	0x3ecaae58	0.3958614
171	0x3dde4ca5	0.108544625
172	0x3d79256f	0.060826715
173	0x3d92e6c0	0.07172918
174	0x3dadb60a	0.08481987
175	0xbd3ba522	-0.04581178
176	0x3e592ab2	0.21207693
177	0x3cb333d9	0.021875309
178	0x3de95277	0.11392682
179	0x3e021fd7	0.12707458
180	0xbc8248d8	-0.015903875
181	0xbe2e75ad	-0.17037077
182	0xbde8a7dc	-0.11360142
183	0xbdbc1798	-0.09184188
184	0xbdabc57c	-0.083872765
185	0xbd668c03	-0.05628587
186	0xbd5e03d7	-0.05420288
187	0xbd9f9908	-0.0779286
188	0xbe509a7b	-0.2037143
189	0x3e14fb8e	0.14549085
190	0x3d9c1b52	0.076223984
191	0xbd983a83	-0.07433035
192	0x3db7ebee	0.08980547
193	0xbcd53cc8	-0.02602996
194	0x3ded74a5	0.11594514
195	0xbc9819ea	-0.018567044
196	0xbe1271f8	-0.14301288
197	0xbcf47bd5	-0.029844204
198	0xbe31435d	-0.17310853
199	0xbdb27a4c	-0.087147325
200	0x3d234846	0.039863847
201	0x3dc3662c	0.09540972
202	0xbe199655	-0.14998753
203	0x3dc192d1	0.09451831
204	0x3d3a5273	0.045488786
205	0x3c8727b0	0.016498417
206	0x3e176fbb	0.14788716
207	0xbdea36ee	-0.11436258
208	0xbe54b0b9	-0.2077054
209	0xbcda8498	-0.026674554
210	0xbe51ed9f	-0.20500802
211	0xbc941071	-0.018074246
212	0xbe01abed	-0.1266324
213	0x3e0b9fbe	0.13635156
214	0xbc98b447	-0.01864065
215	0xbe171d56	-0.14757285
216	0xbe8f34a3	-0.27969846
217	0xbe463ebc	-0.19359869
218	0x3e547970	0.2074945
219	0xbe438adf	-0.19095944
220	0x3e76a072	0.24084643
221	0xbd59a5fe	-0.053136818
222	0xbd864170	-0.0655545
223	0xbf4c6084	-0.7983477
224	0xbe012cd8	-0.12614763
225	0xbebacd5d	-0.36484805
226	0xbe2816af	-0.16414903
227	0xbeae4a63	-0.34041128
228	0xbe8f61ef	-0.28004405
229	0xbe9a0ed4	-0.30089438
230	0xbee5d9ce	-0.44892734
231	0xbe883509	-0.26602963
232	0xbeb61892	-0.3556562
233	0xbec5e53c	-0.38651454
234	0x3f0eeb1d	0.55827504
235	0x3ede3ee5	0.4340736
236	0x3ec715cd	0.3888382
237	0x3e829994	0.25507796
238	0x3ece862e	0.40336746
239	0x3e2f74cc	0.17134398
240	0x3eac66b2	0.336721
241	0x3ea471d1	0.32118085
242	0xbe44953f	-0.19197558
243	0xbe13d639	-0.14437188
244	0xbebab864	-0.36468804
245	0xbeac4caf	-0.33652255
246	0xbe8fad64	-0.28061974
247	0xbe8a8648	-0.27055573
248	0xbe5dd831	-0.21664502
249	0xbe17fe20	-0.14843035
250	0xbdea34dc	-0.114358634
251	0xbede17f7	-0.4337766
252	0xbf8403a0	-1.0313606
253	0xbf0fe445	-0.56207687
254	0xbf550531	-0.83211046
255	0xbf6a6133	-0.91554564

conv2.bias f4 [128]
0	0x3f28c12a	0.65919745
1	0x3f646da2	0.89229786
2	0xbe0d2bcc	-0.13786238
3	0xbdb889a2	-0.090106264
4	0x3e9a22f9	0.30104807
5	0x3f0c1946	0.54726064
6	0x3ef8dcdd	0.48606005
7	0xbbe038f5	-0.0068427273
8	0x3e2ea5eb	0.1705548
9	0x3f078502	0.5293733
10	0xbe711d28	-0.23546278
11	0x3ef27e4e	0.47361988
12	0x3f80d0db	1.0063738
13	0xbd87c7e7	-0.06629925
14	0x3e191242	0.14948371
15	0x3e6e185b	0.23251478
16	0x3ec92e2a	0.39293033
17	0xbe7d40af	-0.24731706
18	0x3d45d93c	0.048302874
19	0x3c993dda	0.018706251
20	0x3f783730	0.9695921
21	0xbe084666	-0.13308105
22	0x3e8c118e	0.27357143
23	0x3f05f52f	0.52327245
24	0x3eca4be7	0.39511034
25	0x3e9013b5	0.28140035
26	0x3f3e42e8	0.7432084
27	0x3df34008	0.11877447
28	0xbf077f5f	-0.5292873
29	0xbed1ba2f	-0.4096236
30	0x3f092904	0.5357821
31	0xbc95138f	-0.018197803
32	0x3f2ce86f	0.67542166
33	0x3fbb9b98	1.4656858
34	0xbe2e8565	-0.17043073
35	0x3e07933a	0.13239756
36	0x3f51ce9d	0.8195589
37	0x3e673393	0.22578268
38	0xbe8c79eb	-0.27436766
39	0x3f202c46	0.62567556
40	0x3e6cabf9	0.23112477
41	0x3e14533f	0.14484881
42	0x3e694fa2	0.22784284
43	0x3dab0fd1	0.08352626
44	0x3f21de37	0.632297
45	0xbeb2d872	-0.3493076
46	0x3e57ea02	0.2108536
47	0x3f41915c	0.75612426
48	0xbd841b1c	-0.06450483
49	0x3eae3efc	0.34032428
50	0x3d512236	0.051058017
51	0x3e367e71	0.17821671
52	0x3eb66fc2	0.3563214
53	0x3e9f8387	0.31155035
54	0xbe86da8e	-0.2633862
55	0x3e7c7d6c	0.2465722
56	0xbea43ab8	-0.3207605
57	0x3e701e89	0.23449148
58	0x3dfa0d0a	0.12209518
59	0x3d39cfd8	0.04536423
60	0x3e434279	0.19068326
61	0x3f5e4ef1	0.86839205
62	0xbe7921d4	-0.2432931
63	0x3f0a9547	0.5413403
64	0x3e1aaf1e	0.15105864
65	0x3e46aa1c	0.19400829
66	0x3e7338f6	0.23752198
67	0xbf227ae2	-0.63468754
68	0x3e297429	0.16548218
69	0x3f37692d	0.7164486
70	0x3ed55942	0.4166966
71	0x3e6a7c9e	0.228991
72	0xbf1c8853	-0.61145514
73	0x3e1b5e43	0.15172677
74	0x3e120b48	0.14262116
75	0xbf09f100	-0.5388336
76	0x3ebe1fb8	0.37133574
77	0x3dc7c12b	0.09753641
78	0xbeb518d1	-0.35370496
79	0x3d709234	0.05873318
80	0xbee1d9d2	-0.44111496
81	0xbdefb266	-0.11703949
82	0xbed768d5	-0.42072168
83	0x3d5be8f7	0.05368897
84	0x3e966f87	0.29381964
85	0x3e61420a	0.21997848
86	0x3e11e7ac	0.14248532
87	0x3f23140b	0.6370246
88	0x3e28dd8d	0.16490765
89	0xbe4a300b	-0.1974489
90	0x3f0f0f23	0.5588247
91	0x3ebca6ba	0.36845952
92	0x3e0dfecd	0.1386673
93	0x3ea7d186	0.3277704
94	0x3eae4f5a	0.34044915
95	0xbda15f51	-0.07879508
96	0x3ec122a9	0.37721756
97	0x3e0e4976	0.1389521
98	0xbd1ebb01	-0.03875256
99	0x3f2447e5	0.641722
100	0x3e03a4ec	0.12855881
101	0x3eb1e619	0.34745863
102	0x3ebb89da	0.3662861
103	0x3e93acdd	0.28842822
104	0x3e0290f3	0.12750606
105	0x3eff68cd	0.49884644
106	0x3e85a027	0.2609875
107	0x3ea9935e	0.33120245
108	0x3e9e3240	0.30897713
109	0x3e764f97	0.24053799
110	0x3f76b424	0.9636862
111	0x3d4eb541	0.050465826
112	0x3c3dd472	0.011586295
113	0x3ef53380	0.47890854
114	0x3eeced17	0.46274635
115	0x3e4e46e2	0.20144227
116	0x3ee87602	0.45402533
117	0xbf7f3e05	-0.9970401
118	0xbd65cceb	-0.056103628
119	0x3ea8d2b6	0.3297326
120	0x3f327774	0.6971352
121	0xbdc3f697	-0.09568518
122	0xbf4d06e8	-0.80088663
123	0x3f2391bf	0.63894266
124	0x3eb280e0	0.3486395
125	0x3f0d656d	0.5523289
126	0xbe7cfd67	-0.2470604
127	0x3d874c5f	0.066063635

linear.weight f4 [17, 128]
0	0x3ea99a88	0.3312571
1	0xbf2060de	-0.6264781
2	0xbf2b9a20	-0.6703205
3	0xbf4cf991	-0.8006831
4	0x3f720ca2	0.94550526
5	0x3ea5549c	0.32291114
6	0x3eca94a8	0.3956654
7	0xbea64f85	-0.32482544
8	0x3dde7cc9	0.10863645
9	0x3d8430ef	0.06454646
10	0xbe94f341	-0.29091838
11	0xbec656c5	-0.38738075
12	0xbed0ca2e	-0.4077925
13	0xbea5c4e5	-0.3237678
14	0xbe282f39	-0.16424264
15	0xbe71780d	-0.23580952
16	0x3eca02c8	0.39455247
17	0x3eb4cc2e	0.35312027
18	0xbe406db4	-0.18791848
19	0xbedf12c1	-0.43568996
20	0xbf3d5071	-0.7395087
21	0xbf8304d0	-1.0235844
22	0x3e81a689	0.2532237
23	0xbf1cd845	-0.612675
24	0xbf26d371	-0.65166384
25	0x3e895f4a	0.26830512
26	0xbeaf105b	-0.34192166
27	0xbecafaf2	-0.3964458
28	0xbed3e841	-0.41388133
29	0xbe8b7efe	-0.27245325
30	0x3f4aae7a	0.7917248
31	0x3e1a0131	0.15039517
32	0xbede0159	-0.43360403
33	0xbf844ac9	-1.0335323
34	0xbeedf685	-0.46477142
35	0x3e823ecd	0.25438538
36	0x3f8c94d2	1.0982916
37	0xbd1e951d	-0.038716424
38	0xbee0ed85	-0.43931213
39	0x3f04e9e0	0.51919365
40	0xbe72391b	-0.23654597
41	0xbec44abc	-0.38338268
42	0x3f654394	0.8955624
43	0xbf676805	-0.90393096
44	0xbea51536	-0.32242745
45	0xbe86ae44	-0.2630483
46	0x3b691a97	0.0035568827
47	0x3f568e25	0.83810645
48	0xbe92cf87	-0.28673956
49	0x3b8100bc	0.003936855
50	0x3c41cf33	0.011829185
51	0x3c3b60fa	0.011436695
52	0x3e14eb3c	0.1454286
53	0xbd0b9a46	-0.034082673
54	0xbdd4538f	-0.103675
55	0x3dcc83b8	0.09986061
56	0xbf2fbb95	-0.686456
57	0xbe1bc1ab	-0.15210597
58	0xbe08a057	-0.13342415
59	0xbf22cbac	-0.6359203
60	0x3ee19140	0.4405613
61	0xbecaca42	-0.39607435
62	0xbe9dcad3	-0.30818805
63	0xbd4e13d7	-0.05031189
64	0xbe3db9a3	-0.18527846
65	0xbe62e5a4	-0.22157913
66	0x3ebad74d	0.36492386
67	0xbf203501	-0.6258088
68	0xbe80211d	-0.25025263
69	0xbe79ab27	-0.24381696
70	0x3eb7d739	0.3590639
71	0x3e99fe71	0.30076936
72	0x3ec40ec0	0.38292503
73	0x3ecfc1ca	0.40577537
74	0xbf1a68c7	-0.6031613
75	0xbbd1d3b4	-0.006403411
76	0x3ea11fd6	0.314696
77	0xbf18c7e9	-0.5968004
78	0x3eebf660	0.46086407
79	0xbf00f53b	-0.5037419
80	0x3e9be53d	0.30448332
81	0xbec11976	-0.37714738
82	0xbefaea3b	-0.4900683
83	0x3e802f5f	0.2503614
84	0x3e81ba6c	0.2533754
85	0xbda02748	-0.07819992
86	0xbf5a7ade	-0.8534373
87	0x3eb4eed6	0.35338467
88	0x3f101af6	0.5629114
89	0xbf6618e3	-0.89881724
90	0xbf314678	-0.6924815
91	0x3e6ad8e8	0.22934306
92	0x3e50e742	0.20400718
93	0xbe46754b	-0.19380681
94	0x3e92235d	0.28542605
95	0xbeb683f5	-0.3564755
96	0xbdd185f0	-0.10230625
97	0x3f61439c	0.8799379
98	0xbe8850c8	-0.2662413
99	0x3ed5bbb1	0.4174476
100	0x3e6c5a6c	0.23081368
101	0x3ea05a65	0.31318966
102	0xbe70b8e7	-0.23508035
103	0xbeb3932f	-0.3507323
104	0xbe2ad71d	-0.16683622
105	0xbce176e4	-0.027522512
106	0x3f562cf4	0.83662343
107	0x3f18c132	0.5966979
108	0xbeb216cf	-0.34783027
109	0xbdcc938b	-0.09989079
110	0xbf95dd30	-1.1708126
111	0xbea1bdc9	-0.31590107
112	0xbf592b6d	-0.8483189
113	0xbea3bb35	-0.31978765
114	0x3eec669e	0.4617204
115	0x3ef5d758	0.48015857
116	0x3e68a46c	0.22718972
117	0x3f5f1e6a	0.87155783
118	0xbf47153a	-0.77766764
119	0xbe8b530d	-0.272118
120	0xbef48adf	-0.477622
121	0x3e4fdb52	0.20298508
122	0xbe532b52	-0.20621994
123	0x3f2c0354	0.6719258
124	0x3dd545a9	0.10413677
125	0xbda4cd74	-0.080469996
126	0xbf0986b5	-0.5372117
127	0x3efd790c	0.49506414
128	0xbeb0e99e	-0.34553236
129	0xbe8b4253	-0.2719904
130	0x3c435823	0.011922869
131	0xbf0d4725	-0.5518668
132	0x3d4a5221	0.04939473
133	0xbe467de8	-0.19383967
134	0xbe02317d	-0.12714191
135	0x3edb0859	0.42779806
136	0xbf252736	-0.64512956
137	0x3e95741c	0.29190147
138	0xbeb93c6b	-0.36178908
139	0xbed3dd7b	-0.41379914
140	0xbf0301e8	-0.51174784
141	0x3b8b5dd2	0.0042531276
142	0xbdbec47b	-0.093148194
143	0xbe32b75d	-0.1745276
144	0x3dc7bdd2	0.09753002
145	0xbf08d61c	-0.53451705
146	0x3ef3a65e	0.47587866
147	0xbe1f2424	-0.1554113
148	0xbeb33f5a	-0.3500927
149	0xbf0622de	-0.52396953
150	0xbed20781	-0.4102135
151	0xbe3d585d	-0.18490739
152	0x3f44daca	0.76896346
153	0xbebf74bb	-0.37393746
154	0xbf3fd7af	-0.7493848
155	0x3d8941ed	0.067020275
156	0xbe6876d9	-0.22701587
157	0x3ea65bc5	0.3249189
158	0x3bff9acc	0.0078004356
159	0xbf26beef	-0.6513509
160	0x3d124fa6	0.03572049
161	0xbf21cdff	-0.6320495
162	0xbf0a3bed	-0.5399769
163	0xbcee70d1	-0.02910653
164	0x3f049f5a	0.5180565
165	0x3e4798b9	0.19491853
166	0x3f0df0cb	0.55445546
167	0x3e1ab07b	0.15106384
168	0x3d807d58	0.062739074
169	0x3d480361	0.048831347
170	0x3df5e7d2	0.12007107
171	0xbbf7bf71	-0.0075606634
172	0xbf19822f	-0.5996427
173	0xbf0940cd	-0.53614503
174	0xbeb9fd48	-0.3632605
175	0x3d926bff	0.07149505
176	0xbe980d6b	-0.29697737
177	0x3e5fdafb	0.21860878
178	0xbe227f54	-0.15868884
179	0x3eb1c031	0.34716943
180	0x3e2636d9	0.1623186
181	0xbe6b7198	-0.22992551
182	0x3e240bba	0.16020098
183	0xbd1921b0	-0.037385643
184	0xbf0b1cae	-0.54340637
185	0x3efb0304	0.49025738
186	0x3f72cd06	0.9484409
187	0x3cb61867	0.022228433
188	0xbe6db0b6	-0.23211941
189	0xbefdd679	-0.49577692
190	0xbf16b6f9	-0.58872944
191	0x3efc9487	0.49332067
192	0xbce0bc7a	-0.027433623
193	0x3d5ea077	0.05435225
194	0x3e83f586	0.25773257
195	0xbf303074	-0.68823934
196	0xbe8bde87	-0.27318212
197	0xbf0273d4	-0.5095799
198	0xbe61720d	-0.22016163
199	0x3f08d1c4	0.53445077
200	0xbe7169ab	-0.23575465
201	0xbe57058d	-0.20998211
202	0x3d5b133e	0.053485148
203	0xbed3041b	-0.4121407
204	0x3dda4bba	0.10658975
205	0xbdd76a45	-0.10518316
206	0xbf8ffb17	-1.1248502
207	0xbda52cce	-0.080651864
208	0xbee68aa8	-0.4502766
209	0x3cdf27bc	0.027240627
210	0xbf87fa95	-1.0623347
211	0x3da695c5	0.08134035
212	0xbe6a65af	-0.22890352
213	0xbf1b5fec	-0.6069324
214	0xbe090dd9	-0.13384189
215	0xbe3fe959	-0.18741359
216	0x3f700451	0.93756586
217	0x3dec51d0	0.11539042
218	0xbe5325ef	-0.2061994
219	0x3ebb50db	0.36585125
220	0x3f48c955	0.7843221
221	0xbec0f462	-0.3768645
222	0xbe5237ec	-0.20529145
223	0x3dbd4a44	0.09242681
224	0xbf3c572c	-0.73570514
225	0x3f53d7e2	0.82751286
226	0x3eaadde9	0.3337243
227	0x3f160675	0.586036
228	0xbf16508e	-0.58716667
229	0x3e09163d	0.1338739
230	0x3e104151	0.14087416
231	0xbd1c252a	-0.03812138
232	0x3e4e7fd9	0.20165958
233	0x3ecc2fff	0.39880368
234	0xbe022460	-0.12709188
235	0xbea3aa9b	-0.319661
236	0xbe10d714	-0.14144546
237	0xbe5228d5	-0.20523389
238	0x3f2966b9	0.6617237
239	0xbe876ce2	-0.26450258
240	0xbdfc8f19	-0.12331981
241	0xbde49a45	-0.11162237
242	0xbed88842	-0.42291456
243	0xbf4c9eac	-0.79929614
244	0x3ec967f6	0.39337128
245	0x3ec4e346	0.38454646
246	0xbda93577	-0.08262151
247	0x3e83cabb	0.2574061
248	0x3f3c6860	0.73596764
249	0x3dd870bf	0.105683796
250	0xbec0091e	-0.37506956
251	0x3e053765	0.13009413
252	0xbe92776f	-0.28606746
253	0xbe06a53d	-0.13148971
254	0x3e5c44d5	0.21510632
255	0x3f268f17	0.6506209

linear.bias f4 [17]
0	0x3d20d025	0.039261002
1	0xbecbe7dc	-0.39825332
2	0xbd0daee2	-0.03459061
3	0xbf796bf1	-0.9743033
4	0xbe871731	-0.2638488
5	0x3dd9047f	0.10596561
6	0xbfa15650	-1.2604465
7	0xbf34b233	-0.7058441
8	0x3e7b9d41	0.24571706
9	0xbf20cc6a	-0.6281191
10	0xbf0f6e1a	-0.56027377
11	0xbdb73667	-0.08945923
12	0xbebe0550	-0.37113428
13	0xbdc71256	-0.09720294
14	0xbfa0852a	-1.2540638
15	0xbe70c977	-0.23514353
16	0xbf4a57b8	-0.790401
