Code/model_Valetudo.pt (torch, 92218 bytes, 16 tensors)

conv0.weight f4 [3, 3, 5, 5]
-0.09188326 0.04558998 -0.106804945 0.007332877 0.031166656 0.05245651 -0.013129747 0.040133756
-0.1028401 0.0058061616 -0.074098565 0.06945085 -0.01068417 0.08537784 0.075820826 0.07095339
-0.077832885 -0.06992682 0.08632732 0.09371351 -0.10711626 0.021366082 -0.079030536 0.055502422
0.09319905 0.03924958 -0.04867185 -0.046743948 0.0425923 -0.11364349 0.06400668 -0.015100868
0.016003722 0.07926615 0.05272958 0.08454383 -0.04548531 0.08144503 0.066323444 0.08859022
0.019310223 0.019293802 0.042765394 0.0757037 0.112987876 0.015599606 -0.009692064 -0.0018604087
-0.005298656 0.10517601 0.049037475 0.10347489 -0.0031906269 0.0046834797 0.07705853 0.01093347
-0.028830692 0.0005241476 0.06509332 -0.10544802 -0.017571623 0.089159295 -0.09160271 0.08576002
-0.02033553 -0.045725387 0.003965864 0.084677145 0.0441337 -0.10343955 -0.03546726 0.023025576
0.024354912 0.09928638 -0.11409522 0.08614259 -0.07919109 0.048186135 0.014396467 0.07357188
0.006773945 0.066735156 0.026446782 -0.08973053 -0.006070796 0.0880094 -0.052430548 0.105134025
-0.08437557 -0.10274628 0.036130216 0.098545566 -0.07727555 -0.0483506 0.022053208 0.09697196
-0.11386387 -0.09274336 0.11277242 -0.06473535 -0.033269167 -0.060261775 -0.093562394 -0.022489287
-0.044938877 0.070210956 -0.09795177 0.06481388 0.024706984 0.046411097 -0.11375497 -0.04660189
-0.09884412 -0.11304489 -0.016941043 -0.104166456 0.0818907 -0.08140815 0.029824711 -0.031880047
-0.09842773 -0.059450544 0.02545487 -0.022342551 0.046403605 -0.10678506 0.076103926 0.07304161
0.0009937579 0.046565883 -0.06465729 0.04586568 -0.04491769 0.08799824 -0.031434692 0.00052557915
0.06830032 -0.051006835 -0.087392695 -0.069325626 0.014686126 0.06212498 0.07243628 -0.00898524
0.058158785 0.0072148684 0.02466343 -0.103278875 0.06655832 -0.07531993 0.027860967 0.021424033
0.04656032 -0.036765516 -0.09924907 -0.054232206 0.089283295 -0.0057770484 -0.039227612 0.07584847
0.06616216 -0.024860973 -0.11486791 0.0606094 -0.06382607 -0.048009004 0.009668539 0.11500515
-0.06892988 0.08764048 -0.029230678 -0.020630902 -0.07953983 0.037433274 -0.07209328 0.080484994
-0.008867093 0.079232 -0.036708403 -0.07552657 -0.028327204 0.061383713 -0.058311466 0.11209621
-0.02557318 0.021301785 0.11432723 -0.06877227 -0.012602324 -0.09476311 -0.06684836 0.020656781
-0.07101556 0.05105284 -0.07312056 0.10188618 0.038373515 -0.0006987304 -0.046653707 0.07309135
0.010324364 0.06960876 -0.0111267045 0.06827606 0.069036216 0.0953881 -0.09053289 0.104806654
0.075688645 0.06495632 0.08502595 0.043672707 0.0011180292 -0.048026815 -0.021438116 0.003951493
0.046373654 0.021532228 -0.010790601 -0.10668037 0.09135051 0.10677327 -0.06036032 0.04593777
0.011311418
00000000: 4a2d bcbd 8fbc 3a3d 8dbc dabd a148 f03b
00000010: 3751 ff3c a3dc 563d 261e 57bc 4b63 243d
00000020: d59d d2bd 9d41 be3b fdc0 97bd 3f3c 8e3d
00000030: a80c 2fbc 94da ae3d f347 9b3d 0350 913d
00000040: d966 9fbd cb35 8fbd 61cc b03d deec bf3d
00000050: c55f dbbd ec07 af3c c3da a1bd 8256 633d
00000060: 25df be3d 2bc4 203d 225c 47bd 9576 3fbd
00000070: 4375 2e3d ebbd e8bd ef15 833d a269 77bc
00000080: 3d1a 833c 4b56 a23d f9fa 573d 5125 ad3d
00000090: ce4e 3abd a7cc a63d 96d4 873d ca6e b53d
000000a0: 7930 9e3c 090e 9e3c c42a 2f3d 8b0a 9b3d
000000b0: 3066 e73d 7d95 7f3c 76cb 1ebc f5d8 f3ba
000000c0: 59a0 adbb 8566 d73d 85db 483d a5ea d33d
000000d0: d619 51bb e077 993b ddd0 9d3d 4c22 333c
000000e0: 582e ecbc f366 093a a64f 853d 22f5 d7bd
000000f0: 5df2 8fbc 2699 b63d 349a bbbd f3a2 af3d
00000100: b396 a6bc 8b4a 3bbd 14f4 813b 366b ad3d
00000110: 8ac5 343d 1dd8 d3bd 1e46 11bd 22a0 bc3c
00000120: f483 c73c a856 cb3d c1aa e9bd 876b b03d
00000130: f02e a2bd d35e 453d 29df 6b3c dbac 963d
00000140: f8f7 dd3b 71ac 883d eca6 d83c a4c4 b7bd
00000150: 87ed c6bb 463e b43d 6ac1 56bd 8250 d73d
00000160: 19cd acbd a46c d2bd 47fd 133d 42d2 c93d
00000170: a542 9ebd 470b 46bd eea8 b43c 3c99 c63d
00000180: 7631 e9bd 3bf0 bdbd 3af5 e63d f893 84bd
00000190: 4045 08bd 0dd5 76bd a49d bfbd 743b b8bc
000001a0: d411 38bd c3ca 8f3d f09a c8bd 24bd 843d
000001b0: 4d66 ca3c 9019 3e3d 5ef8 e8bd a0e1 3ebd
000001c0: c96e cabd 1484 e7bd f1c7 8abc 3955 d5bd
000001d0: 50b6 a73d 51b9 a6bd f452 f43c a794 02bd
000001e0: 7a94 c9bd 6a82 73bd bb86 d03c ba07 b7bc
000001f0: b511 3e3d 20b2 dabd 60dc 9b3d d796 953d
00000200: fb40 823a debb 3e3d 0b6b 84bd a7dd 3b3d
00000210: 9dfb 37bd 6c38 b43d aac1 00bd 05c7 093a
00000220: 0ae1 8b3d 8bec 50bd f1fa b2bd 98fa 8dbd
00000230: 149e 703c c376 7e3d 7959 943d d436 13bc
00000240: e837 6e3d b46a ec3b f60a ca3c e083 d3bd
00000250: ba4f 883d 5641 9abd af3c e43c 7481 af3c
00000260: 09b6 3e3d 7097 16bd 1943 cbbd 9722 5ebd
00000270: 29da b63d 654d bdbb 22ad 20bd 7156 9b3d
00000280: 0780 873d 3da9 cbbc de3f ebbd 9041 783d
00000290: 3eb7 82bd 17a5 44bd cb68 1e3c d287 eb3d
000002a0: 1c2b 8dbd da7c b33d 2d75 efbc 2302 a9bc
000002b0: c7e5 a2bd a253 193d a4a5 93bd 51d5 a43d
000002c0: 4947 11bc 6344 a23d 8d5b 16bd adad 9abd
000002d0: 740e e8bc 7d6d 7b3d 01d8 6ebd b392 e53d
000002e0: d87e d1bc 1581 ae3c 6524 ea3d 7ad8 8cbd
000002f0: fa79 4ebc 2913 c2bd cbe7 88bd 6938 a93c
00000300: 9b70 91bd c81c 513d 3bc0 95bd b4a9 d03d
00000310: 8c2d 1d3d 012b 37ba f517 3fbd ebb0 953d
00000320: 8527 293c 0a8f 8e3d c84c 36bc 52d4 8b3d
00000330: dc62 8d3d d65a c33d 4f69 b9bd dfa4 d63d
00000340: a602 9b3d d207 853d 1622 ae3d 27e2 323d
00000350: d68a 923a c4b7 44bd fd9e afbc 877b 813b
00000360: 4df2 3d3d 5b64 b03c 10cb 30bc 3d7b dabd
00000370: fa15 bb3d f2ab da3d 623c 77bd 3e29 3c3d
00000380: 8753 393c

conv0.bias f4 [3]
0.003927198 -0.10702711 -0.03466562
00000000: b9af 803b 0831 dbbd 8afd 0dbd

bn0.weight f4 [3]
1.0 1.0 1.0
00000000: 0000 803f 0000 803f 0000 803f

bn0.bias f4 [3]
0.0 0.0 0.0
00000000: 0000 0000 0000 0000 0000 0000

bn0.running_mean f4 [3]
0.0 0.0 0.0
00000000: 0000 0000 0000 0000 0000 0000

bn0.running_var f4 [3]
1.0 1.0 1.0
00000000: 0000 803f 0000 803f 0000 803f

conv1.weight f4 [16, 3, 3, 3]
-0.061256204 0.2869513 0.14939153 -0.2272644 -0.13430163 -0.38536033 -0.017607216 0.628658
0.25147194 -0.30042267 0.33382472 -0.20018168 -0.38977307 -0.37073535 -0.5385205 0.091630876
0.52362514 -0.092089355 0.30413288 0.6998563 0.36234456 -0.34121174 -0.34202045 -0.5383612
-0.4309557 0.19156884 -0.014671598 0.12667392 0.035659377 0.020053653 0.12736544 0.15903544
0.0183739 -0.40433198 -0.38295186 -0.0124209 -0.78022116 -0.5207474 -0.42779824 -0.48296446
-0.49390963 -0.56417984 -0.39784148 -0.3480445 -0.37802142 -0.22217031 -0.3983322 -0.36706933
-0.2998366 -0.29547653 -0.13305083 -0.5118409 -0.3438775 -0.5170306 -0.5844105 0.036554426
-0.07473061 -0.56632704 0.08396453 0.31113422 0.1732327 0.3218917 0.28558046 -0.618815
-0.044791825 0.34065813 -0.6723495 0.31200445 0.55206674 -0.20740123 0.057381395 0.28104144
0.044259552 0.024685737 0.0957768 -0.43828037 0.25968656 0.34037325 -0.20234305 -0.028874401
-0.08217882 0.42104656 -0.05818004 -0.19055614 0.07349894 0.24074411 0.19239247 -0.53357553
0.16695176 0.059536934 0.12616727 -0.4839349 -0.5037991 0.041462373 -0.25007218 -0.057610504
-0.24192235 0.29537025 0.3468574 0.20662609 -0.5220357 -0.7637939 0.026043657 0.23217778
0.0798602 -0.11565458 0.5163855 0.70368826 0.69315094 0.38112518 0.4679872 0.31220648
0.38713992 0.1323907 0.36260164 0.12957448 0.3345659 0.0645149 -0.20899864 0.037679654
-0.0043446096 -0.33394787 -0.24467163 0.014925677 0.15711235 0.18995035 -0.22490276 -0.1714049
-0.33143863 -0.48661795 -0.6107841 -0.40470862 -0.10867263 -0.3311162 -0.37093475 0.21747811
0.25732535 0.109693654 0.055235144 -0.30404735 -0.066952355 -0.20742646 -0.4385367 0.2281607
0.36306375 0.6854741 0.6232416 -0.31335384 -0.08546867 0.07917636 -0.7957748 -0.603372
-0.3015011 -0.2645408 -0.33865052 -0.045450054 -0.1498773 -0.16970833 0.1634767 0.23547375
0.4237255 0.29330978 0.16584623 -0.24673517 0.013173186 -0.043323718 -0.2832962 -0.21445297
0.5097511 0.34796166 0.0849532 -0.10831684 -0.3085039 -0.38161153 0.15793873 -0.16742207
-0.4322471 0.33255786 0.06402135 -0.41386715 0.2561422 0.7483858 0.22941434 0.048607256
0.53225666 0.3995654 -0.6134527 -0.40981194 -0.32849565 -0.024453595 0.50468075 0.91582006
-0.19617507 0.15974279 0.12132264 -0.38906854 0.14020088 -0.18773997 -0.24730659 0.44956547
0.6879137 -0.1367773 -0.18314484 -0.10958501 -0.3565219 -0.045870576 -0.14279366 0.06190014
0.009032946 0.26789007 -0.050839875 0.0114229545 -0.3673442 0.28588337 -0.06449164 -0.23518978
0.24134341 -0.26530737 -0.100517705 0.06974292 0.10518284 0.10497144 -0.10846431 0.29242113
0.8254766 -0.019284712 -0.10994708 -0.18195766 -0.3872287 -0.32337812 0.01867884 -0.29362974
-0.29736868 0.75634056 -0.17180248 -0.07845012 0.43485594 0.13006105 0.36489576 0.7012153
-0.10495048 0.34941643 0.66035724 -0.43734115 -0.3586559 -0.5858029 0.06652574 -0.110357754
-0.20626919 0.50391257 0.46389544 0.18234052 -0.31049645 -0.29519698 -0.29087895 0.30017534
00000000: c9e7 7abd 48eb 923e 18fa 183e 00b8 68be
00000010: 5e86 09be f34d c5be 023d 90bc bbef 203f
00000020: eec0 803e 00d1 99be 13eb aa3e 6dfc 4cbe
00000030: 5690 c7be 06d1 bdbe 7bdc 09bf f8a8 bb3d
00000040: 4c0c 063f 5899 bcbd 4eb7 9b3e c829 333f
00000050: 3a85 b93e 4eb3 aebe 4e1d afbe 0ad2 09bf
00000060: 3aa6 dcbe 9f2a 443e 2461 70bc cfb6 013e
00000070: 910f 123d 8f47 a43c 166c 023e 30da 223e
00000080: dc84 963c 9a04 cfbe 4412 c4be 0881 4bbc
00000090: 93bc 47bf b44f 05bf 5f08 dbbe 1e47 f7be
000000a0: b9e1 fcbe 176e 10bf e1b1 cbbe e432 b2be
000000b0: 068c c1be 9d80 63be 33f2 cbbe 83f0 bbbe
000000c0: 2f84 99be b348 97be 7a3e 08be 0108 03bf
000000d0: b610 b0be 1e5c 04bf ed9b 15bf 18ba 153d
000000e0: 5d0c 99bd cffa 10bf 98f5 ab3d fc4c 9f3e
000000f0: ea63 313e fdce a43e 9a37 923e a96a 1ebf
00000100: a277 37bd be6a ae3e 191f 2cbf 0cbf 9f3e
00000110: 3f54 0d3f fd60 54be c108 6b3d aae4 8f3e
00000120: 8149 353d be39 ca3c a026 c43d 4966 e0be
00000130: a3f5 843e 6745 ae3e 0433 4fbe 028a ecbc
00000140: 5f4d a8bd 6a93 d73e 324e 6ebd 2621 43be
00000150: 9d86 963d a085 763e 8802 453e 6898 08bf
00000160: 67f5 2a3e 00dd 733d fe31 013e 51c6 f7be
00000170: faf8 00bf 73d4 293d 7609 80be fef8 6bbd
00000180: 7eba 77be c53a 973e 4b97 b13e ca95 533e
00000190: 22a4 05bf ff87 43bf 8259 d53c 03c0 6d3e
000001a0: bf8d a33d 4fdc ecbd d731 043f ea24 343f
000001b0: 5772 313f d722 c33e 059c ef3e 87d9 9f3e
000001c0: 3437 c63e 6d91 073e eca6 b93e 2caf 043e
000001d0: 394c ab3e 6320 843d bd03 56be fb55 1a3d
000001e0: 3a5d 8ebb 37fb aabe 338b 7abe d48a 743c
000001f0: 0fe2 203e 5882 423e e94c 66be c484 2fbe
00000200: 53b2 a9be fd25 f9be 595c 1cbf f835 cfbe
00000210: c18f debd 1088 a9be 29eb bdbe 95b2 5e3e
00000220: 26c0 833e 11a7 e03d 3f3e 623d 18ac 9bbe
00000230: 511e 89bd 9a67 54be e287 e0be f5a2 693e
00000240: 7ee3 b93e 3b7b 2f3f c38c 1f3f ea6f a0be
00000250: 330a afbd 3727 a23d e6b7 4bbf 9676 1abf
00000260: 5a5e 9abe e471 87be 9a63 adbe d629 3abd
00000270: 6f79 19be 05c8 2dbe 7066 273e 0820 713e
00000280: 8cf2 d83e b32c 963e 98d3 293e 25a8 7cbe
00000290: 59d4 573c 3674 31bd 330c 91be 8f99 5bbe
000002a0: 0c7f 023f 0828 b23e f1fb ad3d 38d5 ddbd
000002b0: 39f4 9dbe 9662 c3be b1ba 213e b170 2bbe
000002c0: 7e4f ddbe 0645 aa3e a01d 833d 65e6 d3be
000002d0: 1225 833e 3696 3f3f 98eb 6a3e 6718 473d
000002e0: f941 083f d693 cc3e 3c0b 1dbf dfd2 d1be
000002f0: 9530 a8be e852 c8bc c232 013f 2f73 6a3f
00000300: 1ee2 48be 9d93 233e 0178 f83d fe33 c7be
00000310: d290 0f3e e83e 40be f03d 7dbe 722d e63e
00000320: 1d1b 303f 590f 0cbe 528a 3bbe 1b6e e0bd
00000330: 0a8a b6be c9e2 3bbd 8038 12be 008b 7d3d
00000340: ecfe 133c e328 893e 793d 50bd 5827 3b3c
00000350: 8a14 bcbe 4e5f 923e 3114 84bd 97d5 70be
00000360: ba22 773e 5ed6 87be 3adc cdbd 60d5 8e3d
00000370: 1a6a d73d 44fb d63d 8922 debd 39b8 953e
00000380: 6f52 533f f9fa 9dbc ef2b e1bd 1c53 3abe
00000390: d742 c6be d191 a5be 5e04 993c a356 96be
000003a0: b540 98be 899f 413f fdec 2fbe 75aa a0bd
000003b0: 70a5 de3e b92e 053e 9ed3 ba3e d982 333f
000003c0: 47f0 d6bd b6e6 b23e 2c0d 293f 2eeb dfbe
000003d0: bfa1 b7be 2ef7 15bf a63e 883d 3f03 e2bd
000003e0: 3b38 53be 6a00 013f b483 ed3e 79b7 3a3e
000003f0: 64f9 9ebe 0f24 97be 16ee 94be 95b0 993e

conv1.bias f4 [16]
0.054157104 -0.1005727 0.07600922 0.0912392 0.20760262 -0.0011765605 0.0028945198 -0.58811986
0.08734 -0.27476048 0.20156513 0.27262792 0.044672057 -0.06559679 0.105741285 -0.18437405
00000000: d7d3 5d3d 0ff9 cdbd b9aa 9b3d 9edb ba3d
00000010: c895 543e d236 9aba fcb1 3d3b 068f 16bf
00000020: 50df b23d 68ad 8cbe 1767 4e3e e395 8b3e
00000030: 0cfa 363d 9c57 86bd e38e d83d 8dcc 3cbe

convnorm1.weight f4 [16]
2.858019 1.3029258 3.7938073 2.8562598 1.0826963 2.5179682 2.5698733 2.61195
0.63155663 2.7950861 2.6191273 0.49249065 1.6387113 2.0581322 3.6586661 0.80602354
00000000: c9e9 3640 46c6 a63f bdcd 7240 f6cc 3640
00000010: cb95 8a3f 6426 2140 ce78 2440 302a 2740
00000020: b2ad 213f b1e2 3240 c89f 2740 bc27 fc3e
00000030: 4bc1 d13f 70b8 0340 9627 6a40 8f57 4e3f

convnorm1.bias f4 [16]
0.40188518 0.5522495 0.45819652 0.34586847 0.44723043 -0.31296045 0.9196005 0.016547868
0.35140738 0.21113324 0.23843159 0.22664186 0.3650541 0.7719606 0.059582848 0.26830232
00000000: e5c3 cd3e 3960 0d3f bc98 ea3e ac15 b13e
00000010: 63fb e43e 5a3c a0be f06a 6b3f 658f 873c
00000020: abeb b33e 5033 583e 6927 743e ce14 683e
00000030: 5fe8 ba3e 369f 453f 250d 743d ec5e 893e

convnorm1.running_mean f4 [16]
0.020778146 1.7446684e-12 0.13153638 0.11904221 0.15666068 0.029900165 0.050441682 0.04460154
1.1765808 0.14790069 0.20425831 0.18334265 0.039456256 0.14862934 0.12373778 0.27183196
00000000: ee36 aa3c 4e8a f52b 79b1 063e 67cc f33d
00000010: a86b 203e 31f1 f43c f09b 4e3d 1bb0 363d
00000020: 339a 963f 4773 173e 1729 513e 2dbe 3b3e
00000030: e29c 213d 4a32 183e 3c6a fd3d 8f2d 8b3e

convnorm1.running_var f4 [16]
0.0063183564 9.554392e-14 0.046703503 0.027660068 0.09656183 0.009841375 0.012315202 0.015213614
0.47759196 0.06814136 0.033732455 0.07826917 0.014420459 0.06964072 0.013791873 0.10034043
00000000: 370a cf3b 5225 d729 2c4c 3f3d 5e97 e23c
00000010: 35c2 c53d b83d 213c b3c5 493c 8642 793c
00000020: ef86 f43e b38d 8b3d 0b2b 0a3d 964b a03d
00000030: ca43 6c3c cb9f 8e3d 4ff7 613c 497f cd3d

conv2.weight f4 [128, 16, 3, 3]
-0.78978175 -0.36545002 -0.21303779 -0.8354706 -0.34120372 -0.37800464 -0.48305103 -0.15522344
-0.33900145 -0.22025852 -0.10624523 -0.11734113 -0.17298813 -0.025563018 -0.15583113 -0.13565154
-0.04597992 -0.029555472 -0.7300681 -0.022124449 0.10364084 -0.7026527 0.028405504 0.096214324
-0.7731821 -0.028825635 0.070832096 -0.48602796 -0.35572872 -0.70094407 -0.05952879 0.20637845
-0.21964228 -0.57409465 -0.060579196 -0.3154448 -0.76298875 -0.34680066 0.30548888 -1.0639515
-0.34737352 0.27435002 -1.2481999 -0.5518407 0.06769976 -0.013762776 -0.23347318 0.019824084
-0.00834427 -0.25053963 -0.1239759 0.0022774658 -0.20878032 -0.18710078 0.08365195 -0.047919262
-0.037079178 0.12991951 0.09341853 -0.0393704 -0.07681831 -0.22958039 -0.18641545 0.089605175
0.26231197 0.5048219 -0.08808004 0.07092819 0.26535738 -0.037619587 0.11152761 0.31755206
-0.62984186 -0.30603194 0.10652399 -0.6924553 -0.26474503 0.16415463 -0.74695075 -0.2888986
0.1696091 -0.30455408 -0.6587503 -1.1683396 0.2585621 0.09232563 -0.074966945 -0.25990468
-0.27580145 -0.48485515 0.3278909 0.56100136 0.68953335 0.19012794 0.38128242 0.39472628
0.22978105 0.362284 0.46329245 0.04545243 -0.09715837 -0.2591932 0.0031753606 0.05624618
-0.12731647 0.022368994 0.13852945 -0.12071552 -1.1526327 0.53283983 1.4115146 -4.1808577
-1.1223137 0.61711437 -6.309087 -3.6393266 -0.48605067 -0.7702124 -0.0029507277 0.55765295
-0.71215177 0.1689247 0.68157816 -0.8973942 0.06542458 0.6523938 -0.06552717 -0.31056234
0.11766918 -0.30973622 -0.4348321 -0.15434058 -0.24237052 -0.23947996 -0.09960811 -0.34664884
-0.14114672 -0.1059156 -0.7516909 -0.5360506 -0.46807432 -1.199887 -0.865005 -0.59697366
-0.11862167 -0.07354568 -0.028268863 -0.37713715 -0.34152913 -0.5656883 -1.0104026 -1.0937526
-1.3447418 0.0123454975 0.13819738 0.09398836 0.063913755 0.12389265 0.15340424 -0.008518352
0.028397918 0.020588282 0.29375973 0.27106637 -0.12500902 0.17801476 0.45083547 0.1786186
-0.49090436 0.05474603 0.34170797 -0.47535315 -0.7500473 -0.5308879 -0.30832806 -0.5817133
-0.6209385 -0.10510154 -0.09835048 0.014148559 -0.5561182 -0.79665124 -1.0565922 -0.4411925
-0.6131158 -1.1515695 -0.93966365 -0.96064156 -1.2359577 0.07308559 -0.023829319 0.035640817
-0.029213378 0.29889578 -0.54860264 -2.1293085 -1.4457319 -1.0057929 0.18994986 0.14898331
-0.65509534 0.25776154 -0.064132154 -2.2220705 0.29070884 -0.059306804 -2.2763612 0.060767975
0.040620387 -0.13924044 0.26813674 -0.028199276 -0.6412594 -1.3343916 -0.081634186 -0.033273373
-0.15018144 -0.080923 0.11258651 -0.21320818 -0.13743438 -0.013964743 -0.09221211 -0.08847506
0.030595591 -0.6782101 -2.6728995 -1.789342 0.20095488 -0.09732996 -0.3658431 0.7548494
0.32885078 -0.044587288 -0.077174984 0.09667185 0.08478446 -0.49332443 -0.19110076 -0.5812675
-2.8264003 -3.058244 -1.8421441 -0.1470661 -0.013075022 0.12332069 -0.47986716 -2.5901309e-05
0.26716965 -0.8129728 -0.091541335 0.3019433 -0.5343058 0.09149931 0.52714163 -0.52727973
00000000: 232f 4abf 441c bbbe 9426 5abe 67e1 55bf
00000010: 41b2 aebe d389 c1be 7752 f7be e5f2 1ebe
00000020: 9991 adbe 738b 61be 1997 d9bd 8c50 f0bd
00000030: cd23 31be 8969 d1bc 3292 1fbe 3de8 0abe
00000040: 7155 3cbd 511e f2bc bee5 3abf 553e b5bc
00000050: a641 d43d 0ce1 33bf a9b2 e83c 040c c53d
00000060: 43ef 45bf bd23 ecbc 6b10 913d a8d8 f8be
00000070: 1322 b6be 1271 33bf 76d4 73bd df54 533e
00000080: e8e9 60be def7 12bf e421 78bd fb81 a1be
00000090: 3b53 43bf db8f b1be 0a69 9c3e 902f 88bf
000000a0: f1da b1be 9b77 8c3e 04c5 9fbf 6f45 0dbf
000000b0: 2ca6 8a3d 447d 61bc 9813 6fbe 1e66 a23c
000000c0: 68b6 08bc bb46 80be 14e7 fdbd 8941 153b
000000d0: 82ca 55be 5997 3fbe b751 ab3d fd46 44bd
000000e0: 56e0 17bd 9f09 053e 3752 bf3d db42 21bd
000000f0: eb52 9dbd 1f17 6bbe b1e3 3ebe eb82 b73d
00000100: c14d 863e 023c 013f 4f63 b4bd cd42 913d
00000110: ecdc 873e ff16 1abd 9668 e43d 2f96 a23e
00000120: 513d 21bf 38b0 9cbe 4029 da3d c044 31bf
00000130: a98c 87be 2718 283e 2a38 3fbf 84ea 93be
00000140: 02ae 2d3e 83ee 9bbe dca3 28bf 278c 95bf
00000150: 4062 843e 3815 bd3d 4588 99bd 3a12 85be
00000160: d935 8dbe ef3e f8be 51e1 a73e c99d 0f3f
00000170: 4285 303f e6b0 423e 7337 c33e 9019 ca3e
00000180: b94b 6b3e 4a7d b93e ab34 ed3e 542c 3a3d
00000190: f8fa c6bd f9b4 84be b619 503b 6562 663d
000001a0: 405f 02be 2e3f b73c aada 0d3e b339 f7bd
000001b0: 7889 93bf 3168 083f 83ac b43f 96c9 85c0
000001c0: faa7 8fbf 35fb 1d3f 0ae4 c9c0 baea 68c0
000001d0: a2db f8be a42c 45bf ff60 41bb 58c2 0e3f
000001e0: 944f 36bf 99fa 2c3e e87b 2e3f a0bb 65bf
000001f0: 52fd 853d 4803 273f 1c33 86bd 0702 9fbe
00000200: 8afc f03d bf95 9ebe 50a2 debe 750b 1ebe
00000210: fa2f 78be 3c3a 75be 56ff cbbd f57b b1be
00000220: c488 10be 47ea d8bd d16e 40bf 9d3a 09bf
00000230: 70a7 efbe e695 99bf f870 5dbf 44d3 18bf
00000240: ebef f2bd 1e9f 96bd 1a94 e7bc 1f18 c1be
00000250: e8dc aebe f3d0 10bf df54 81bf 1600 8cbf
00000260: 8020 acbf c544 4a3c 9d83 0d3e f87c c03d
00000270: 37e5 823d 6ebb fd3d 0016 1d3e 8f90 0bbc
00000280: c0a2 e83c c2a8 a83c ad67 963e 36c9 8a3e
00000290: 5d02 00be 8049 363e e8d3 e63e cbe7 363e
000002a0: d157 fbbe 603d 603d 59f4 ae3e 7d61 f3be
000002b0: 1a03 40bf 45e8 07bf 2ddd 9dbe 2aeb 14bf
000002c0: d3f5 1ebf 7a3f d7bd fa6b c9bd 5ccf 673c
000002d0: c35d 0ebf 56f1 4bbf 6a3e 87bf fce3 e1be
000002e0: 28f5 1cbf a166 93bf cc8d 70bf 9bec 75bf
000002f0: dd33 9ebf e6ad 953d b435 c3bc 1bfc 113d
00000300: e550 efbc de08 993e 3971 0cbf 9746 08c0
00000310: be0d b9bf d2bd 80bf 3782 423e 158f 183e
00000320: 54b4 27bf 52f9 833e b857 83bd 6736 0ec0
00000330: cad7 943e b1eb 72bd e7af 11c0 d7e7 783d
00000340: 9061 263d 0c95 0ebe 3849 893e 2b02 e7bc
00000350: 9329 24bf 58cd aabf d32f a7bd a949 08bd
00000360: 2ac9 19be f5ba a5bd c293 e63d 3f53 5abe
00000370: 99bb 0cbe 61cc 64bc b4d9 bcbd 6a32 b5bd
00000380: 9ba3 fa3c 2d9f 2dbf c910 2bc0 2909 e5bf
00000390: 1ec7 4d3e ee54 c7bd c94f bbbe cf3d 413f
000003a0: 215f a83e 29a1 36bd eb0d 9ebd e4fb c53d
000003b0: 7aa3 ad3d 0595 fcbe ebaf 43be f2cd 14bf
000003c0: bee3 34c0 45ba 43c0 61cb ebbf 7f98 16be
000003d0: 9e38 56bc 8f8f fc3d 26b1 f5be a346 d9b7
000003e0: 76ca 883e fc1e 50bf 067a bbbd 5098 9a3e
000003f0: 44c8 08bf fe63 bb3d c1f2 063f cefb 06bf

conv2.bias f4 [128]
-0.09989087 0.10117743 0.14856248 0.075442076 -1.0377458 -0.004642319 -0.31468913 0.18718767
0.3064742 0.078591146 0.2366993 -0.20732805 0.23790842 0.0018880678 0.20827688 -1.414874
0.47089595 0.12057877 0.08638635 0.1325159 -0.42398715 0.061858382 -0.7806106 0.36322457
0.007944921 0.2370312 0.18199727 -0.21661411 0.38941067 0.14662723 0.21074696 0.54788643
0.5965065 -0.08785784 0.3448737 -0.06768206 0.2490923 -0.3760671 0.04963393 0.42639422
-0.5741462 -0.4364092 0.2159953 0.19543982 0.44350258 0.16394085 0.12249718 0.80040556
-0.10002047 0.1617874 0.30353922 -0.7161345 -0.09086327 0.16972615 -0.05802952 -0.16431484
-0.19571756 0.09938428 -0.020705497 0.49150476 0.6491872 -0.8602291 0.087521836 -0.14160042
-0.6878655 0.16395444 0.39892647 0.12774411 0.2274523 -0.23530881 0.18119971 0.060035836
0.43909785 0.27356306 -0.03898663 -0.44008756 0.24258076 0.18460418 0.44165614 0.11382684
-0.02429814 0.08434697 0.19221818 0.14022267 0.20993033 0.1494327 -0.018802645 0.16373326
0.36237562 0.2565459 0.29364222 -0.09283389 0.025357626 0.09888261 0.5285198 0.614314
0.4837565 0.51421726 0.2937454 -0.040899612 -0.55873376 -0.47153515 0.2254867 0.078851275
-0.106431216 -0.023099514 -0.36589986 0.09346415 0.37898338 0.2341347 -1.4041959 0.21682744
-0.17141664 0.2962598 -0.21316767 0.647229 -0.2238196 -0.41165063 0.24041757 -0.33478174
-0.055549357 -0.23050232 -0.26966748 -0.19490765 0.49143434 0.37994194 -0.1415381 -0.27748615
00000000: 9693 ccbd 1d36 cf3d c320 183e 6081 9a3d
00000010: dbd4 84bf 981e 98bb ef1e a1be 20ae 3f3e
00000020: 30ea 9c3e 65f4 a03d 4d61 723e ce4d 54be
00000030: 449e 733e 0b79 f73a 8946 553e 971a b5bf
00000040: 4619 f13e 01f2 f63d 54eb b03d 40b2 073e
00000050: d814 d9be 375f 7d3d 19d6 47bf 92f8 b93e
00000060: 6a2b 023c 4fb8 723e 7e5d 3a3e 17d0 5dbe
00000070: d660 c73e 7325 163e 0dce 573e 4942 0c3f
00000080: a6b4 183f d0ee b3bd 4993 b03e e49c 8abd
00000090: 0d12 7f3e de8b c0be f34c 4b3d 5850 da3e
000000a0: 3ffb 12bf 0771 dfbe df2d 5d3e 6021 483e
000000b0: c512 e33e 1ce0 273e cddf fa3d 61e7 4c3f
000000c0: 88d7 ccbd 99ab 253e 7e69 9b3e 9754 37bf
000000d0: 8616 babd b1cc 2d3e 5db0 6dbd 2642 28be
000000e0: 2f6a 48be fc89 cb3d 939e a9bc 83a6 fb3e
000000f0: 2231 263f f937 5cbf a63e b33d b3ff 10be
00000100: f417 30bf ace3 273e 1740 cc3e 5acf 023e
00000110: 41e9 683e cbf4 70be 6b8c 393e 23e8 753d
00000120: 6fd1 e03e 7510 8c3e 72b0 1fbd 2853 e1be
00000130: 1767 783e e108 3d3e c120 e23e 0c1e e93d
00000140: e50c c7bc 1bbe ac3d d8d4 443e 8896 0f3e
00000150: faf7 563e e304 193e 0108 9abc b1a9 273e
00000160: 4c89 b93e fc59 833e 4658 963e b21f bebd
00000170: ccba cf3c f782 ca3d 134d 073f af43 1d3f
00000180: efae f73e bea3 033f cc65 963e 5a86 27bd
00000190: 2d09 0fbf 0e6d f1be fce5 663e c77c a13d
000001a0: 9cf8 d9bd 313b bdbc 3a57 bbbe 226a bf3d
000001b0: 1c0a c23e 02c1 6f3e b1bc b3bf 0308 5e3e
000001c0: d887 2fbe 5daf 973e a048 5abe cdb0 253f
000001d0: f730 65be dfc3 d2be 0630 763e 8368 abbe
000001e0: b987 63bd cd08 6cbe db11 8abe df95 47be
000001f0: 489d fb3e c087 c23e 5def 10be aa12 8ebe

linear.weight f4 [17, 128]
0.92466617 0.61954004 -0.054078374 -0.573966 -0.16566561 -1.2041042 -0.85370284 0.3574556
-0.22553791 -0.74771875 -1.201581 0.6510819 0.119944006 -0.4762535 -0.62041724 -0.3458912
0.25119212 -0.20470414 0.1652955 -0.11439605 -0.4219798 -0.5168454 -0.6661014 -0.8040501
-1.1376522 -0.32188636 0.2826832 -0.14305691 -0.1369293 -0.44884294 -0.9757832 -0.087469205
0.001862734 0.06530759 0.5978691 -0.077735215 -0.1838801 -0.09488225 0.4767679 0.24562357
-0.3949643 -0.51659805 -0.2407215 -0.2956616 0.011053348 0.11755822 0.7876156 1.0144984
-0.17666064 -0.022303713 -0.28743452 0.5962618 0.37714598 -0.33101922 0.08458138 1.166101
-0.52171046 -0.2241192 0.3360717 -0.47547048 -0.2933506 -0.27895078 0.7052066 -1.1377891
-0.53755647 0.5758264 1.0281483 -0.27496922 -1.142067 -0.50507313 1.0493366 0.6480111
0.28225666 -0.29865813 -0.09611726 1.0051196 0.29029578 0.1112111 0.078424126 0.09110342
0.7230609 0.6781401 -0.8876301 -1.1370544 0.069921516 -0.58919626 -0.38449 -0.3248147
-0.15008113 -0.159485 0.40344965 -0.4439938 -0.74294114 -0.49874339 -0.6775657 -0.15215248
0.24132612 1.1072336 -0.58646786 0.5575865 0.5558775 -0.32305154 0.08021349 0.7964151
0.39324448 0.42966834 0.052453972 -1.0761005 -0.041714307 0.12343664 -1.2618861 0.0494194
0.62862396 -0.6827854 0.33983183 0.28468102 0.51236707 -0.47113904 -0.14974134 -0.90357506
-0.34181732 0.3620618 -1.249772 0.86421436 0.15317748 0.46309397 -0.25361893 -0.3555338
-0.05607257 -0.33151886 -0.480133 0.31790423 0.025696216 -0.47318 0.11287757 0.5873371
0.2059537 0.38159227 -0.30837843 0.483033 -0.20267251 0.24214469 -0.6897064 -0.12790361
0.63399464 0.02711169 0.4629342 -0.33194828 -0.095594965 -0.5082225 -0.09597361 0.15744923
0.02037805 0.38649306 0.21342938 0.2998655 -0.07593586 -0.54650366 0.03291492 -0.035516057
-0.4444979 -0.70474416 0.0129690375 -0.08114738 0.6602931 -0.70544577 -0.013441577 -0.38575846
-0.059156917 -0.32484812 0.6569936 -0.23986135 -0.50639284 0.3021599 -0.28880823 0.8677658
-0.50364816 -0.21270321 -0.30911866 0.0021803563 0.079968974 0.31706303 0.1742109 0.10601764
0.41522795 -0.30643523 -0.1035477 -0.3335985 -0.56123513 -0.1224939 1.016422 -0.25610396
0.5206334 0.459194 0.8161075 -0.016787045 -0.8551996 -0.14648432 0.57946163 -0.17573337
-0.24307396 -1.0886614 -0.40935108 0.32717988 -0.18719658 -0.10075557 -0.12951773 0.32023135
-0.09141898 0.01289238 -0.16958195 0.82655096 0.48458278 0.013499706 -0.30882704 -0.22287706
0.0021526297 0.31357667 -0.26118982 -0.38018 -0.31286564 -0.016412757 -0.39066213 0.11091318
-0.23406477 -0.6626786 -0.3456524 0.36751652 0.15085533 0.32443905 0.03729988 -0.21198152
0.26638156 0.027491078 -0.23559326 0.5694816 -0.3850225 0.13736519 -0.29092026 -0.31484017
0.019628078 -0.8290784 -0.40910697 -0.3087183 0.39960077 -0.970231 -0.038816363 -0.40829274
-0.828989 -0.18437548 0.057852145 -0.4347715 0.53619605 0.44114953 -0.20381589 0.33774036
00000000: ecb6 6c3f 2d9a 1e3f 4981 5dbd 70ef 12bf
00000010: 3fa4 29be 1620 9abf 458c 5abf 6c04 b73e
00000020: 69f3 66be 7f6a 3fbf 68cd 99bf 4ead 263f
00000030: 34a5 f53d 80d7 f3be aad3 1ebf a718 b1be
00000040: 419c 803e f69d 51be 3943 293e 7a48 eabd
00000050: bd0d d8be fb4f 04bf 9f85 2abf 3ad6 4dbf
00000060: 969e 91bf 4ace a4be dabb 903e 837d 12be
00000070: 3237 0cbe bece e5be eecc 79bf 0e23 b3bd
00000080: fb26 f43a fcbf 853d f30d 193f a433 9fbd
00000090: 114b 3cbe a051 c2bd ec1a f43e bf84 7b3e
000000a0: c338 cabe c53f 04bf b27f 76be f560 97be
000000b0: 1a19 353c 5dc2 f03d 2da1 493f 15db 813f
000000c0: 87e6 34be 47b6 b6bc 9e2a 93be 9da4 183f
000000d0: 4719 c13e 5a7b a9be 0139 ad3d cc42 953f
000000e0: d18e 05bf 817f 65be 9711 ac3e de70 f3be
000000f0: 0d32 96be a3d2 8ebe 6b88 343f 13a3 91bf
00000100: 4d9d 09bf 5c69 133f 5d9a 833f c4c8 8cbe
00000110: 402f 92bf 794c 01bf a950 863f 0ee4 253f
00000120: f283 903e b8e9 98be 20d9 c4bd c2a7 803f
00000130: a6a1 943e a5c2 e33d d49c a03d 6e94 ba3d
00000140: 851a 393f 979a 2d3f ba3b 63bf 008b 91bf
00000150: 0333 8f3d 91d5 16bf e0db c4be 1d4e a6be
00000160: deae 19be 0950 23be f490 ce3e 2853 e3be
00000170: 6431 3ebf 4b5b ffbe f274 2dbf dccd 1bbe
00000180: 321e 773e d5b9 8d3f c222 16bf fdbd 0e3f
00000190: fd4d 0e3f 0367 a5be f846 a43d dce1 4b3f
000001a0: 5757 c93e 7dfd db3e fad9 563d a9bd 89bf
000001b0: 9fdc 2abd 59cc fc3d 7c85 a1bf ff6b 4a3d
000001c0: 80ed 203f 06cb 2ebf 70fe ad3e b6c1 913e
000001d0: 7d2a 033f 2339 f1be cb55 19be b250 67bf
000001e0: ae02 afbe 2a60 b93e 87f8 9fbf 273d 5d3f
000001f0: 8fda 1c3e a71a ed3e 57da 81be 8708 b6be
00000200: 5aac 65bd d7bc a9be fed3 f5be 58c4 a23e
00000210: df80 d23c a644 f2be 5b2c e73d b95b 163f
00000220: 87e5 523e 1060 c33e c7e3 9dbe 1a50 f73e
00000230: 6289 4fbe c7f4 773e 9990 30bf 2af9 02be
00000240: 794d 223f 5619 de3c b605 ed3e 20f5 a9be
00000250: 4bc7 c3bd df1a 02bf d08d c4bd 5f3a 213e
00000260: deef a63c 6be2 c53e 3b8d 5a3e f987 993e
00000270: 4384 9bbd aae7 0bbf ccd1 063d 4979 11bd
00000280: 3b95 e3be 1d6a 34bf 167c 543c 9930 a6bd
00000290: f808 293f 1898 34bf 0f3a 5cbc 2282 c5be
000002a0: 864e 72bd 7e52 a6be bc30 283f 379e 75be
000002b0: f6a2 01bf b4b4 9a3e acde 93be e625 5e3f
000002c0: 16ef 00bf dfce 59be cd44 9ebe 4fe4 0e3b
000002d0: c6c6 a33d 1656 a23e 5864 323e c71f d93d
000002e0: c298 d43e 14e5 9cbe d110 d4bd 6ccd aabe
000002f0: 1bad 0fbf 15de fabd 1e1a 823f 0f20 83be
00000300: 3b48 053f 7a1b eb3e 6cec 503f fc84 89bc
00000310: 5cee 5abf fcff 15be 9957 143f 73f3 33be
00000320: 61e8 78be 4259 8bbf 7796 d1be 1f84 a73e
00000330: 76b0 3fbe f058 cebd 4ca0 04be 5df5 a33e
00000340: e039 bbbd 903a 533c e4a6 2dbe d898 533f
00000350: 3c1b f83e df2d 5d3c 941e 9ebe e239 64be
00000360: 2213 0d3b 1f8d a03e acba 85be f4a6 c2be
00000370: ed2f a0be 0c74 86bc de04 c8be 7326 e33d
00000380: adae 6fbe 4ea5 29bf 5af9 b0be 202b bc3e
00000390: d279 1a3e e01c a63e c2c7 183d af11 59be
000003a0: 2a63 883e f834 e13c 5c3f 71be 8cc9 113f
000003b0: ab21 c5be 76a9 0c3e 80f3 94be bb32 a1be
000003c0: 10cb a03c 7b3e 54bf 7876 d1be 5310 9ebe
000003d0: 7998 cc3e 0f61 78bf e8fd 1ebd bf0b d1be
000003e0: a038 54bf edcc 3cbe 5ff6 6c3d 5f9a debe
000003f0: 2544 093f 5ade e13e 1db5 50be 4eec ac3e

linear.bias f4 [17]
-0.10518773 -0.14367875 -0.30781972 -1.228863 -0.09963133 0.028673148 -0.8874951 -0.56034744
-0.035165053 -0.5378708 -0.36496565 -0.32345685 -0.3670268 -0.28864542 -1.0047946 -0.28282428
-0.58145803
00000000: aa6c d7bd 8620 13be 8c9a 9dbe 624b 9dbf
00000010: 830b ccbd f3e3 ea3c e132 63bf ee72 0fbf
00000020: 3b09 10bd e7b1 09bf c7dc babe 239c a5be
00000030: f0ea bbbe 55c9 93be 1c9d 80bf 58ce 90be
00000040: 6fda 14bf
