Code/model_Valetudo.pt (torch, 103802 bytes, 16 tensors)

conv0.weight f4 [8, 3, 10, 10]
0	0x3da420cf	0.0801407
1	0x3e1eee0e	0.15520498
2	0x3e0d4e1b	0.13799326
3	0xbd005070	-0.03132671
4	0xbde02bc3	-0.10945847
5	0xbe4450bb	-0.19171421
6	0xbdb1b7e3	-0.08677652
7	0xbe4c58f7	-0.19955812
8	0xbe204135	-0.15649875
9	0x3e2230ad	0.15838881
10	0xbdd81492	-0.105507985
11	0xbe70745d	-0.23481889
12	0xbcadbbe3	-0.021207755
13	0xbcdc58ec	-0.02689787
14	0x3d7a461e	0.061102025
15	0x3eb51dd1	0.3537431
16	0x3e4dae07	0.20085917
17	0x3d384e0f	0.044996317
18	0x39d033a0	0.00039711315
19	0xbe2255d7	-0.15853058
20	0x3e66a613	0.2252429
21	0x3e299e7a	0.1656436
22	0x3e60d02c	0.21954411
23	0x3eab87d4	0.33502066
24	0xbec0f577	-0.37687275
25	0xbe4b7d37	-0.19871984
26	0xbd528595	-0.051396925
27	0xbd33feb4	-0.043944076
28	0x3e647255	0.22309239
29	0x3e532487	0.20619403
30	0x3ad5d504	0.0016314094
31	0xbd6cab94	-0.057780817
32	0xbe49b07f	-0.19696234
33	0x3e760ae5	0.24027593
34	0x3e12eeb0	0.14348865
35	0x3b81731a	0.0039504888
36	0x3e58aa2e	0.21158668
37	0x3cad9a9d	0.02119189
38	0xbd655e01	-0.055997852
39	0x3d7893dc	0.060687885
40	0x3c5deadc	0.013544764
41	0xbdac12af	-0.08402001
42	0xbdf2b97c	-0.118517846
43	0xbd2b66b8	-0.041846007
44	0xbe194de4	-0.14971119
45	0x3e40f6ce	0.18844149
46	0x3e0bfaf3	0.13669948
47	0x3dcc0f2b	0.099638306
48	0x3dce7c59	0.10082311
49	0xbd22bd9d	-0.03973161
50	0x3e3c13a7	0.18366872
51	0x3cc474ef	0.02398154
52	0x3e5b3e36	0.2141045
53	0x3efa58fa	0.4889601
54	0xbeeb723f	-0.459856
55	0xbe2c644b	-0.16835134
56	0xbd147126	-0.03624072
57	0xbed28038	-0.41113448
58	0xbd8a19bd	-0.067431904
59	0x3e0da80f	0.1383364
60	0xbd8ba01d	-0.068176486
61	0xbe470c98	-0.19438398
62	0xbeca1c31	-0.39474633
63	0x3e200207	0.15625773
64	0x3c898372	0.01678631
65	0xbcca5257	-0.024697466
66	0x3ebb3455	0.36563364
67	0x3e76a629	0.24086823
68	0x3dbf6534	0.09345475
69	0xbdffc651	-0.12488998
70	0x3d4d439a	0.050113298
71	0x3bf31709	0.0074185175
72	0xbcd43167	-0.025902463
73	0xbcfb145e	-0.03064936
74	0xbd053682	-0.032522686
75	0xbd4cfdde	-0.050046794
76	0xbded6a23	-0.115925096
77	0xbe2b30d7	-0.1671785
78	0x3ded7af5	0.11595718
79	0xbc510ef7	-0.012759916
80	0x3e128059	0.14306773
81	0xbe1aac3d	-0.15104766
82	0xbc21ce8d	-0.009875906
83	0x3e2e5e17	0.1702808
84	0xbed87a61	-0.42280868
85	0xbe2d82ef	-0.16944478
86	0x3cf8f5c4	0.030390628
87	0xbe66ab31	-0.22526242
88	0xbcce3b11	-0.02517465
89	0x3d7d21a5	0.061799664
90	0xbd8756aa	-0.06608327
91	0xbdf17bee	-0.11791216
92	0xbe8a242d	-0.26980725
93	0x3dd63b8a	0.10460575
94	0x3d8c571b	0.068525515
95	0xbcc5fa97	-0.024167342
96	0x3e3819af	0.17978548
97	0x3e1a7fea	0.15087858
98	0xbb7a1b51	-0.0038163255
99	0xbe33c8c2	-0.17557052
100	0x3d5fba5f	0.054621097
101	0x3e113268	0.14179385
102	0xbcb2207e	-0.02174401
103	0x3a55d2fc	0.00081567443
104	0x3ca20ed6	0.019782465
105	0xbd9ad7a6	-0.07560663
106	0x3d493619	0.049123857
107	0x3cf6d6f8	0.030131802
108	0x3dd311cc	0.10306129
109	0x3df049e9	0.11732847
110	0xbe3f4f75	-0.18682654
111	0x3e10777f	0.14108084
112	0x3ce3d648	0.027812138
113	0xbe0938c3	-0.13400559
114	0x3e98216a	0.29712993
115	0x3ce2483b	0.027622333
116	0xbdce46bf	-0.100720875
117	0xbd04ee6c	-0.03245394
118	0xbd3c4ecc	-0.045973584
119	0xbdf96b5f	-0.121786825
120	0xbde8a3f5	-0.11359397
121	0xbd123062	-0.035690673
122	0x3de44174	0.11145297
123	0xbe45a6b9	-0.19301881
124	0x3bb8fc8c	0.0056453403
125	0x3cc33b1a	0.023831893
126	0x3d74041d	0.059574235
127	0x3d41c7e6	0.04730978
128	0xbcdacf0a	-0.026710052
129	0x3e38bc7e	0.18040654
130	0xbc8002f2	-0.015626404
131	0x3e4f8fa1	0.20269634
132	0xbe2afa2b	-0.16696994
133	0xbd571438	-0.052509516
134	0x3e577789	0.21041693
135	0xbeed4364	-0.46340477
136	0xbe210596	-0.15724787
137	0xbd855b52	-0.065115586
138	0xbe9573a3	-0.29189786
139	0xbe4fdbfc	-0.20298761
140	0xbe929be3	-0.28634557
141	0x3cdf721f	0.027276097
142	0xbe27b05b	-0.16375868
143	0xbebefc3c	-0.37301815
144	0x3ed84535	0.422403
145	0x3e20f42b	0.15718143
146	0xbccd6cb7	-0.025076253
147	0x3e2bf777	0.16793619
148	0x3e0e380d	0.13888569
149	0x3e0a770a	0.13521972
150	0xbcdfbdae	-0.027312126
151	0x3c7337ec	0.014844876
152	0x3e103199	0.1408142
153	0xbe6f4ca8	-0.23369086
154	0xbde63db2	-0.11242236
155	0xbc22b0fc	-0.009929892
156	0xbe2bd1a3	-0.16779189
157	0xbe4e7c96	-0.20164713
158	0xbe7d20f5	-0.24719603
159	0x3d91245f	0.07087015
160	0x3de69f49	0.1126085
161	0x3e36141e	0.17781112
162	0xbd00bea3	-0.031431805
163	0x3e0ffeae	0.14061996
164	0x3e9b14c7	0.3028929
165	0xbe47bdfd	-0.19506069
166	0x3d0dbf34	0.034606174
167	0x3e96d759	0.29461172
168	0xbd199932	-0.037499614
169	0x3d6b6d25	0.057477135
170	0xbc18efc8	-0.009334512
171	0x3d6cb8e7	0.057793524
172	0x3d60020a	0.054689445
173	0xbe0ab457	-0.13545357
174	0x3e51e123	0.20496039
175	0x3d80b4e8	0.06284505
176	0xbdc3c558	-0.09559125
177	0xbd80a096	-0.06280629
178	0xbbe84942	-0.007088811
179	0x3b14b52f	0.0022691002
180	0x3b3f0de7	0.0029152574
181	0xbc3c2ac0	-0.011484802
182	0x3de23ae1	0.110463865
183	0xbc81d278	-0.01584743
184	0x3d40ea13	0.04709823
185	0x3dc91842	0.0981908
186	0x3d9ffe0f	0.0781213
187	0x3da2cbfe	0.07949065
188	0x3dac3f46	0.08410506
189	0x3e2738a5	0.16330202
190	0x3de5507f	0.11196994
191	0x3ddca1d4	0.10773054
192	0xbda89cc7	-0.08233028
193	0xbd58fbee	-0.052974634
194	0x3d9bb70f	0.07603275
195	0xbe940edb	-0.28917584
196	0xbe00f4b1	-0.12593342
197	0xbd263cdd	-0.040585387
198	0xbd687cd0	-0.056759655
199	0x3d137ed0	0.03600961
200	0x3e0b270f	0.13589118
201	0xbd00db11	-0.031458918
202	0x3d60767b	0.05480049
203	0x3cd35fc7	0.025802506
204	0xbde51762	-0.111861005
205	0x3cbb9c08	0.02290155
206	0xbd8bdf03	-0.068296455
207	0xbe840140	-0.25782204
208	0xbdfe47c6	-0.124160334
209	0xbdf44ee4	-0.1192911
210	0xbd970e9a	-0.07375832
211	0xbd8d3eaf	-0.068967216
212	0x3d3a9586	0.045552753
213	0xbd4b00b7	-0.04956123
214	0x3dbe63ae	0.09296356
215	0x3e026547	0.12733947
216	0x3dc0d81f	0.09416222
217	0x3e348fbc	0.17632955
218	0x3df5dcf2	0.120050326
219	0xb94c721d	-0.00019497467
220	0x3db9e0e8	0.090761006
221	0x3d1f5d66	0.03890743
222	0x3d889b93	0.066702984
223	0x3cf0156e	0.029307093
224	0xbda81013	-0.08206191
225	0xbdda488b	-0.10658368
226	0xbe373041	-0.17889501
227	0xbe9b591c	-0.30341423
228	0x3ca021e4	0.01954741
229	0x3ca995cc	0.020701312
230	0xbe4a8b24	-0.1977964
231	0xbdcf4b33	-0.10121765
232	0xbd26d352	-0.040728875
233	0xbcf8957b	-0.030344715
234	0x3ea5c83c	0.3237933
235	0x3e8a4390	0.2700467
236	0x3ea9f925	0.33197895
237	0x3e140d15	0.14458115
238	0x3e56b2ff	0.20966719
239	0x3e26f08e	0.16302702
240	0x3d63de7c	0.0556321
241	0x3e687e0c	0.22704333
242	0x3e8fdc7d	0.28097907
243	0xbe8c085a	-0.27350122
244	0xbde7f503	-0.11326029
245	0xbda0f818	-0.0785982
246	0xbee04a40	-0.43806648
247	0xbe938457	-0.28811905
248	0xbe44b8de	-0.19211146
249	0xbdcaabf7	-0.09896081
250	0xbdfbd582	-0.12296583
251	0xbd046227	-0.032320168
252	0x3dcc29c2	0.09968902
253	0x3d3a1518	0.045430273
254	0x3a98c57b	0.0011655533
255	0x3e2858f9	0.1644019

conv0.bias f4 [8]
0	0x3c3ae9fb	0.011408324
1	0xbc98ac85	-0.018636951
2	0xbce12525	-0.027483532
3	0x3d043746	0.032279275
4	0x3d4d2fe1	0.05009449
5	0xbc6752f2	-0.014118897
6	0xbd3c9fae	-0.04605072
7	0x3d31ad4b	0.043378156

bn0.weight f4 [8]
0	0x3fa963c2	1.3233569
1	0x3f33f910	0.70301914
2	0x3f8c264a	1.0949185
3	0x3f72c72e	0.94835174
4	0x3f304f1e	0.68870723
5	0x3f4157fe	0.7552489
6	0x3f4fc55f	0.8116054
7	0x3f64a770	0.8931799

bn0.bias f4 [8]
0	0x3ea052fa	0.31313306
1	0xbce1d0b9	-0.027565347
2	0xbe6413ac	-0.22273129
3	0xbeca303e	-0.3948993
4	0xbe9e133a	-0.30874044
5	0xbe271368	-0.16315997
6	0xbe201123	-0.15631537
7	0x3e28470f	0.16433357

bn0.running_mean f4 [8]
0	0xc19d0fff	-19.63281
1	0xc3201caa	-160.11197
2	0xc3342b3a	-180.16885
3	0xc3639723	-227.59038
4	0x43fa4fd4	500.62366
5	0xc2e1f636	-112.98088
6	0x424fb732	51.9289
7	0xc258be58	-54.185883

bn0.running_var f4 [8]
0	0x46352366	11592.85
1	0x47ae0c37	89112.43
2	0x478a84e3	70921.77
3	0x479daf6e	80734.86
4	0x48096f2d	140732.7
5	0x47c0535c	98470.72
6	0x479d5308	80550.06
7	0x47bce124	96706.28

conv1.weight f4 [16, 8, 3, 3]
0	0x3e18a2f0	0.14905906
1	0xbe49d166	-0.19708785
2	0xbe150f8b	-0.1455671
3	0xbe9de8b4	-0.308416
4	0x3ee22d95	0.441754
5	0xbde5c1e3	-0.112186216
6	0x3ea3d532	0.31998593
7	0x3d70c4fc	0.05878161
8	0xbe2f2df7	-0.17107378
9	0x3d9ccb4e	0.07655965
10	0xbf091bc8	-0.53558016
11	0x3df17664	0.11790159
12	0xbf15a46c	-0.5845401
13	0x3ecc6cc1	0.39926723
14	0x3caf7244	0.02141679
15	0x3e1dacc5	0.15397938
16	0x3e1f7b6d	0.15574427
17	0xbeb30ee0	-0.34972286
18	0xbe56ad36	-0.20964512
19	0x3e6c0eda	0.2305254
20	0xbd6955f6	-0.056966744
21	0x3df9471c	0.12171766
22	0x3dd69769	0.10478098
23	0xbe32c3f9	-0.1745757
24	0x3e0e0202	0.13867953
25	0xbe4f8995	-0.20267327
26	0x3cb3a8c0	0.021931052
27	0x3c7e3489	0.015515455
28	0xbcd85afe	-0.026410576
29	0xbbca1718	-0.006167304
30	0x3dc19262	0.094517484
31	0x3cabc313	0.020967042
32	0xbd32035d	-0.04346024
33	0x3e909c02	0.28244025
34	0x3cddf68b	0.0270951
35	0xbc692cc4	-0.014231864
36	0xbdf5096b	-0.11964687
37	0xbe273507	-0.16328822
38	0xbb1af611	-0.0023645202
39	0xbdfc779e	-0.12327503
40	0xbe7f4a04	-0.24930578
41	0xbe38b8bf	-0.18039225
42	0x3df8d059	0.12149114
43	0x3d3dd18e	0.046342425
44	0xbe2b5f54	-0.16735584
45	0xbda3fa94	-0.08006778
46	0x3d5efc34	0.05443974
47	0x3e185bbf	0.14878748
48	0x3d8e367a	0.06943984
49	0x3d5a51e5	0.053300757
50	0xbe11f663	-0.14254145
51	0xbe09ed8f	-0.13469528
52	0xbd9c8d2d	-0.07644115
53	0x3e2dbac7	0.16965781
54	0x3e1a5f88	0.15075505
55	0xbdeb1a86	-0.11479668
56	0xbe420255	-0.18946202
57	0x3cf7798b	0.030209323
58	0xbdf322f3	-0.118719004
59	0x3e0877d6	0.13326964
60	0xbd905e7e	-0.07049273
61	0x3da64c19	0.08119983
62	0xbd9ab7dc	-0.075546
63	0xbe1035b2	-0.14082983
64	0xbd2dd1ed	-0.04243653
65	0xbc934437	-0.017976863
66	0x3d17a77b	0.037024956
67	0x3c6b053e	0.014344512
68	0xbe37147c	-0.17878908
69	0x3d055e20	0.032560468
70	0xbebacce8	-0.36484456
71	0xbbb1b491	-0.0054231365
72	0xbf062606	-0.5240177
73	0xbe73d270	-0.23810744
74	0xbd964038	-0.073364675
75	0x3ec4b293	0.3841749
76	0xbebd1e52	-0.36937195
77	0x3dd287d9	0.10279817
78	0xbe8911a5	-0.26771274
79	0xbe1a687a	-0.15078917
80	0x3e82f6cd	0.2557892
81	0x3e1826e3	0.14858584
82	0x3c2ce5f7	0.010552875
83	0xbe9ddba9	-0.3083165
84	0xbe037f14	-0.12841445
85	0xbedefaa3	-0.43550596
86	0x3dd3badc	0.10338375
87	0xbe72c4d3	-0.23707895
88	0xbd634eb3	-0.055494975
89	0xbdba5be2	-0.090995565
90	0x3d3816a1	0.044943456
91	0xbd6dbe15	-0.058042604
92	0xbe77f3eb	-0.24214141
93	0xbe2ed2b2	-0.17072561
94	0x3df1710b	0.11789139
95	0xbc82cd91	-0.015967162
96	0x3de61527	0.11234503
97	0x3d89eb4c	0.067343324
98	0xbdf50ac8	-0.11964947
99	0xbd5da5cc	-0.054113194
100	0xbe22382e	-0.15841743
101	0x3d2354b3	0.039875697
102	0xbd916c76	-0.071007654
103	0x3c98013d	0.018555278
104	0x3c533fb8	0.01289361
105	0xbcdd7a1c	-0.027035765
106	0x3db9bc68	0.09069139
107	0xbc53e9cf	-0.012934162
108	0xbe5b7e1c	-0.21434826
109	0xbdf2bf12	-0.1185285
110	0xbe33dd7b	-0.17564957
111	0x3e2518fd	0.16122814
112	0xbe3e9608	-0.1861192
113	0xbd9398e9	-0.072069
114	0xbe2b97a2	-0.16757062
115	0x3c54fef0	0.013000235
116	0x3dad2bbf	0.084556095
117	0x3df8f27a	0.12155624
118	0xbe9dbfaa	-0.3081029
119	0xbd7c4ff2	-0.06159968
120	0x3bbc5c89	0.0057483357
121	0x3d4d1345	0.050067205
122	0xbe447424	-0.19184929
123	0x3d9bd67d	0.0760927
124	0x3b3a428a	0.0028421008
125	0xbcd9d5b3	-0.026591158
126	0xbdd91c35	-0.10601083
127	0x3ce3a767	0.027789785
128	0x3d856a5e	0.065144286
129	0xbc77a848	-0.015115805
130	0x3d670076	0.056396924
131	0xbc91d9c3	-0.017804032
132	0xbe261a47	-0.16220962
133	0xbe7cfbd8	-0.24705446
134	0xbe208c27	-0.15678464
135	0x3ddcf8f6	0.10789673
136	0x3e1f91e7	0.15583001
137	0xbdab8e3c	-0.083767384
138	0xbe63ece8	-0.22258341
139	0xbe528f44	-0.20562464
140	0xbd8a07fd	-0.06739805
141	0x3bdd4244	0.0067522842
142	0xbde8e088	-0.11370951
143	0xbeb06a53	-0.3445612
144	0x3cfe4f43	0.031043654
145	0xbd276313	-0.04086597
146	0xbd9912fb	-0.07474323
147	0x3ccf7e9d	0.025328929
148	0xbe1576f9	-0.14596166
149	0x3d0fd8fd	0.035119046
150	0xbd2fb6c8	-0.042898923
151	0xbb8ee9a2	-0.0043613473
152	0x3dd548c8	0.104142725
153	0x3b4119e0	0.0029464886
154	0xbdac3fe9	-0.084106274
155	0xbe17d607	-0.14827739
156	0xbd1e61f4	-0.038667634
157	0xbe8e11e7	-0.27748033
158	0xbc1e7e56	-0.0096736755
159	0xbd94f0d4	-0.07272497
160	0x394f3ba8	0.00019763282
161	0xbe100311	-0.1406367
162	0x3e26d1f9	0.16291036
163	0x3b91e836	0.0044527305
164	0x3d81c628	0.063366234
165	0xbe36079e	-0.17776343
166	0xbe54cbf3	-0.20780925
167	0xbd7fe646	-0.062475465
168	0xbd937d36	-0.072016165
169	0xbd77dc61	-0.060512904
170	0xbe2283ee	-0.1587064
171	0xbd8421e8	-0.064517796
172	0x3d0a63e4	0.03378667
173	0x3c3f09f2	0.011660086
174	0xbec562b1	-0.38551858
175	0xbe8b5481	-0.2721291
176	0xbed3855a	-0.41312677
177	0xbc71c281	-0.014755846
178	0x3d8da695	0.069165386
179	0xbc25deb1	-0.010123895
180	0xbd98e97f	-0.07466411
181	0xbe4c2924	-0.19937569
182	0xbe1d7b9d	-0.15379186
183	0xbe8a3290	-0.269917
184	0xbe62a647	-0.22133742
185	0xbe16e2cf	-0.14734958
186	0xbca0e968	-0.019642547
187	0x3c86e416	0.016466182
188	0xbdcb724c	-0.0993391
189	0xbe5d3bf3	-0.216049
190	0x3e09207f	0.13391303
191	0x3d080bbd	0.03321432
192	0x3d1fd140	0.039017916
193	0xbd8c5004	-0.06851199
194	0xbeaa7d64	-0.3329879
195	0x3d8269e9	0.06367857
196	0xbe1824bd	-0.14857765
197	0x3c7d34b8	0.015454464
198	0x3c5a01b6	0.013306072
199	0xbe31f130	-0.17377162
200	0xbda1aea7	-0.078946404
201	0xbdbd5450	-0.09244597
202	0x3d9d9785	0.07694916
203	0xbd7ec24c	-0.062197015
204	0x3bda48bb	0.006661502
205	0x3b3f3ba9	0.0029179847
206	0xbda132f1	-0.078710444
207	0xbcaa0427	-0.020753933
208	0xbe953f04	-0.2914964
209	0xbcebe705	-0.028796682
210	0x3b14a5e6	0.002268189
211	0x3ce999c2	0.0285157
212	0x3d163d46	0.03667953
213	0xbcc17602	-0.02361584
214	0xbb8497b6	-0.0040464057
215	0xbd4daae7	-0.050211813
216	0xbe8ab096	-0.2708785
217	0x3d9d8aaa	0.07692464
218	0xbddfcf56	-0.10928218
219	0xbe0a4229	-0.135018
220	0x3c83ad75	0.016073922
221	0x3d5a25e0	0.053258777
222	0xbcfd5238	-0.030922994
223	0x3d5bdbca	0.053676404
224	0xbcee54ed	-0.02909323
225	0xbe44d8f0	-0.1922338
226	0xbebc677f	-0.3679771
227	0xbe61a42a	-0.2203528
228	0xbe6b5d05	-0.22984703
229	0xbe4a6e85	-0.19768722
230	0x3ca6df2c	0.020370089
231	0xbdb77b44	-0.08959058
232	0xbe642d8b	-0.22282998
233	0x3e16648a	0.1468679
234	0xbea8baa8	-0.32954907
235	0x3e5f323e	0.2179651
236	0xbe1ad7b4	-0.15121347
237	0xbf11fa83	-0.57022876
238	0xbee457ef	-0.44598338
239	0xbee66d4e	-0.45005268
240	0xbe57ece0	-0.21086454
241	0x3e93980b	0.28826937
242	0xbe0e6ec7	-0.13909446
243	0x3c453b85	0.012038116
244	0x3d833c14	0.06407943
245	0x3e00b775	0.12569983
246	0x3e378fca	0.17925945
247	0xbdb8e134	-0.09027329
248	0x3e66bd68	0.2253319
249	0xbdc269d2	-0.0949284
250	0x3eccc36a	0.3999284
251	0x3d5e9009	0.05433658
252	0xbea813af	-0.32827517
253	0xbe60c904	-0.21951681
254	0xbe94be87	-0.2905161
255	0x3b7987de	0.0038075368

conv1.bias f4 [16]
0	0xbdd2b03f	-0.102875225
1	0x3e1df116	0.15423998
2	0x3fba86fb	1.4572443
3	0xbea05494	-0.31314528
4	0xbe45157b	-0.19246475
5	0xbd9ec34c	-0.07752094
6	0x3e734f8d	0.23760815
7	0x3e5bcd9b	0.21465151
8	0x3e68c6a1	0.22732021
9	0xbc5bf75d	-0.013425675
10	0x3e7b36d8	0.2453264
11	0x3e534ac9	0.20633997
12	0x3ea1acd3	0.31577167
13	0x3f01cdd9	0.50704724
14	0x3e369e8d	0.1783392
15	0x3e70ee09	0.23528303

convnorm1.weight f4 [16]
0	0x3f8a0061	1.0781366
1	0x3fb16e6d	1.3861824
2	0x3f6d7904	0.9276278
3	0x3f6f0d34	0.9337952
4	0x3f977caf	1.1834925
5	0x3faccd3a	1.350013
6	0x3f9de75e	1.2336233
7	0x3fb00478	1.3751364
8	0x3f70b803	0.9403078
9	0x3f82b71b	1.0212129
10	0x3f6ab7d7	0.9168677
11	0x3f725ab9	0.9466968
12	0x3f70a4da	0.94001544
13	0x3f76f4f6	0.9646753
14	0x3fa9c0e3	1.3261989
15	0x3f8969c0	1.0735397

convnorm1.bias f4 [16]
0	0x3de2a92c	0.11067423
1	0x3e130646	0.14357862
2	0x3ea01ec3	0.3127347
3	0xbe8014a4	-0.25015748
4	0x3d56c14f	0.052430447
5	0x3db6cad0	0.08925402
6	0x3dc6680a	0.096878126
7	0x3e4aed41	0.19817068
8	0x3e2f62f6	0.17127594
9	0xbca05046	-0.019569527
10	0x3e88ddd6	0.26731747
11	0x3c85db99	0.016340064
12	0x3d138bc5	0.036021966
13	0x3e3f0f3f	0.1865816
14	0x3e72ce79	0.23711576
15	0x3e6c20c8	0.2305938

convnorm1.running_mean f4 [16]
0	0x3e4a1c33	0.1973732
1	0x3c834a07	0.01602651
2	0x3f0af019	0.5427261
3	0x3c43c18a	0.011947999
4	0x3d95b3a4	0.07309654
5	0x3da75947	0.08171325
6	0x3cb788b0	0.022404045
7	0x3c9bc8c9	0.01901664
8	0x3dd11490	0.10209
9	0x3ca7996e	0.020458903
10	0x3e030e7a	0.12798491
11	0x3dd4bdcb	0.10387763
12	0x3e125d5d	0.14293428
13	0x3daf6d91	0.0856582
14	0x3cd4fe04	0.02600003
15	0x3d420c0f	0.04737478

convnorm1.running_var f4 [16]
0	0x3e579ed8	0.21056688
1	0x3c1b9d02	0.009497883
2	0x3e59c5f2	0.21266916
3	0x3c0d3461	0.008618445
4	0x3d642df6	0.055707894
5	0x3d72517b	0.059159737
6	0x3c505a95	0.012716909
7	0x3c354bae	0.011065407
8	0x3d840f27	0.064482026
9	0x3c3f4c66	0.01167593
10	0x3dbb74a8	0.0915311
11	0x3d91a396	0.0711128
12	0x3dc475d3	0.09592786
13	0x3d423c7b	0.04742096
14	0x3c76858d	0.015046489
15	0x3cf15453	0.029459154

conv2.weight f4 [128, 16, 3, 3]
0	0xbedf031f	-0.4355707
1	0xbe9ebafd	-0.31002036
2	0xbef4149c	-0.47671974
3	0xbe962c92	-0.2933088
4	0xbf08b6a0	-0.53403664
5	0xbee32568	-0.44364476
6	0xbf04f7bb	-0.51940507
7	0xbec4bee0	-0.38426876
8	0xbe9305f7	-0.28715488
9	0xbebff861	-0.37494186
10	0xbeb680fa	-0.35645276
11	0xbec0ca68	-0.37654424
12	0xbebf5505	-0.37369552
13	0xbe4171ca	-0.18891063
14	0xbc5053ac	-0.012715261
15	0xbea95d7a	-0.3307913
16	0xbd812f29	-0.06307823
17	0xbea43937	-0.320749
18	0x3dacd6d2	0.08439411
19	0x3de2b437	0.110695295
20	0x3d8c4231	0.068485625
21	0x3d8a30a2	0.06747557
22	0xbcd2a02d	-0.025711143
23	0x3da9c9f7	0.08290475
24	0xbb4de045	-0.0031414193
25	0xbce29f05	-0.027663717
26	0x3c42cdfd	0.011889932
27	0x3cdcc64e	0.026950028
28	0xbd77a5e1	-0.06046093
29	0x3d7cd07b	0.06172226
30	0xbe4a1495	-0.19734414
31	0xbd74dd9f	-0.059781667
32	0xbd84a75e	-0.06477235
33	0xbd9b7a49	-0.075916834
34	0xbad3da57	-0.0016163093
35	0xbdb9ac58	-0.09066075
36	0x3e8cad46	0.27475947
37	0x3e44d815	0.19223054
38	0x3e867473	0.2626072
39	0x3e30a414	0.17250091
40	0x3e6d33c7	0.23164283
41	0x3e5a15da	0.21297398
42	0x3e1cf77f	0.15328787
43	0x3e0cf6d1	0.13766028
44	0x3e9bbed8	0.3041904
45	0xbeeecbaf	-0.46639773
46	0xbf05a84a	-0.52209914
47	0xbf137d4a	-0.5761305
48	0xbf2b8220	-0.6699543
49	0xbf4ef6d4	-0.8084538
50	0xbf49ffef	-0.7890615
51	0xbf181330	-0.5940428
52	0xbf182193	-0.5942623
53	0xbf35ebcd	-0.7106293
54	0x3c790617	0.015199206
55	0xbb8c35d3	-0.0042788773
56	0x3d7cf54f	0.061757382
57	0xbd2154a5	-0.039387364
58	0x3c60062f	0.013673349
59	0xbd1be896	-0.038063608
60	0xbb084e5c	-0.002079866
61	0xbc95863f	-0.01825249
62	0xbccb515d	-0.02481907
63	0xbf65b519	-0.8972946
64	0xbf57e72e	-0.8433713
65	0xbf73ab6b	-0.9518344
66	0xbf331a7e	-0.699623
67	0xbf5c9def	-0.8617849
68	0xbf4ad846	-0.7923626
69	0xbf39f0fb	-0.7263333
70	0xbf4bebd5	-0.79656726
71	0xbf2af23c	-0.6677587
72	0x3d72dda4	0.059293404
73	0x3cdf5695	0.027262965
74	0x3d2cef08	0.042220145
75	0x3dea7714	0.114484936
76	0x3da0ee1c	0.07857916
77	0x3d3cb2e6	0.04606905
78	0x3d8abeda	0.06774683
79	0x3d458d5e	0.04823052
80	0x3deef25c	0.1166732
81	0xbd6fa420	-0.05850613
82	0xbd63b44b	-0.055591863
83	0xbd9a3cd6	-0.07531135
84	0xbd32b7bc	-0.043632254
85	0xbe1e7e94	-0.15477973
86	0xbd407646	-0.046987794
87	0xbe52587a	-0.20541564
88	0xbda7d6ba	-0.08195253
89	0xbd894f2c	-0.06704554
90	0x3d4a1dca	0.049344815
91	0xbcc55280	-0.02408719
92	0x3b69ee97	0.003569519
93	0xbbb3a0ab	-0.0054817996
94	0xbd779a1c	-0.060449705
95	0x3d4fabf2	0.05070109
96	0x3c5e6ec7	0.013576216
97	0xbd683387	-0.056689765
98	0xbb6fe53a	-0.0036605136
99	0xbda9839c	-0.082770556
100	0xbd62b251	-0.055345837
101	0x3cea261c	0.028582625
102	0xbdf0e761	-0.11762882
103	0xbcccde96	-0.025008481
104	0xbd400bc4	-0.04688622
105	0xbd95fdc4	-0.073237926
106	0xbd6beacd	-0.05759697
107	0xbd4e1e0e	-0.05032163
108	0xbc1c245c	-0.009530153
109	0x3dc429d5	0.09578291
110	0xbd312117	-0.043244448
111	0xbc9d7eeb	-0.019225558
112	0xbd5bfd39	-0.05370829
113	0xbd3e6b1c	-0.046488866
114	0xbd317683	-0.043325912
115	0x3d8586dd	0.06519864
116	0x3d80da6a	0.06291659
117	0x3d6aca38	0.057321757
118	0x3bb676d9	0.005568367
119	0x3d352464	0.044224158
120	0x3db0b4f2	0.086282626
121	0x3d8eb67e	0.06968401
122	0x3debc600	0.11512375
123	0x3d9fdb9a	0.078055575
124	0x3da58066	0.08081131
125	0x3d2ed84c	0.042686746
126	0xbea987de	-0.3311147
127	0xbebc5cfc	-0.3678969
128	0xbec0bc97	-0.37643883
129	0xbea515ca	-0.32243186
130	0xbe9aa7db	-0.3020619
131	0xbe83a587	-0.25712225
132	0xbed222f6	-0.41042298
133	0xbea3b1e3	-0.31971654
134	0xbeb7723a	-0.35829335
135	0x3dfd7861	0.12376476
136	0x3e19234c	0.14954871
137	0x3dee3eb3	0.11633053
138	0x3df35fb0	0.11883485
139	0x3d80dc42	0.06292011
140	0x3ddb8513	0.10718741
141	0x3de1f1d3	0.110324524
142	0x3d880468	0.066414654
143	0x3dafb0f7	0.08578675
144	0xbea4cd5e	-0.32187933
145	0x3dacf55d	0.08445237
146	0x3ce7f968	0.028317168
147	0x3c923f45	0.017852435
148	0xbc890d3f	-0.016729949
149	0xbea05840	-0.3131733
150	0x3c918af0	0.017766446
151	0xbe6c3660	-0.23067617
152	0xbd37d803	-0.04488374
153	0xbe5860e8	-0.21130717
154	0x3e8bccf7	0.27304813
155	0x3c84024e	0.01611438
156	0x3e1f3bb4	0.15550119
157	0xbd3ad48d	-0.04561286
158	0xbc22c21b	-0.009933974
159	0xbbc72c68	-0.0060782917
160	0xbe83f10a	-0.25769836
161	0x3e6a297d	0.22867389
162	0xbdd95849	-0.10612542
163	0xbe06ab47	-0.13151275
164	0xbef494be	-0.4776973
165	0xbe18dbfd	-0.14927669
166	0xbef7368c	-0.48283803
167	0xbda14c1b	-0.07875844
168	0xbf094ff8	-0.5363765
169	0xbd683aff	-0.056696888
170	0xbcdfd7c2	-0.027324561
171	0x3e8e7aba	0.27828008
172	0x3e848885	0.25885406
173	0x3e9c753c	0.30558193
174	0x3e1acae5	0.1511646
175	0x3e787b24	0.24265724
176	0x3e53ed25	0.20695932
177	0x3e1f5b48	0.15562165
178	0x3e5a0490	0.21290803
179	0x3e3e555c	0.1858725
180	0xbeeb37dd	-0.45941058
181	0xbed0f00a	-0.40808135
182	0xbf3b4230	-0.7314787
183	0xbef76eb7	-0.48326656
184	0xbf2828b8	-0.6568713
185	0xbf05fb7a	-0.5233685
186	0xbf47f068	-0.78101206
187	0xbf22548f	-0.63410276
188	0xbe99c6df	-0.3003454
189	0x3decfa05	0.11571125
190	0x3ded940f	0.116005056
191	0x3e817dce	0.25291294
192	0x3e1523d8	0.14564455
193	0x3dfc1bb1	0.12309969
194	0x3e1cea4c	0.15323752
195	0x3dbdbd67	0.09264641
196	0xba0c27f8	-0.0005346532
197	0x3e86f9bf	0.26362416
198	0xbedcd854	-0.43133795
199	0x3e9c2003	0.30493173
200	0x3e87eddc	0.2654866
201	0xbe0b6275	-0.13611777
202	0x3e9322b7	0.28737423
203	0xbefd5895	-0.49481645
204	0x3e4213dc	0.18952888
205	0xbf2ce0ab	-0.67530316
206	0x3e9310b0	0.2872367
207	0x3d61eb29	0.055155907
208	0xbf0309ba	-0.51186717
209	0x3db221b5	0.08697835
210	0xbe855d0c	-0.26047552
211	0x3c4650c2	0.012104215
212	0x3d9f24dd	0.07770703
213	0x3b1740b9	0.002307935
214	0x3d76718e	0.060166888
215	0xbedb5f9c	-0.42846382
216	0xbe15d5f6	-0.14632401
217	0xbe3dfebb	-0.18554203
218	0xbbca1cc6	-0.006167981
219	0xbef20fe1	-0.4727774
220	0xbe246603	-0.1605454
221	0x3e1ccc0f	0.15312217
222	0xb9d9fbc1	-0.00041577037
223	0x3d9807da	0.074233726
224	0xbd7b6c8d	-0.06138282
225	0x3e531573	0.20613651
226	0xbe21a9d7	-0.15787445
227	0xbd92f28e	-0.0717517
228	0xbeb851b2	-0.3599983
229	0x3e05ba2f	0.13059305
230	0x3e5a6afb	0.21329872
231	0x3ddc0603	0.10743334
232	0x3e42a10e	0.1900675
233	0xbeb254bc	-0.34830272
234	0x3c6f258b	0.014596353
235	0xbde410fa	-0.111360505
236	0xbec66434	-0.38748324
237	0xbd5e849a	-0.054325677
238	0xbe15f3f7	-0.14643846
239	0x3bca2c65	0.006169843
240	0xbe84f08c	-0.25964773
241	0x3e3c5ed6	0.18395552
242	0xbdf57611	-0.1198541
243	0xbd4bf7e5	-0.049796958
244	0x3dcfc702	0.101453796
245	0xbea6688c	-0.32501638
246	0x3df9b5e4	0.12192896
247	0xbe887b85	-0.26656738
248	0xb9a20302	-0.0003090129
249	0xbe99392c	-0.2992643
250	0xbb8ccf3a	-0.0042971643
251	0x3e0c3db4	0.13695413
252	0xbe01d1fc	-0.12677759
253	0x3d621774	0.055198148
254	0xbeac7bfc	-0.33688343
255	0x3df360cf	0.11883699

conv2.bias f4 [128]
0	0x3ebcdd74	0.36887705
1	0x3e2d7f32	0.16943052
2	0x3e5c3ffd	0.21508785
3	0x3ccd7cfb	0.02508401
4	0x3e883ca4	0.26608765
5	0x3e0179ef	0.1264417
6	0x3de15ac7	0.110036425
7	0xbe2b7e37	-0.16747366
8	0x3e6598c1	0.22421552
9	0x3ed6402e	0.4184584
10	0x3de8e337	0.11371463
11	0x3e23fca3	0.16014342
12	0xbe286411	-0.16444422
13	0x3dca99b2	0.09892596
14	0x3eee3867	0.46527407
15	0x3e2091a2	0.15680555
16	0x3e2ecf21	0.17071201
17	0x3ed75cf8	0.42063117
18	0x3ebfeb0c	0.37484014
19	0x3de305b4	0.11085072
20	0x3ea38dbc	0.31944072
21	0x3e1b829f	0.15186547
22	0xbdc196d5	-0.09452597
23	0x3e1169b6	0.14200482
24	0x3e0ae626	0.13564357
25	0xbb14fa7e	-0.0022732313
26	0x3ef096a0	0.46989918
27	0x3dae155b	0.08500167
28	0x3d369c7a	0.04458282
29	0x3d045c85	0.032314796
30	0x3f025a1f	0.50918764
31	0xbe77999a	-0.24179688
32	0x3db06ccc	0.08614501
33	0x3ea68543	0.32523546
34	0xbcce2e1a	-0.025168467
35	0x3d178aca	0.036997594
36	0x3d04d242	0.03242708
37	0xbdbac91e	-0.09120391
38	0xbe00c2aa	-0.12574258
39	0x3e714575	0.23561652
40	0x3e7ac918	0.24490774
41	0x3eab5e02	0.3347016
42	0x3eab23b6	0.33425683
43	0x3e9207d8	0.2852161
44	0x3ea66cd5	0.32504907
45	0x3e5b170e	0.21395513
46	0x3dbdffde	0.092773184
47	0x3f1bb131	0.6081725
48	0x3ea8c493	0.32962474
49	0xbd78c4bf	-0.060734507
50	0x3d1958d1	0.037438218
51	0x3e8200f8	0.25391364
52	0x3d603175	0.054734666
53	0x3ecaa4a5	0.3957874
54	0x3b90ef5a	0.004423064
55	0x3ec377ed	0.38177434
56	0xbdab6d3d	-0.08370445
57	0xbc8a4bb8	-0.016881809
58	0x3d8457d5	0.06462065
59	0x3e679c3e	0.22618195
60	0x3e996fd8	0.29968143
61	0x3e8036df	0.25041863
62	0x3eb94bd6	0.3619067
63	0xbc9a4069	-0.018829541
64	0x3e268cf1	0.16264702
65	0x3c82c681	0.015963795
66	0xbddd3413	-0.10800948
67	0x3e79200c	0.24328631
68	0x3e40695f	0.18790196
69	0xbe493f8b	-0.19653146
70	0x3ed5a359	0.41726187
71	0xbd02d536	-0.031941615
72	0x3cf19e61	0.029494466
73	0x3dffe97a	0.12495704
74	0x3e35a674	0.17739278
75	0x3e30df5b	0.17272703
76	0x3d2e277d	0.042518128
77	0x3de74852	0.11293091
78	0x3edfd5fe	0.4371795
79	0x3e9b7852	0.30365235
80	0x3f00f02c	0.50366473
81	0x3c95fa2c	0.018307768
82	0x3d8a7c76	0.0676202
83	0x3d530f6b	0.051528376
84	0x3e76a286	0.24085435
85	0x3f09a984	0.53774285
86	0xbd292ef4	-0.041304544
87	0xbe0f4a4b	-0.13993184
88	0x3d904bb3	0.070456885
89	0x3cbcfd40	0.023069978
90	0x3ed6a2ea	0.4192117
91	0x3e404a13	0.18778257
92	0x3d819f55	0.06329218
93	0x3e432ca5	0.1906
94	0x3da498cc	0.08036956
95	0x3e274889	0.16336264
96	0xbd582965	-0.052773852
97	0x3e561035	0.2090462
98	0x3dd26d2f	0.10274731
99	0x3ed69789	0.41912487
100	0x3e8961a2	0.268323
101	0x3e6c9d38	0.23106849
102	0x3cfc3604	0.030787475
103	0x3e43a3d7	0.19105469
104	0x3e09c923	0.13455634
105	0x3ea18cff	0.31552884
106	0x3e7c7361	0.24653389
107	0x3eaa00a6	0.3320362
108	0x3e1dfb96	0.15428004
109	0x3dab281e	0.08357261
110	0x3c335f2f	0.0109479865
111	0x3dba9ca2	0.091119066
112	0x3cfe5b76	0.031049471
113	0x3f0bdb92	0.5463191
114	0x3e89c35b	0.26906857
115	0xbbc32f68	-0.005956579
116	0x3e9f3682	0.31096274
117	0x3d35e53e	0.044408076
118	0x3ed090c6	0.40735453
119	0xbd625289	-0.055254493
120	0x3db834bd	0.08994434
121	0x3c9a4d6d	0.018835748
122	0x3eb40221	0.35157874
123	0x3ebc9a64	0.3683654
124	0x3e0fee4c	0.14055747
125	0x3e686d06	0.22697839
126	0x3ccf316a	0.025292117
127	0x3e2a2d18	0.16618764

linear.weight f4 [17, 128]
0	0xbeb9460a	-0.36186248
1	0xbeaf4f11	-0.3424001
2	0xbe957bc3	-0.29195985
3	0x3d4c7ef3	0.049925756
4	0xbe42b70a	-0.19015136
5	0x3e3d544e	0.18489191
6	0x3f3be368	0.7339387
7	0xbd1a40ad	-0.037659336
8	0xbe6a932e	-0.22907707
9	0x3db8f59e	0.09031223
10	0xbe2dc958	-0.16971338
11	0xbdfc5800	-0.12321472
12	0xbcef4aa7	-0.029210402
13	0xbe2bbbad	-0.16770811
14	0xbcefe432	-0.029283617
15	0xbc480863	-0.012209031
16	0xbdc4c102	-0.09607126
17	0x3dbd9a19	0.092579074
18	0x3d6fce55	0.058546383
19	0xbdf58548	-0.11988312
20	0x3dcb44ba	0.09925218
21	0xbbc96e74	-0.0061472002
22	0xbd83c043	-0.064331554
23	0x3e2184d2	0.15773323
24	0x3e22fd4d	0.15916939
25	0xbe7656b8	-0.24056518
26	0xbd9b22d0	-0.07574999
27	0xbe5c8db2	-0.21538427
28	0xbe5eb05d	-0.21746965
29	0x3f2c46e5	0.67295676
30	0xbd27581f	-0.040855523
31	0x3e9e93ba	0.3097208
32	0xbe28e922	-0.16495183
33	0x3ac004b5	0.001464984
34	0xbe1c704d	-0.15277214
35	0xbdca5615	-0.098797
36	0x3df184bc	0.11792895
37	0xbf2d1732	-0.6761352
38	0xbd6ce8f4	-0.05783935
39	0xbdc714a7	-0.09720736
40	0x3d2ebdba	0.042661406
41	0xbd9ca268	-0.07648164
42	0x3d35e413	0.04440696
43	0xbdae65db	-0.08515521
44	0x3dea525e	0.114414915
45	0x3e02ad6f	0.12761472
46	0xbdfdc8f8	-0.12391847
47	0xbdc45575	-0.09586612
48	0xbd26401c	-0.040588483
49	0xbe94ae1e	-0.2903909
50	0x3e2464b2	0.16054037
51	0xbbbb79e2	-0.0057213167
52	0xbe07f047	-0.13275252
53	0x3d021552	0.031758614
54	0x3e52f2bb	0.20600407
55	0x3ea363e5	0.3191215
56	0xbe9f28f0	-0.3108592
57	0xbe1338ef	-0.14377187
58	0xbe25a456	-0.1617597
59	0x3e4dae0a	0.20085922
60	0xbd4553b4	-0.04817553
61	0xbcb1a7d8	-0.02168648
62	0xbd759297	-0.059954252
63	0xbe59b6f1	-0.21261193
64	0x3cf41177	0.029793484
65	0x3edcbe2f	0.4311385
66	0x3e355d69	0.17711414
67	0xbe90a0bb	-0.28247628
68	0x39a0ff32	0.00030707713
69	0xbc815de7	-0.015791846
70	0xbd290ca8	-0.041271836
71	0xbd6924fa	-0.05692003
72	0xbddf7e09	-0.10912711
73	0x3e7aa5a5	0.24477251
74	0xbcbbb776	-0.02291463
75	0x3d9333ce	0.07187615
76	0xbca3fec1	-0.020018937
77	0xbe3df8c8	-0.18551934
78	0xbcdc370c	-0.026881717
79	0xbda83933	-0.08214035
80	0x3c8d3b1a	0.017240096
81	0xbe9cbaf6	-0.3061139
82	0x3e0f4019	0.13989295
83	0x3e5d632f	0.21619867
84	0x3e49a89f	0.1969323
85	0xbd6b71f6	-0.05748173
86	0xbee1f8bc	-0.44135082
87	0xbdb247c2	-0.08705093
88	0x3cffba04	0.031216629
89	0xbc50718b	-0.012722383
90	0xbd6d29e6	-0.057901286
91	0x3e5f3427	0.21797238
92	0x3da0dd7a	0.07854743
93	0x3e516c19	0.20451392
94	0xbe63f029	-0.22259583
95	0xbe9756ed	-0.29558507
96	0xbe0ed50e	-0.13948461
97	0xbea4ba16	-0.32173222
98	0x3cd59512	0.026072059
99	0xbe1db6ab	-0.15401714
100	0x3d54fcd2	0.05199892
101	0xbeee5339	-0.4654787
102	0xbd78a43d	-0.060703505
103	0xbe74eb23	-0.23917823
104	0xbdd32ca3	-0.10311248
105	0xbcd43a12	-0.025906596
106	0x3e2d16c9	0.16903223
107	0xbe074db9	-0.13213243
108	0xbd650e3c	-0.055921778
109	0xbde5bc51	-0.11217559
110	0xbe2337e0	-0.15939283
111	0x3d87ca28	0.06630355
112	0xbd191dd6	-0.03738197
113	0xbe64c852	-0.22342041
114	0xbe0bf766	-0.13668594
115	0xbe70e1bb	-0.2352361
116	0xbd1bb586	-0.03801491
117	0xbed0ab50	-0.407557
118	0xbe6b0335	-0.22950442
119	0xbeec2682	-0.4612313
120	0xbdbcdeef	-0.09222209
121	0xbc43817f	-0.01193273
122	0xbe8671e8	-0.2625878
123	0xbdec753d	-0.11545799
124	0x3e340ca5	0.17582949
125	0xbc2caab7	-0.010538748
126	0x3e9547b1	0.2915626
127	0x3e8560e2	0.26050478
128	0x3cf0dede	0.029403146
129	0x3e417d39	0.18895425
130	0x3e6f5567	0.23372422
131	0xbe5180fc	-0.2045936
132	0xbe37a628	-0.17934477
133	0xbda80259	-0.08203573
134	0x3e36df8a	0.17858711
135	0xbe63915f	-0.22223423
136	0xbe25d774	-0.1619547
137	0xbcf758e7	-0.03019376
138	0xbdb6fce0	-0.08934951
139	0xbe215b7d	-0.15757556
140	0xbd88b2a9	-0.06674702
141	0x3e08b9bc	0.13352102
142	0x3d53a45f	0.05167043
143	0x3c8854b1	0.016641947
144	0x3e356597	0.17714535
145	0xbda74fd6	-0.08169524
146	0x3deaff19	0.11474437
147	0xbeb71e74	-0.3576542
148	0xbdcee093	-0.10101428
149	0xbd2b16ef	-0.041769918
150	0xbdf31f55	-0.118712105
151	0xbd9957b9	-0.07487435
152	0x3e4db32b	0.20087878
153	0x3e704ac6	0.23466024
154	0xbdbcc5c0	-0.09217405
155	0x3db6f491	0.08933366
156	0xbe5c71f2	-0.21527842
157	0x3e9f2dff	0.3108978
158	0xbde3778d	-0.11106787
159	0x3decc4cb	0.11560973
160	0xbe039165	-0.12848432
161	0xbe2255d3	-0.15853052
162	0xbe94e9a9	-0.2908452
163	0x3e863c4f	0.26217887
164	0x3ee72d07	0.4515154
165	0x3eb547ee	0.3540644
166	0x3d6411bf	0.055680986
167	0xbe25db3b	-0.16196911
168	0xbc015e98	-0.007896088
169	0x3e427c85	0.18992813
170	0xbd3496e8	-0.044089228
171	0x3da07cba	0.0783629
172	0xbdc56644	-0.09638646
173	0x3e4a8263	0.19776301
174	0x3dbbc1f5	0.09167854
175	0x3df813c0	0.12113142
176	0x3e827b45	0.25484672
177	0xbe822efe	-0.25426477
178	0xbd3fae3e	-0.04679703
179	0xbd304737	-0.043036666
180	0xbe6514d4	-0.22371227
181	0xbde8de15	-0.11370484
182	0xbea7794b	-0.32709727
183	0x3d3dc5d6	0.04633125
184	0xbe34d70e	-0.17660162
185	0x3b270d7c	0.0025490215
186	0xbddcc058	-0.10778874
187	0xbdc28161	-0.09497333
188	0xbe242e25	-0.16033228
189	0xbde8635a	-0.11347075
190	0xbdddb3d3	-0.108253144
191	0xbe2d4415	-0.16920502
192	0xbe8c8a13	-0.27449092
193	0x3edf9613	0.43669185
194	0xbe01769e	-0.12642905
195	0x3e76a0c6	0.24084768
196	0xbd1b1168	-0.037858397
197	0xbc9782e0	-0.018495023
198	0xbc630e71	-0.013858424
199	0xbe877fb6	-0.26464623
200	0x3df348b4	0.118791014
201	0xbbaa4c82	-0.0051971087
202	0xbe486f34	-0.1957367
203	0x3ddf3fa8	0.10900813
204	0xbe731336	-0.23737797
205	0xbe527232	-0.20551375
206	0x3dad6743	0.08466961
207	0xbe3d80ad	-0.18506117
208	0x3d104d06	0.035229705
209	0xbe928cac	-0.2862295
210	0xbdc84ee8	-0.09780675
211	0xbefda88e	-0.4954266
212	0x3e110a06	0.1416398
213	0xbc20e475	-0.009820093
214	0xbeb5af31	-0.35485223
215	0xbd2af96c	-0.041741773
216	0xbd0b5be2	-0.034023173
217	0xbe56b0db	-0.20965903
218	0xbd5380af	-0.051636394
219	0xbef6a4b7	-0.48172542
220	0x3c8d059d	0.01721459
221	0xbd9a73c8	-0.07541615
222	0x3d6f82cf	0.05847436
223	0x3e3fb391	0.18720843
224	0xbe02e53d	-0.1278276
225	0xbc9d7d9c	-0.019224934
226	0xbe9b5bb1	-0.30343392
227	0x3bc0defa	0.005885956
228	0xbdc2e909	-0.09517104
229	0x3e77fa23	0.24216513
230	0xbe91870f	-0.28423354
231	0xbb0527cb	-0.0020317908
232	0x3e35d027	0.17755185
233	0xbd1caf13	-0.0382529
234	0x3e0b1178	0.13580883
235	0xbe0085bf	-0.1255102
236	0x3e5e8cfc	0.21733469
237	0xbe34c3ec	-0.17652863
238	0x3e5689a7	0.20950948
239	0xbe9d47e9	-0.30718926
240	0xbe113b28	-0.14182723
241	0xbe9c2b5a	-0.30501825
242	0xbd829701	-0.06376458
243	0xbd6e40bd	-0.058167208
244	0x3d701a0c	0.05861859
245	0x3c133030	0.008983657
246	0xbe041e10	-0.12902093
247	0x3e27a62e	0.16371986
248	0x3d0ca788	0.034339458
249	0xbe833904	-0.25629437
250	0xbdd513a4	-0.10404137
251	0xbd347006	-0.044052146
252	0xbe924679	-0.2856939
253	0xbe2aa09f	-0.16662835
254	0xbda83d12	-0.08214773
255	0xbe8035c6	-0.25041026

linear.bias f4 [17]
0	0xbe12d0da	-0.14337483
1	0xbe13299d	-0.14371343
2	0x3c2dbf9a	0.010604763
3	0xbf0411c6	-0.5158962
4	0xbe07fbb7	-0.13279615
5	0xbd11976b	-0.035544794
6	0xbf2defee	-0.6794423
7	0xbec7e1a9	-0.39039353
8	0x3e8ba5b8	0.2727487
9	0xbf0103ed	-0.50396615
10	0xbe98d09c	-0.29846656
11	0xbd11c517	-0.03558835
12	0xbea36829	-0.31915405
13	0xbe5fe04d	-0.21862908
14	0xbf08687f	-0.5328445
15	0xbe131582	-0.14363673
16	0xbec9491d	-0.39313594
