Code/model_Valetudo.pt (torch, 92218 bytes, 16 tensors)

conv0.weight f4 [3, 3, 5, 5]
000000 c3 dd c9 3d b8 2a 44 3d ff 2e cf bd 51 13 bc bd
       0.09856751 0.047892302 -0.10116386 -0.09183372
000010 76 d7 3b bd c5 96 9f bd 7a 32 42 3b ad de cf bd
       -0.045859776 -0.07792429 0.0029632137 -0.10149894
000020 a7 56 0f 3c e3 b8 85 bd 81 cd 30 bd 79 fe e6 bd
       0.008748687 -0.06529405 -0.043164734 -0.112790056
000030 89 c6 af 3d 31 41 92 bc 9e b4 d9 bd 39 29 1b 3d
       0.085827895 -0.017853351 -0.10630153 0.03788111
000040 5d aa 98 3d 8b 9b 6e 3c b9 22 c6 3d 67 a0 d7 3c
       0.07454369 0.0145634515 0.096745916 0.026321603
000050 71 9f 00 3d 94 bb 75 3d f8 b9 1e bd 07 54 fb 3c
       0.031402055 0.05999334 -0.038751572 0.030679716
000060 73 c8 b6 3c dd ef 00 bd ac 1f af bd ae 85 ca 3c
       0.022312379 -0.03147875 -0.08550963 0.024721947
000070 74 1f 90 3b d5 5b e4 bb cd 0a b9 3d 9c 15 e9 bd
       0.0043982808 -0.006968955 0.09035263 -0.11381075
000080 e7 32 3a bd a6 a8 df 3d 20 44 0d 3d c9 31 05 bc
       -0.0454587 0.10920839 0.034488797 -0.0081295455
000090 a2 0a 67 3d ec 61 c9 bd f6 e8 b4 bd d4 6e c5 3c
       0.056406625 -0.0983313 -0.08833496 0.024100699
0000a0 b2 b2 87 bd 5d 69 a6 3d 6d c2 bd bd 12 1a 80 3d
       -0.0662588 0.08125565 -0.092655994 0.062549725
0000b0 a8 ce 53 bb 03 61 d0 3d 24 e7 be 3d b9 0d d0 bd
       -0.0032319222 0.101747535 0.0932143 -0.101588674
0000c0 23 d8 80 bb 0b c3 e0 3c 54 b1 44 3d 4a 05 89 3c
       -0.0039320155 0.027436754 0.048020676 0.016726155
0000d0 0e 0e 97 3d 8c ba e3 3c b6 ff 8b 3c 80 5d 75 3d
       0.073757276 0.027798913 0.017089706 0.05990362
0000e0 b4 1e 4b bb aa 6b 8b 3d 0b c8 22 bd 2d 68 04 3c
       -0.0030993642 0.06807645 -0.039741557 0.008081478
0000f0 ce 3b 37 3c 86 02 e1 bc c8 63 d1 3d 7f f9 c9 3c
       0.011183692 -0.027467024 0.1022411 0.024655102
000100 5e 71 c6 bc ee 63 cb 3d 7a 16 8d 3d fd f3 c3 3d
       -0.02422398 0.099311695 0.06889053 0.095680214
000110 f9 a0 27 3d 44 c9 cc bd 7a 24 cc 3b d6 0c dd 3d
       0.040925 -0.09999326 0.0062299343 0.10793464
000120 1c c8 ef 3c 40 4f 88 3c ec 48 15 bd 05 fd 8f bd
       0.029270224 0.016639352 -0.036446497 -0.070306815
000130 f2 70 a1 3d 7c 5f a0 3d 7f 21 b0 3c b7 84 ec 3c
       0.07882871 0.07830712 0.021500347 0.028871877
000140 ee a9 bd bd 28 d5 d5 3d d9 42 ad 3c 58 99 a9 bd
       -0.09260927 0.10441047 0.02115004 -0.08281201
000150 93 c7 a3 bd 79 b5 6b bd 32 15 1d bc eb 3d be 3d
       -0.0799705 -0.057546113 -0.009587573 0.09289154
000160 ed 45 89 bb fc 79 d5 3d 2c d5 7f bc 63 2b bc bd
       -0.004189244 0.10423657 -0.015614789 -0.09187963
000170 61 d0 b9 3c d6 d7 8b bd 5b d6 60 bc 14 dd b5 3d
       0.02268237 -0.06828277 -0.013722981 0.08880058
000180 13 bd 87 3d 65 9c 0f 3d e6 a5 85 bd 87 ed 5f 3d
       0.0662786 0.03506126 -0.06525783 0.054669883
000190 0f 3d ba 3d 57 35 a2 3a d9 b5 ce 3b e6 a8 c9 3d
       0.09093677 0.0012375516 0.006308299 0.09846668
0001a0 6a bf 5e bd 8a 22 5b 3d 62 7c ca bd e7 67 71 3d
       -0.054381765 0.053499736 -0.098870054 0.05893698
0001b0 fa c2 6e 3d fc 17 c9 bc 37 fa b9 bd ed dd 0e bc
       0.058291413 -0.02454757 -0.09080928 -0.008719903
0001c0 c2 29 e2 3d 2a 8d 89 bd c7 13 55 bd 83 9e 2f bd
       0.11043121 -0.06716378 -0.052020814 -0.042875778
0001d0 c6 a1 a0 3b cc de dc 3d 9e 60 8a bd 49 6a 44 bd
       0.0049020974 0.10784683 -0.067567095 -0.047952924
0001e0 c9 75 5e 3d 16 92 ea bc 72 28 01 3d a5 96 af ba
       0.054311547 -0.028634112 0.031532712 -0.0013396336
0001f0 06 9b f8 bc c8 29 b5 bd 6d c0 1c bd f8 bc e2 3d
       -0.030347358 -0.0884586 -0.03826945 0.11071199
000200 39 c5 96 bc dc ca 8b 3d ef 4f 74 3d 20 b3 69 bd
       -0.01840459 0.06825802 0.059646543 -0.057055593
000210 43 39 b7 bc f6 db cb bc 63 aa 53 bd 34 93 f7 b9
       -0.022366172 -0.024885159 -0.051676165 -0.00047221186
000220 7b b0 e1 bd ea 5e 80 3d a8 e1 e8 bd 3d e0 21 bc
       -0.11019989 0.062681034 -0.113711655 -0.009880123
000230 b3 51 97 bd 43 af 4f 3c f4 37 22 bd 84 c9 27 3d
       -0.0738863 0.012676063 -0.039604142 0.040963665
000240 76 f1 07 bc f6 f1 4a bd d8 ba b4 3d 54 f0 28 bc
       -0.008297315 -0.04954716 0.088247 -0.010311205
000250 95 ba ff bc d6 18 6c 3c ab 92 c5 bd fc 05 ec 3c
       -0.031216899 0.014410218 -0.09647115 0.028811447
000260 b2 52 a3 3d 3e 80 c0 3d b0 ba 51 bc b4 7c d6 3d
       0.07974757 0.0939946 -0.012800857 0.10473004
000270 97 f4 b3 bd 56 66 d3 bd 21 51 53 3d c8 72 0a bc
       -0.08786886 -0.103222534 0.051591042 -0.008450218
000280 c2 d9 b5 3d 72 db e0 bd 87 5a 8f 3d 43 b8 b3 bd
       0.08879425 -0.10979356 0.069996886 -0.087753795
000290 5b cd be bd 93 84 ac 3d ca cb 2a 3d 1e 3c f4 bc
       -0.09316512 0.08423724 0.041698255 -0.029813822
0002a0 f6 e3 e5 bd 1c ab b9 3c 35 bd c7 3d f0 ed 4e 3d
       -0.11225121 0.0226646 0.09752885 0.050519884
0002b0 72 44 f9 3b e5 20 38 3d c1 8c 62 bd 5a 03 e0 bd
       0.0076070363 0.044953246 -0.055310015 -0.10938139
0002c0 a4 81 4d 3d 43 e6 6a 3b 9a e5 df 3d 2f fd e0 bc
       0.050172463 0.0035842813 0.10932465 -0.027464477
0002d0 14 c7 93 3c 44 72 2c bd 2a 4b a5 bd 38 62 c4 3c
       0.018039264 -0.04210116 -0.08070977 0.023972616
0002e0 9f 1e cd bd 5c f7 5e bd 39 41 92 bc 2e c2 ab bd
       -0.10015606 -0.05443512 -0.017853366 -0.08386646
0002f0 54 eb c3 3d a1 1e bd 3c f0 f2 9f 3d 9f dd 6e 3d
       0.0956637 0.023085894 0.078100085 0.058316823
000300 ca 3c f2 3c 19 a1 db 3d 15 26 64 3d 55 3c e8 3d
       0.029570002 0.10724086 0.05570038 0.113396324
000310 50 1a 89 3d bc 5d b1 bd 0f b8 6f 3c d4 c8 25 bd
       0.06694472 -0.086604565 0.014631285 -0.040474728
000320 27 bf 96 bd a3 26 26 3d c7 23 44 3d 65 f5 b4 3d
       -0.07360678 0.04056419 0.047885682 0.08835868
000330 83 ab ce bd 91 0e 0f bd b4 26 cd bd 4c cf a0 bd
       -0.10091307 -0.034926 -0.10017148 -0.07852039
000340 42 b7 e3 3d a6 89 bf 3d ac 9b 3c 3d 12 c6 ce 3c
       0.11118938 0.09352426 0.046046898 0.025240932
000350 7b 1c d6 bd 50 44 eb bc 2f 66 b1 bd 7a 8d d3 3c
       -0.10454651 -0.028719097 -0.08662068 0.025824297
000360 9e e8 5a bb e3 17 11 bd 68 b6 b6 bc c6 c3 62 bd
       -0.003340281 -0.03542317 -0.022303775 -0.055362485
000370 ca 66 e8 bb df dc 23 3d 4e f6 ea bd 59 2c 8e 3d
       -0.0070923315 0.04000556 -0.1147276 0.069420524
000380 0f f8 52 bc
       -0.012876525

conv0.bias f4 [3]
000000 94 cc 77 3d 95 e2 81 bd 00 75 79 3d
       0.060497835 -0.06342045 0.060902596

bn0.weight f4 [3]
000000 00 00 80 3f 00 00 80 3f 00 00 80 3f
       1.0 1.0 1.0

bn0.bias f4 [3]
000000 00 00 00 00 00 00 00 00 00 00 00 00
       0.0 0.0 0.0

bn0.running_mean f4 [3]
000000 00 00 00 00 00 00 00 00 00 00 00 00
       0.0 0.0 0.0

bn0.running_var f4 [3]
000000 00 00 80 3f 00 00 80 3f 00 00 80 3f
       1.0 1.0 1.0

conv1.weight f4 [16, 3, 3, 3]
000000 17 49 a1 bc b1 e4 03 3d 6b 17 31 3e 39 f7 2d 3e
       -0.019688172 0.03220052 0.1729409 0.16988839
000010 6f b7 ed 3c 30 4f 4f 3e 73 fb 9a 3d 1f a4 2f 3e
       0.029018132 0.20245051 0.075674914 0.17152451
000020 d8 1e ed 3e b9 b7 ba bd 60 6d 4e be 6d bb c7 bd
       0.46312594 -0.091170736 -0.20158911 -0.097525455
000030 8b 51 b5 bd 07 95 16 be 5d c1 2e 3d df 66 0a be
       -0.08853444 -0.14705287 0.042664874 -0.13515805
000040 96 83 3f 3d e1 86 59 3e 1f fe ae be ba 32 d6 bd
       0.04675635 0.21242858 -0.34178254 -0.10458894
000050 61 7a b3 3b ff ab 8c bd ba d8 6a 39 88 0c 8b 3e
       0.005477235 -0.06868743 0.00022396716 0.27157998
000060 50 f1 c0 3d 12 3d 31 bd ae 26 8c 3e fb 04 0a 3a
       0.09421027 -0.04327113 0.2737326 0.00052650244
000070 44 66 af 3e 92 b3 ab 3e b9 21 30 3e 37 83 0a bd
       0.3425771 0.3353544 0.17200364 -0.033816542
000080 e6 40 63 3e d7 08 99 3c d1 3c 57 3e 69 70 85 3e
       0.22192726 0.018680973 0.21019293 0.26062325
000090 de 5b 6a bd f6 fe 56 be b3 1c 4c 3e df 5a 33 bd
       -0.057216518 -0.20995697 0.19932823 -0.043787833
0000a0 e6 82 77 be 23 4a 26 bd 21 a5 fc bd 1c d8 cb 3d
       -0.24171028 -0.040598046 -0.12336183 0.09953329
0000b0 aa 0d 25 be 84 da aa be 6f 5c df bd bb 1e b5 3e
       -0.16118494 -0.3336984 -0.10906302 0.35375008
0000c0 cd 81 8d be 47 0a c0 be 7c 20 47 3e 04 de 4d bd
       -0.27638093 -0.3750784 0.19445986 -0.05026056
0000d0 ef f3 a2 be 41 ed 60 bd c7 2b 89 3d de 36 21 3e
       -0.31826732 -0.054913763 0.06697803 0.15743586
0000e0 40 7f 8f bd eb c2 af be b4 54 14 bd 80 44 2c be
       -0.07006693 -0.34328398 -0.03621359 -0.16823006
0000f0 fc 1f 89 bf 27 58 a3 bf 7d d0 7e be a6 b3 a2 be
       -1.0712886 -1.2761277 -0.2488422 -0.31777686
000100 27 f1 9f bc da e7 c8 be 71 89 09 3e 2b c4 e0 3d
       -0.01952417 -0.3923939 0.13431336 0.10974916
000110 7f f0 e4 3c b3 b4 7f bf ab 3a a8 bf 9c 75 0f 3e
       0.027946709 -0.998851 -1.3142904 0.14009708
000120 65 35 5e 3e 4c aa 7a 3d c9 12 05 be 0e f0 86 3e
       0.21700056 0.061197564 -0.12995447 0.26355022
000130 48 87 0f 3e 69 a4 2d 3c 65 2b 49 bf 38 e9 6d bf
       0.1401645 0.0105982805 -0.7858184 -0.9293399
000140 fc 9c ac 3e a4 85 80 3e fe 68 57 3e 0c c8 4b 3e
       0.3371352 0.2510196 0.21036145 0.1990053
000150 2f 23 8c be d8 33 cc bd 9f c9 08 3e ef 1b 23 be
       -0.27370593 -0.09970826 0.13358162 -0.15928625
000160 37 74 67 be 79 99 27 3e fc c8 f8 3e 73 e8 f1 3d
       -0.22602926 0.16367139 0.4859084 0.11811914
000170 bf bd 6b 3d 75 d9 b7 3d 61 50 ae be 1b f2 93 3d
       0.057554003 0.089770235 -0.340457 0.07223912
000180 7b 20 ec 3d fd 41 b5 be 53 dc e2 bd 54 1d 6f 3e
       0.11529633 -0.35401908 -0.1107718 0.23351032
000190 c0 27 9e 3d 03 70 6e bd 62 ed aa 3d e5 b3 1b be
       0.077224255 -0.05821229 0.083460584 -0.15205343
0001a0 2d 57 8c be 4c be 7b 3e 35 03 75 be 94 2e 92 be
       -0.2741026 0.24584311 -0.23927005 -0.2855116
0001b0 b6 f0 9d 3d 7e c0 24 3e 48 7d 6b bd d2 40 c1 bd
       0.077119276 0.16089055 -0.057492524 -0.094361916
0001c0 a3 c0 b6 bd e8 52 2d be b6 85 60 bd c1 23 6f 3e
       -0.08923461 -0.16926157 -0.054815017 0.23353483
0001d0 0b 63 ab 3d ce 8b e3 be 99 82 38 be f3 08 20 be
       0.083685 -0.444426 -0.18018569 -0.15628414
0001e0 1f 65 ab be 55 62 e5 be dc 90 86 be e8 72 62 bd
       -0.33475587 -0.44801584 -0.26282394 -0.055285364
0001f0 f8 db 6c be f9 03 65 be 93 3c 9b bc cc 05 a4 3c
       -0.23130786 -0.22364797 -0.018949782 0.020022295
000200 cb b8 0d 3c 23 a3 65 3e e0 67 13 3e 9b 1b ff bd
       0.008650015 0.22425513 0.14395094 -0.12456437
000210 ca 7d 3f 3e a0 df d4 3e e8 8e e4 b9 86 de d0 be
       0.18700328 0.41576862 -0.00043594022 -0.40794772
000220 dd fe 8f be 50 85 88 be c5 34 bd 3d 21 fc 2c bd
       -0.28124133 -0.2666421 0.092385806 -0.042232636
000230 cf b5 19 3d 95 aa 91 3e bf f3 af 3e 05 6a 85 3e
       0.0375269 0.28450456 0.3436565 0.2605745
000240 d2 da b1 be 9d f0 96 be 0e e8 48 be 6c cb fd bd
       -0.3473726 -0.29480448 -0.19619772 -0.12392315
000250 5f 02 b5 bd 8d cd 0a 3e 46 c7 da 3e 6b 02 c7 3e
       -0.08838343 0.13554974 0.4273016 0.38869032
000260 d6 12 f4 3d cd 2b 2a be 94 f4 8e bd 2d 85 06 be
       0.11917655 -0.16618271 -0.06980243 -0.1313674
000270 51 8c 3e 3d 12 fb a9 bd 4c b7 e9 3c 04 c9 23 3e
       0.046520535 -0.08299841 0.028529786 0.1599465
000280 b8 e1 ea 3d 6e 71 7f 3d a5 87 e2 bd d2 8e 12 3e
       0.11468834 0.062364034 -0.110610284 0.14312294
000290 e3 67 0e 3d b2 a6 df be 9b 2f b0 be 60 56 94 bd
       0.034767043 -0.43681866 -0.3441132 -0.07243037
0002a0 f1 52 80 bd 39 37 88 be ba d9 d6 bd 06 40 65 3e
       -0.0626582 -0.26604632 -0.10490747 0.22387704
0002b0 5f 84 c6 3e d6 2c e1 3e b7 10 84 bd 2a 39 aa 3b
       0.38772866 0.4397952 -0.064485006 0.005194803
0002c0 50 b2 86 3d f8 d6 9f 3d b4 ec 65 3e 9f 9e 1d 3e
       0.06576979 0.07804674 0.22453576 0.1539254
0002d0 a8 d2 04 3e c1 66 99 3e 43 57 b3 3d be 7e 1c be
       0.12970984 0.29961208 0.08756878 -0.15282723
0002e0 58 07 74 3d fd 29 2a be 66 a0 82 be 05 91 2f be
       0.059577316 -0.1661758 -0.25513 -0.17145164
0002f0 94 51 14 be e5 91 41 bd ce 67 ed 3d b6 78 43 3f
       -0.14484245 -0.047258276 0.11592065 0.76356065
000300 6c 44 69 be 8e 2f 4e 3e 94 c1 51 3f c9 59 2b 3e
       -0.22780007 0.20135328 0.81936 0.16733469
000310 ca 8b 07 3e a5 b5 06 3f 98 90 fc bc ba 96 a0 3d
       0.13236919 0.5262092 -0.030830666 0.07841249
000320 a0 5f fe 3d 75 af dc bd d5 aa 10 3e ed ae 62 3e
       0.12420583 -0.10775653 0.14127667 0.22137041
000330 6f 69 44 3b 09 ef 1c 3e 01 b7 ae 3e df 6a ca bd
       0.002997007 0.1532556 0.34123996 -0.09883665
000340 94 30 26 be a8 5b 9f bd ef b0 50 3b 31 94 86 be
       -0.16229469 -0.07781154 0.0031843742 -0.26284936
000350 e9 f0 0d be da 43 9c bc 49 3c 37 be 2a 6b da 3c
       -0.13861431 -0.019075323 -0.1789409 0.026662428
000360 52 06 5e be bb 19 9a be 4f 33 db bc c1 76 08 be
       -0.21682099 -0.30097756 -0.026757864 -0.13326551
000370 be 75 e4 bd ba 49 1f be ae 81 aa 3d a9 49 64 be
       -0.1115527 -0.15555468 0.08325516 -0.22293724
000380 80 65 25 3e a5 e5 ec 3e 8d 36 c7 3e c7 a2 0b 3e
       0.16152 0.46268955 0.38908806 0.13636313
000390 05 25 aa 3e 00 4f 61 3e 39 6b b9 3e 67 68 cb 3d
       0.3323137 0.22002792 0.36214617 0.099320225
0003a0 97 ba 94 3d 21 4c 63 bd 40 9d 95 be c8 91 51 be
       0.07262152 -0.055492524 -0.29221535 -0.20465767
0003b0 25 60 36 bd 4c 5d 52 be 05 43 6f be ed 36 66 be
       -0.044525284 -0.20543402 -0.2336541 -0.2248189
0003c0 9f 56 0c be 0c a3 aa 3a 2f b1 76 bd 61 3b c3 3c
       -0.13704918 0.0013018562 -0.06022757 0.023832025
0003d0 4b 75 10 be de ee 1e bd 08 c9 05 bf c4 ba 9b be
       -0.14107244 -0.03880202 -0.52259874 -0.30415928
0003e0 ab 1b 78 be 71 0c 9e 3e 1c a0 c6 3e 70 1b af 3e
       -0.24229304 0.30868867 0.3879403 0.3420062
0003f0 5d 19 9c 3d 22 5c da 3d cf 7c 60 3e d9 79 6a be
       0.07622025 0.10662104 0.2192261 -0.22898044

conv1.bias f4 [16]
000000 ff 3c 12 bf a5 58 d5 3d 82 45 25 bc 90 e9 f0 bc
       -0.5712432 0.10417298 -0.010087373 -0.029408246
000010 a8 10 4c 3e 99 5e b8 3d d6 22 a9 3c c8 e2 26 be
       0.19928229 0.09002418 0.020646494 -0.16297448
000020 64 d0 14 3d 23 17 2a be aa 1c 97 be e6 92 9f 3c
       0.03633155 -0.16610388 -0.29514056 0.019479226
000030 0a a3 3f 3d 26 ab 3f be b1 47 e3 ba 2c c0 97 bd
       0.046786346 -0.18717632 -0.0017340091 -0.07409701

convnorm1.weight f4 [16]
000000 6c 76 07 40 d0 45 b7 3f a2 5e 42 3f 5c 48 03 40
       2.116603 1.431818 0.7592565 2.0512915
000010 58 d1 61 3f 88 03 0c 40 ee a0 70 3f 96 31 32 3f
       0.8821006 2.1877155 0.9399556 0.6960691
000020 32 39 7d 3f 94 17 b8 3f 20 97 88 3f bf cc fa 3f
       0.989154 1.4382195 1.067112 1.9593734
000030 26 96 3a 40 eb bd 8b 3f cb f8 c8 3f 61 b9 b8 3f
       2.9154143 1.0917333 1.5700926 1.4431573

convnorm1.bias f4 [16]
000000 93 55 39 3e e2 d0 21 3f ac cd 2a 3f 29 3d 32 3e
       0.1809905 0.63209355 0.6672008 0.17406143
000010 db 47 97 3e 52 3f 22 3e 2b f6 03 3f 27 e8 1b 3f
       0.2954701 0.15844467 0.515475 0.6090111
000020 f1 58 5f 3e 5c 6d 41 be 41 1c 06 3f 1b 0c 1c 3d
       0.21811272 -0.18889374 0.5238686 0.038097482
000030 66 b8 e6 3d d4 90 bd 3e 58 f7 3e 3d d8 f6 f7 3e
       0.1126564 0.37024558 0.046622604 0.48430514

convnorm1.running_mean f4 [16]
000000 28 80 2f 3d 2c 16 b6 3d 3e b2 35 39 76 ed ed 3c
       0.04284683 0.08890948 0.00017327906 0.029043894
000010 88 ce 13 3d cd 26 f5 3d 80 0e d4 3d 73 2b 36 3f
       0.036085635 0.11970291 0.10354328 0.7116005
000020 bb d0 b9 3c ff a7 81 3a a4 4d 1e 3e 8b b6 0e 3d
       0.022682538 0.0009891986 0.15459305 0.034842055
000030 d1 fe 84 3d 2e 81 f2 3d 21 de b9 3a 90 d5 ee 3d
       0.06493915 0.11841045 0.001418058 0.116618276

convnorm1.running_var f4 [16]
000000 4e 7f 2f 3c f9 4a ab 3c 53 13 d4 37 ea 47 03 3c
       0.010711504 0.020909773 2.5281368e-05 0.008012751
000010 f8 81 d6 3b ca 59 ee 3c 27 5f a5 3c 67 e6 e5 3e
       0.006546255 0.02909555 0.020186974 0.44902346
000020 8b c2 99 3b 6d 0f 47 39 02 58 5a 3d 1f de 7a 3b
       0.004692381 0.00018983865 0.053306587 0.0038279367
000030 2c 7d f2 3b 62 21 dd 3c 4e e1 52 3a 1f 16 00 3d
       0.0074001756 0.026993457 0.0008044437 0.031271096

conv2.weight f4 [128, 16, 3, 3]
000000 7c 8b c0 be 53 5e b0 be fe 7c 95 be d9 e3 d7 be
       -0.37606418 -0.34446964 -0.29196924 -0.4216602
000010 dd 4e c8 be 25 24 9b be 5b e9 be be 76 12 ce be
       -0.39122668 -0.30301014 -0.3728741 -0.4024846
000020 4d 41 ec be 78 e4 71 3b c1 35 19 3d a1 e3 40 3d
       -0.4614357 0.003690986 0.03740478 0.047092084
000030 7f be 34 3d f2 8e b9 3d f3 92 7d 3d 30 b0 68 bd
       0.044126984 0.09060468 0.06190772 -0.05680865
000040 f1 ce e6 bc 2f b3 0c bd 48 f1 46 3e a6 61 29 3e
       -0.02817485 -0.03435057 0.19427979 0.16541156
000050 a1 d4 36 3e d4 47 6d 3e 68 0b 71 3e 48 ca 8b 3e
       0.17854549 0.23171932 0.23539507 0.27302766
000060 7e b3 97 3e e1 ef 32 3e 6b 0b 6e 3e db 64 12 bf
       0.2962913 0.17474319 0.23246543 -0.57185143
000070 35 af a1 be b1 92 e2 be 10 83 93 be 5e ea 28 be
       -0.31578985 -0.44252542 -0.2881093 -0.16495654
000080 b9 2c 27 be 9b b2 44 be ff c6 74 be 7f ee 87 be
       -0.16325654 -0.19208758 -0.23904036 -0.26549146
000090 b6 b7 2f 3c 37 fb a3 3b e7 98 82 3c 4c 14 f9 3c
       0.010724952 0.0050043124 0.01594205 0.030405186
0000a0 f4 f6 05 be 35 f0 6d bd 5d 36 a9 bd 52 af ac bd
       -0.13082486 -0.058090407 -0.08262322 -0.08431877
0000b0 53 64 ed bd 12 76 88 bf 2d 1e 7f bf 24 89 8e bf
       -0.11591401 -1.0661032 -0.9965542 -1.1135602
0000c0 2e 37 71 bf 98 c5 64 bf 7b 6f 8d bf de 93 6c bf
       -0.9422482 -0.89364004 -1.1049646 -0.9241313
0000d0 2e f3 3f bf 28 3f 46 bf 14 e6 96 3d 25 24 2b 3e
       -0.7498044 -0.7744012 0.07368103 0.16713007
0000e0 0e 80 59 3e b3 46 2e 3e 29 e2 c2 3d 9f 0f 3d 3e
       0.21240255 0.17019157 0.09515793 0.1846299
0000f0 6a 35 ff 3d 52 5f 29 3e 43 3e 2b 3e c7 f6 a0 3d
       0.1246136 0.16540268 0.1672297 0.07859569
000100 d8 b4 90 bc c1 13 2f 3d 5a 8b bf 3c ec df a2 3d
       -0.017664358 0.04274345 0.023381878 0.07952866
000110 a0 99 a2 3c e4 d8 31 3c 74 3b 35 3d 88 e9 51 3d
       0.019848645 0.010854933 0.044246152 0.051248103
000120 0b 5b 60 bf 81 55 60 bf e5 61 71 bf 6e 6b 89 bf
       -0.8763892 -0.8763047 -0.9429 -1.073591
000130 b0 f6 9c bf 81 35 91 bf dd ba 6b bf 1c 5a 86 bf
       -1.2262783 -1.1344453 -0.92082006 -1.0496249
000140 2e e1 62 bf d2 67 84 bd ac a6 9b bd 09 31 04 be
       -0.88624847 -0.06465115 -0.076001495 -0.1290933
000150 06 da e3 3d 44 a7 d0 3d ff 47 14 3e 48 90 82 3d
       0.11125569 0.101881534 0.1448059 0.06375176
000160 8c 21 1e bd 68 76 d2 3d 13 1a 78 bc f8 b5 e2 3a
       -0.03860621 0.102764904 -0.015142935 0.0017296663
000170 08 0e 8d 3d 9a f9 28 3c 07 cd 24 bc 79 54 d9 3d
       0.06887442 0.010313416 -0.010058648 0.10611815
000180 62 c7 81 3d 7c 0a d8 3d d7 65 ae 3d 5f 65 2b bf
       0.063368574 0.10548875 0.08515518 -0.66951555
000190 cc ed 51 bf d6 cc 62 bf 5b ca 91 bf b9 fd aa bf
       -0.82003474 -0.88593805 -1.1389879 -1.335868
0001a0 c9 6b a5 bf e2 50 5d bf 9d 22 9f bf b7 cc 90 bf
       -1.2923518 -0.8645154 -1.2432438 -1.1312474
0001b0 83 cd 0e c0 a9 fc 1a c0 c2 db 0f c0 ad f6 12 c0
       -2.2312934 -2.4216712 -2.247788 -2.296306
0001c0 3f f9 1a c0 f5 1c 14 c0 a2 93 01 c0 2d b3 09 c0
       -2.4214628 -2.3142674 -2.0246358 -2.151561
0001d0 c6 e5 ff bf f4 b8 6a bd f0 fa c7 3c e0 2b 98 bc
       -1.9991996 -0.05730529 0.024411649 -0.018575609
0001e0 e6 62 62 bd 01 09 85 bd 59 50 6c bc 89 20 de bd
       -0.0552701 -0.06495858 -0.014423453 -0.10846049
0001f0 f5 9f b5 bd a5 dd f8 3c 24 bd 90 3d a9 2f 23 3e
       -0.088684 0.030379126 0.07067326 0.1593615
000200 da 4a 75 3e 4b 94 90 bd 41 5d ca 3c 28 06 52 3e
       0.23954335 -0.07059535 0.02470267 0.20510161
000210 19 46 ce bd ac 7b b5 3c 49 a2 05 3e c6 5f 13 3c
       -0.10071964 0.022153698 0.13050188 0.008995002
000220 77 49 7a 3d 25 95 8a bd 9d 9d 6f bd f3 82 18 3d
       0.061105218 -0.06766728 -0.05849992 0.037234258
000230 6e 60 22 3c ba ef 81 bd 92 4d 20 3c 32 d0 72 bd
       0.009910686 -0.06344552 0.009784119 -0.05928058
000240 e4 27 8e 3e 8f 85 18 3d 62 04 90 bb 03 50 e0 3d
       0.2776481 0.037236746 -0.0043950537 0.10952761
000250 88 dd 00 be bf a9 79 be d4 44 54 3e 61 7a 26 be
       -0.12584507 -0.24381159 0.20729381 -0.16257621
000260 de 6b b3 bd 84 8b a7 be 51 9c 89 be da fe 06 bd
       -0.087608084 -0.3272363 -0.26877072 -0.03295789
000270 23 c6 0b bf 0e 65 ef be 30 da d6 bd c2 be 47 be
       -0.5459921 -0.46756786 -0.10490835 -0.19506362
000280 6f fc 4f be 02 f1 98 bd 43 80 96 be 45 19 71 be
       -0.2031114 -0.074678436 -0.2939473 -0.23544796
000290 4b d1 9d be ca 58 11 be bd 1f 8c be bf da 36 be
       -0.3082374 -0.14194027 -0.27367964 -0.17856883
0002a0 c4 11 38 be 30 fe 1e be 65 08 65 be bf 59 67 bd
       -0.17975527 -0.15526652 -0.22366484 -0.056482073
0002b0 fc 56 84 3e 22 7c f5 3e a1 07 d9 be 67 89 4b bd
       0.25847614 0.47946268 -0.42388633 -0.049691584
0002c0 80 a6 df 3e 5d c9 e2 be ef c9 84 be 3e 70 44 3e
       0.43681717 -0.44294253 -0.25935313 0.19183442
0002d0 50 07 f8 bd f1 2d 17 be d2 e6 12 be eb b8 76 3d
       -0.1211077 -0.14763619 -0.14345863 0.060234945
0002e0 5d 89 1d 3e 45 ec ab 3c c2 08 0a 3e 1d a8 44 3e
       0.15384431 0.020986686 0.13479903 0.19204755
0002f0 fc a3 a0 3d e7 e1 3c 3d e6 31 ca bd b0 be 5d be
       0.078437775 0.046113875 -0.098727986 -0.21654773
000300 9a 35 d7 3d b7 ee 19 3d 03 6b 94 bc cb df 3f 3e
       0.105082706 0.03758117 -0.018117433 0.18737714
000310 26 fc 3f 3e 2d 8f c5 3d e4 5d 15 bf 50 20 12 bf
       0.18748531 0.09646449 -0.5834639 -0.57080555
000320 60 3f cc be 3a 30 63 bf a7 b4 7e bf 08 ff 11 bf
       -0.398921 -0.8874546 -0.99494404 -0.5702977
000330 e6 91 6f bf 20 38 83 bf 82 06 46 bf be 2e 88 3e
       -0.93582 -1.0251503 -0.7735368 0.2659816
000340 70 ce ac 3e 9b ff df 3e b7 e4 50 3e b4 e6 2f 3e
       0.3375125 0.437497 0.20399748 0.1717785
000350 7c c2 0a 3e 45 48 25 3e bc 77 8e 3d 4c 17 14 3e
       0.13550752 0.1614085 0.06956431 0.14462012
000360 d5 10 a8 3f 77 5d 8a 3f 29 2f 7e 3f 5f 3a ad 3e
       1.3130137 1.0809773 0.9929071 0.33833596
000370 20 1b ff 3d 80 bc 05 3d c4 5a 1f bf ce 9a 7f bf
       0.124563456 0.03265047 -0.6224787 -0.9984559
000380 8a 0f 7d bf b6 54 0e 3e 7d 07 05 3e ba 90 4d 3d
       -0.98851836 0.13899502 0.12991138 0.05018685
000390 08 f4 50 bd 86 ea 90 bc 84 1a c6 be 6d 71 af bd
       -0.051013976 -0.017689954 -0.38692105 -0.08566556
0003a0 48 ff 25 bf 9b b1 5d bf 25 26 06 3d b8 b6 d6 3c
       -0.64842653 -0.8659913 0.03275122 0.026210174
0003b0 2c c0 f8 bc 59 c7 39 3d d6 39 37 3e f8 09 2d 3e
       -0.030365072 0.04535613 0.17893156 0.16898334
0003c0 94 26 b8 3d 9a 38 5b 3e 4d 2e 29 3e 5c 35 01 3d
       0.08991733 0.2140831 0.16521569 0.031545028
0003d0 05 51 a4 3e 1a 94 9c 3e 8c 0f 6e 3e 2e 75 e3 3e
       0.32093063 0.30581743 0.23248118 0.44425339
0003e0 d6 65 cd 3e 44 ab b1 3e e1 ba ca 3e 31 75 02 3f
       0.40116757 0.34700978 0.39595702 0.5096007
0003f0 13 b0 c1 bd 3e 91 d2 bb c7 6a 12 3e 0c a8 f8 bd
       -0.094574116 -0.0064260056 0.14298545 -0.121414274

conv2.bias f4 [128]
000000 e2 74 a0 3e 71 7e 5f be 47 8c ec 3e 2c 13 04 bf
       0.31339175 -0.21825577 0.46200773 -0.51591754
000010 1f 5e 9f 3e 86 55 b8 3e 88 9d 0c 3e 87 af fa bd
       0.31126496 0.3600275 0.13731968 -0.122405104
000020 a5 bb aa bd 93 6a 82 3d 3c bb c3 bd fe 4f d2 be
       -0.083365716 0.06367984 -0.095571965 -0.41076654
000030 0b f2 db bd 95 13 1c 3e a8 a0 18 bf 37 12 8c 3e
       -0.107395254 0.15241845 -0.5962014 0.27357647
000040 ac 7e fc 3e 9c 0f 2c 3e 57 4c 19 3e 57 50 19 be
       0.49315393 0.1680283 0.14970528 -0.14972053
000050 74 33 a8 3e a0 e1 a3 bd cb 07 56 3e 41 bb 60 3e
       0.32851756 -0.08002019 0.2090141 0.21946432
000060 6b 0b c4 3d 42 8d a1 3e 80 8a 82 3e 3f 59 8a 3e
       0.0957249 0.31553084 0.25496292 0.27021214
000070 93 c5 84 3e 89 65 a7 3e 47 e9 fa be 64 cb 4c 3e
       0.25931987 0.32694653 -0.490061 0.19999462
000080 b3 2e 23 bd 63 79 9d bd d3 d1 3e 3e 62 88 7c 3e
       -0.039839458 -0.07689168 0.18634729 0.24661401
000090 59 2a 0a 3e d5 e3 aa 3d 55 b5 5f 3d 9a 2a 88 3d
       0.13492717 0.08344237 0.05461629 0.066487506
0000a0 e3 4b 2a bc 6c 70 22 bf ea 5f 8c bd cc 19 33 be
       -0.010394069 -0.6345279 -0.06854232 -0.1749031
0000b0 79 82 7a 3e 71 44 67 bd 54 40 62 3d a1 ab 93 3b
       0.24463834 -0.056461755 0.05523713 0.0045065437
0000c0 c3 8e 64 3e d9 8a 32 3f b0 e7 e0 ba b0 cd 8e 3e
       0.22320084 0.69743115 -0.0017158892 0.27891302
0000d0 6b 57 80 3e 23 40 44 3c 63 f6 28 3d 53 1a ea bd
       0.25066695 0.011978182 0.041250598 -0.11430802
0000e0 7c 86 79 3e 02 ca 66 3d f2 7b 6e 3d d1 79 9c 3e
       0.24367708 0.056344993 0.058223672 0.3056169
0000f0 9e 9b 7b be 5a 46 b5 bd 1e 52 77 3e 86 67 93 3d
       -0.24571082 -0.08851309 0.24152419 0.0719748
000100 f0 4b 67 3e 3d 1d 91 3e cf df 30 3e 61 b4 77 3e
       0.22587562 0.2834262 0.17272876 0.24189903
000110 dd 91 b6 bd a5 0e 50 3e 3d d7 09 bd 54 c8 91 3e
       -0.0891454 0.20318086 -0.033652533 0.2847315
000120 f5 99 c4 3e e0 7b 45 3e 68 f6 34 be 1c b8 d2 3e
       0.3839871 0.19285536 -0.17672122 0.4115609
000130 9e 27 ab 3d df 55 57 3d 52 94 af 3e d8 cf 9e bd
       0.08357166 0.052572127 0.34292847 -0.07754487
000140 fc f3 cb 3e a9 fc ff bd f3 04 57 3e 43 82 81 3e
       0.39834583 -0.12499363 0.20997982 0.25294694
000150 b6 c3 a6 3d a2 73 36 bd c0 4b 68 bd f8 a3 f1 3e
       0.08142798 -0.04454387 -0.056712866 0.4719541
000160 f9 bd 63 3e 08 a7 e5 3d c1 4f 93 3e 79 80 66 bc
       0.22240438 0.11213499 0.28771785 -0.014068716
000170 37 33 0f 3d 56 da 00 3f d5 0a a6 bd d2 fb 6b 3e
       0.03496095 0.50333154 -0.08107535 0.2304528
000180 6d 75 5a bb 49 8e cc 3e 79 af 8a 3e 22 70 bb 3e
       -0.0033334151 0.39952305 0.27087 0.36608988
000190 83 62 b5 3e b7 5b 52 3e 3d cb 8e 3e 8b 7e 25 be
       0.3542672 0.20542799 0.27889434 -0.16161554
0001a0 5b 9e b1 3e b8 21 25 3e bc 35 9a 3e e9 48 94 3e
       0.34691128 0.16126144 0.3011912 0.28961876
0001b0 cd fe 38 be 9d 03 9e bd 7e 05 86 3e 8c 5f 95 3d
       -0.18065949 -0.07715533 0.26176065 0.07293615
0001c0 94 f1 75 3e f2 8d a6 3e 0f dc dd be 5b 09 3e 3e
       0.24017936 0.3253017 -0.43331954 0.18558256
0001d0 a3 23 9b 3e e1 4f d8 3e 83 6c a6 3e 8c 52 83 3e
       0.30300626 0.42248443 0.32504663 0.25648916
0001e0 d0 67 1b 3e 18 eb 0f 3e e2 31 4e 3e cd 7e 7e 3e
       0.1517632 0.14054525 0.20136216 0.24853058
0001f0 e0 52 5d 3e d1 ef 0b 3e e1 58 02 3c 80 3f 28 bd
       0.21613646 0.13665701 0.007955761 -0.041076183

linear.weight f4 [17, 128]
000000 5c d2 a1 bd dd 60 cd be 95 73 1a bf 62 26 9d be
       -0.07901451 -0.40112963 -0.60332614 -0.30693346
000010 f2 8b 39 bd b7 63 35 3e 0a bb 85 be bb 9e 01 3e
       -0.045299478 0.1771382 -0.26119262 0.12658207
000020 48 3e ef 3e 7a 9a a1 bd 47 9c 5c 3d ca cd 1c bf
       0.46727204 -0.07890792 0.053859975 -0.6125151
000030 3e d7 72 3e f3 5c c2 3d 9b f8 fe bd d9 59 7d 3e
       0.23714921 0.09490385 -0.124497615 0.24741305
000040 c5 a3 e9 3c 26 b6 65 bf 24 4a c5 bd 9a 34 c7 bd
       0.028520474 -0.8973106 -0.09633282 -0.0972683
000050 59 4f a4 bd cf 58 cc be 2b 66 0e 3d a2 91 40 be
       -0.08022947 -0.39911506 0.034765404 -0.18805555
000060 43 81 85 3e 72 fe 09 bf d4 94 de 3c c5 6d c2 bb
       0.2607518 -0.5390388 0.027170576 -0.0059334957
000070 38 b2 8b bd 1a 16 8a bd aa b9 89 bd 27 4c 56 be
       -0.06821102 -0.06742497 -0.06724866 -0.20927487
000080 64 e8 67 3d b1 52 0b bf de 1c 28 bf bb 7d bb 3c
       0.05661811 -0.5442305 -0.6566905 0.022887101
000090 1a 16 0f 3f 24 05 41 3f 7d ea 12 bf b0 2d 5d be
       0.558931 0.7539847 -0.5738905 -0.2159946
0000a0 38 32 04 3e fd a3 cc 3d a4 ab 01 be 69 08 50 bf
       0.12909782 0.09992216 -0.12663132 -0.8126283
0000b0 56 fc ba 3e f5 87 ac be 3a 4e f1 bc 03 4b ee 3e
       0.36520642 -0.33697477 -0.029456247 0.46541604
0000c0 23 64 44 bd d7 f4 b7 3d a4 21 23 bf e6 39 37 bf
       -0.04794706 0.08982246 -0.63723207 -0.7157272
0000d0 01 0b 36 3e e3 7c 83 be 5f e0 34 3f c0 14 c5 3e
       0.17777635 -0.25681219 0.70654863 0.38492393
0000e0 df 85 0d be c2 cc e2 be da 48 90 3e f2 50 67 3e
       -0.13820599 -0.44296843 0.2818058 0.22589472
0000f0 03 ca aa 3e 01 2d d8 be 14 7c f9 3d 26 9e 85 bd
       0.33357248 -0.42221835 0.12181869 -0.06524305
000100 b2 c2 d3 3d 9f b8 81 bd d5 57 81 be 56 2b c4 be
       0.103398696 -0.06334042 -0.25262323 -0.38314313
000110 4e 36 9a 3e eb 26 70 b9 86 7b e9 3e 37 db 27 3e
       0.30119556 -0.00022902682 0.45602053 0.16392218
000120 24 60 f3 be e0 92 ed 3e e6 c0 a5 3d a5 90 65 be
       -0.47534287 0.4640112 0.08093433 -0.22418459
000130 f3 15 cb be c8 a3 8e be e7 fe 41 bd e9 3f 52 3e
       -0.39665183 -0.2785933 -0.047362234 0.20532192
000140 18 2b c0 bd 9c 72 a4 3e c7 13 4f 3e 2c b0 b0 bd
       -0.093832195 0.3211869 0.20222388 -0.08627352
000150 df bc c4 3e 7d 93 f2 be 0e 07 ce bc f0 a2 89 3c
       0.38425347 -0.4737815 -0.025149848 0.016801327
000160 ee f5 ac 3c 5e e5 48 3e 81 3e 9f 3d e4 7f 7b 3d
       0.021113362 0.19618747 0.077755935 0.061401263
000170 e3 b9 f7 3d 9c 3d db be 37 44 61 bd 41 cb 68 be
       0.12096002 -0.42820442 -0.054996695 -0.22733785
000180 9c 52 32 3f e3 aa 28 3f 75 96 1f 3f 34 c5 10 bb
       0.696573 0.6588575 0.62338954 -0.0022090198
000190 92 dd 44 be d9 b1 1b be 03 a1 21 be c3 f1 5d bf
       -0.19225147 -0.15204562 -0.15784077 -0.86697024
0001a0 e0 ba 06 3c c0 4a f2 bd 16 2e e2 bd 00 5f 85 be
       0.008223265 -0.11830664 -0.110439464 -0.26049042
0001b0 7d a9 25 be 97 46 00 3f 65 b7 51 3e 8a f1 48 be
       -0.16177936 0.5010771 0.20480116 -0.1962339
0001c0 da 75 bf bd e4 c9 63 3e d3 f3 35 3e f8 7d cd bd
       -0.0934865 0.22244984 0.17768793 -0.10033792
0001d0 da d4 80 3d 39 73 5a 3e 0e 4d 89 be 14 54 de bd
       0.06290598 0.21333016 -0.268166 -0.108558804
0001e0 b5 52 d6 3c 18 0f cf 3b 4a 7b 46 bd f3 9a e7 be
       0.026162485 0.006318938 -0.04845742 -0.45235404
0001f0 ab 69 9f 3e 34 f7 31 bf d0 77 ac be 19 06 80 be
       0.31135306 -0.6951783 -0.3368516 -0.25004652
000200 85 cb bd 3e 97 c7 fa be e5 7d 83 be 8f 91 45 3d
       0.37069336 -0.489804 -0.25681987 0.04823452
000210 d7 31 d5 3c 85 39 81 3e 29 2e 4a bd bb 19 2f 3b
       0.026024742 0.25239196 -0.049360428 0.0026718217
000220 ba 28 56 bf 74 f8 64 3e 99 ff 87 be b8 79 07 3e
       -0.83655894 0.22360402 -0.26562193 0.13230026
000230 a0 97 19 bf be c1 12 be 0a 40 89 bd b0 bc 48 be
       -0.59996986 -0.1433172 -0.067016676 -0.19603229
000240 53 2e 8f 3e c4 1f c9 bd 34 ba b5 bd e0 ca 07 bc
       0.2796503 -0.09820512 -0.08873406 -0.008288115
000250 65 50 cb 3d 12 06 7f be 1c a3 f8 3d 9a 33 0b 3b
       0.099274434 -0.2490466 0.12140486 0.0021240474
000260 ac 5e 70 3d e1 53 6d be d4 33 40 3e 90 0b f3 bd
       0.058684036 -0.23176529 0.18769771 -0.1186744
000270 6d 8d 6e 3e f2 ac e6 bd ef 8f 8d be 76 c2 6d be
       0.23296137 -0.112634555 -0.27648875 -0.23218712
000280 0d a2 aa be 14 06 8a be 29 ae 27 be ff 6c 09 3e
       -0.3332676 -0.26957762 -0.1637503 0.13420485
000290 14 71 5f be 57 f5 5d bd ce de 22 3e c7 05 e5 bd
       -0.2182048 -0.054189052 0.15905306 -0.111827426
0002a0 7a d1 03 3e eb cf 0b be 74 1f 7a 3e 71 85 b5 3d
       0.12872878 -0.13653533 0.24426061 0.088633426
0002b0 df fe 8e bd 03 47 3b 3d 2e 33 ec 3d 8e 68 c7 bb
       -0.069822066 0.04572202 0.11533199 -0.006085462
0002c0 d1 09 7b 3d 18 22 e0 3e e5 3f 89 be 03 36 2f bf
       0.06128866 0.4377601 -0.2680656 -0.6844179
0002d0 79 99 a1 be 0b 6e 4e 3e 76 29 21 3e ac d2 8b 3c
       -0.31562403 0.20159166 0.15738472 0.01706823
0002e0 59 fc fc 3b ab 85 26 be ae 92 0a 3f eb ce 17 be
       0.007720512 -0.16261928 0.54130065 -0.14825027
0002f0 7a b6 ed 3d 9c e4 cd 3d 29 54 aa 3e 07 f2 f1 be
       0.1160707 0.100533694 0.33267334 -0.47254965
000300 03 7b c0 3e 21 50 24 be a8 8a 58 bd 9f 84 9d bd
       0.3759385 -0.16046192 -0.052866608 -0.07691311
000310 a8 ca ea bd b6 80 9f bd 78 61 47 3e d5 a7 6d 3d
       -0.11464435 -0.077882215 0.19470775 0.058021385
000320 bb cd 6e be ec 48 b5 be 56 33 31 3e ab 6f 0e 3e
       -0.23320667 -0.35407197 0.1730474 0.13909785
000330 97 2c d8 be 39 d4 01 3f 55 65 83 be dc d1 b5 3e
       -0.4222152 0.5071445 -0.25663248 0.35511672
000340 ec 86 3e be 7a 07 ef 3e 66 dc 91 3e de cc 11 be
       -0.18606156 0.46685392 0.28488463 -0.14238307
000350 3a 10 e4 3e 71 22 ca 3c 17 cc 8e be c5 8c 1e be
       0.4454363 0.024674626 -0.27890083 -0.15483387
000360 a7 3a 91 3e 54 02 13 be 50 4c 80 3d f7 13 be 3e
       0.2836506 -0.14356357 0.062645555 0.37124607
000370 2f 85 23 be d9 1c a4 be 46 6b 07 bd af c2 28 be
       -0.15968774 -0.3205326 -0.03306129 -0.16480516
000380 b0 3a d1 3e de 5f 3b 3f 53 79 54 be 9d 90 28 3e
       0.40865088 0.73193157 -0.20749407 0.16461416
000390 3c 04 13 3e 01 0d 4d bd dd 89 da bd 6a 45 dd bd
       0.14357084 -0.05006123 -0.106708266 -0.10804255
0003a0 96 52 00 3e 02 d9 95 3d c1 35 0c 3c c1 2f e9 be
       0.12531504 0.073167816 0.008557738 -0.45544246
0003b0 04 5f 0a bd bf f7 81 bd a7 a9 21 3e 1c 83 af be
       -0.03378202 -0.06346082 0.15787373 -0.34279716
0003c0 0d 17 c7 be f2 b5 1b be 92 f0 0e bb ad ca 4a bc
       -0.38884774 -0.15206125 -0.0021810872 -0.012377423
0003d0 b4 d3 6e 3d 18 12 5d be 4c 1d c7 be a1 fd 1f be
       0.058307365 -0.21588933 -0.3888954 -0.15624095
0003e0 74 7f d1 bc 10 e8 ec 3c 1e 33 b0 3c 7a 8c 6d 3d
       -0.02557347 0.02891925 0.02150875 0.057995297
0003f0 88 ea a3 bd b7 63 b2 be 3d 24 17 3e fb 75 21 3e
       -0.08003718 -0.348417 0.14759918 0.15767662

linear.bias f4 [17]
000000 0b 93 06 bd 1a ce 24 be c8 93 1d be 82 eb 0b bf
       -0.032855075 -0.16094247 -0.15388405 -0.5465623
000010 6b 9d 34 bd 6d 49 6d be de 98 95 be a1 59 42 be
       -0.044095438 -0.23172541 -0.2921819 -0.18979503
000020 6c 98 d4 3b b1 e6 d2 be 04 1e 4b be a5 2f da bd
       0.0064878967 -0.4119163 -0.19835669 -0.10653619
000030 e5 9a 21 be 2b d9 46 be 0b 34 0d bf 36 d6 27 be
       -0.15781744 -0.1941878 -0.55157536 -0.16390309
000040 68 a3 d4 be
       -0.4153092
