Code/model_Valetudo.pt (torch, 110230 bytes, 22 tensors)

convA.weight f4 [10, 3, 5, 5]
000000 da b6 63 3f cd 10 a0 be 18 da 06 bd 47 a9 2b 3f
       0.88950884 -0.31262818 -0.032922834 0.6705517
000010 d0 df bb be 88 55 d7 be 38 e1 99 bd d8 9a 9a 3e
       -0.36694193 -0.42057443 -0.0751366 0.3019626
000020 5e 28 8b be 49 b5 f4 bd 28 11 57 be 12 6d 65 3e
       -0.27179235 -0.1194864 -0.21002638 0.22404888
000030 42 74 9e be 7f 09 0d bb c2 3e f2 3e 15 b6 55 3f
       -0.30948073 -0.0021520553 0.47313505 0.8348096
000040 56 c1 ad be f3 bf 11 bd 24 5a 0c 3f ed fe 13 bf
       -0.33936566 -0.035583448 0.54825044 -0.5781086
000050 a2 6e 93 be df e2 87 bd 6c 21 5d 3e 12 00 60 be
       -0.28795344 -0.06635069 0.2159478 -0.21875027
000060 b6 c4 8b 3d b9 94 a0 bd 61 5f 0a be 84 c3 9e be
       0.06824629 -0.078408666 -0.13512947 -0.31008542
000070 ee b1 44 3e 82 e1 ed 3d 41 56 7a be be 88 97 3e
       0.192085 0.11615278 -0.24446966 0.29596514
000080 b0 3e 31 be 3f 73 ef be b2 26 75 3e 7e 6d 19 3f
       -0.1730907 -0.46767613 0.23940542 0.59932697
000090 54 0a 21 be d2 7e 4f be 59 76 7b 3e 6c 0c 90 be
       -0.15726596 -0.20263222 0.24556865 -0.28134477
0000a0 ab ec 09 bc 07 4d 09 bc 70 cd 9a be e4 de 03 3e
       -0.008418242 -0.008380181 -0.3023486 0.12877995
0000b0 5e b9 81 3e e7 5e 2c be c5 91 f4 3e 87 6f c4 bd
       0.25336736 -0.16833077 0.47767463 -0.09591585
0000c0 f7 99 87 be 61 43 96 3e e6 ca 20 be da 52 0c be
       -0.26484653 0.2934828 -0.157024 -0.1370348
0000d0 5c 4f 3f be 01 f0 15 3c 72 52 8a 3c 23 a8 31 3e
       -0.18682617 0.00915146 0.016885016 0.17349295
0000e0 66 78 03 bc c0 00 6d be 23 76 67 bd 9c 72 1f bd
       -0.008024311 -0.23144817 -0.05650915 -0.03892766
0000f0 ea 41 40 3e b3 1b 0c 3d 2c 6d 22 3e ac ed a6 bd
       0.18775144 0.034206104 0.15861958 -0.08150801
000100 89 74 18 be 3a 35 18 be 9c d1 2c bd 79 54 96 3d
       -0.14888205 -0.14864054 -0.042192087 0.07340331
000110 2c 8c a3 3d 87 94 19 3e 0e f8 3a 3d cb 4e 02 3e
       0.0798572 0.14998065 0.04564672 0.1272537
000120 1c 0b 45 bd 8b 85 15 3b 0a 69 af bb bd a2 74 3d
       -0.048106298 0.0022815194 -0.005353098 0.05972551
000130 c3 e9 17 be 14 47 1b bd 83 d6 56 bc ab b7 b8 3d
       -0.14835267 -0.037909582 -0.013112667 0.09019407
000140 ac aa 90 be 88 9f 7c 3d f5 c9 d0 3e 60 2b 9e be
       -0.28255212 0.06167558 0.4077908 -0.30892467
000150 1a 44 71 3d 0c bd 9e 3d 14 6c b5 3e f4 0b 90 3b
       0.058902837 0.077509016 0.3543402 0.004395956
000160 38 80 5b 3e 72 e2 51 3e 17 af 14 bd 60 77 86 be
       0.2143563 0.20496538 -0.03629979 -0.2626295
000170 33 60 fc bd 3c 09 6d bd cc 8d 57 be 4d 4a 9f be
       -0.12323036 -0.057870135 -0.21050185 -0.31111374
000180 04 36 63 3c 24 78 94 3e f6 01 fe bd be c4 e6 3b
       0.013867859 0.2899791 -0.12402718 0.0070424965
000190 b8 72 f9 3d 92 3e 17 3e 3e 9b 81 be 1e bc 32 3d
       0.12180084 0.14769962 -0.25313753 0.043636434
0001a0 9c e3 2b be 87 7b 1a 3e 38 67 fb 3e 27 5f cd bc
       -0.16786045 0.15086184 0.49102187 -0.025069786
0001b0 6b d0 96 3e 37 7c 0a 3f 8b 88 21 bf fb ae 61 be
       0.29455885 0.54095787 -0.63098973 -0.22039406
0001c0 05 21 77 be c5 6d 87 be 1d 2e 06 be 48 8e 97 3d
       -0.2413369 -0.26450935 -0.13103528 0.07400185
0001d0 26 7a 2b be ed 6c 1c bf 3b 59 69 bd 3a 83 9b be
       -0.16745815 -0.6110371 -0.056969862 -0.30373555
0001e0 db 7d 9f bc e7 6e 75 3e d1 f4 48 be 24 2e 1e be
       -0.019469192 0.23968087 -0.1962464 -0.15447289
0001f0 fd 7d 29 3e 04 b9 3f be 29 90 3e bf 4d fc 0d 3e
       0.16551967 -0.18722922 -0.7443872 0.13865776
000200 40 9c 10 be 9d 7e 5e bf 85 4b 45 3e ae 56 17 3e
       -0.14122105 -0.86911947 0.1926709 0.1477916
000210 31 3b 8a 3e 1b bf fc 3e 39 70 aa 3e 2e 4c b5 3e
       0.26998284 0.49364552 0.33288744 0.35409683
000220 f2 f0 3d 3e 9a c0 d8 3d 43 99 38 3e 58 45 31 3e
       0.18548945 0.10583611 0.18027215 0.17311609
000230 3e 85 b4 bd 4b f9 26 bf fb 4f 81 3e c7 c3 d5 bd
       -0.088144764 -0.6522414 0.25256333 -0.10437732
000240 e9 bb 3b bf 95 13 a1 3d 14 4e e8 3d 86 7c 98 3e
       -0.73333603 0.07865063 0.11343017 0.29782504
000250 1d 00 a9 3e f5 43 31 3e 32 95 65 3d ab d7 4d bd
       0.330079 0.1731108 0.056050487 -0.050254505
000260 49 55 8d 3e 11 4c 86 be ce ff 6a be 18 c5 fb 3d
       0.2760413 -0.2622991 -0.22949144 0.12293452
000270 57 68 f4 be 4e 24 81 3e 6c c6 f5 bd f7 8d a8 be
       -0.47735855 0.2522301 -0.120007366 -0.3292081
000280 3b a8 d3 3e dc e5 0e be 46 f0 0a 3f 61 ab 40 3f
       0.41339287 -0.13954872 0.5427288 0.75261503
000290 78 a2 2c 3e f3 23 3b 3e 5a dd af 3d ea f7 02 3f
       0.16858852 0.18275432 0.08587141 0.51159537
0002a0 22 56 b7 bc c3 e9 1f 3d dc 7a a5 be 58 1c 73 bf
       -0.022379939 0.039041292 -0.32320297 -0.94965124
0002b0 ba ef 79 be a3 8d 19 bf 04 8c 6c bf fa 2d 1b 3e
       -0.24407855 -0.59981745 -0.92401147 0.15154257
0002c0 98 f4 bc 3e 99 6d 6e 3d ef 78 87 3e df 3c ec 3e
       0.3690536 0.05820999 0.26459453 0.4614019
0002d0 18 68 c7 be 25 f9 29 be 75 d1 f4 bd d0 a8 b4 bd
       -0.38946605 -0.16598947 -0.11954013 -0.08821261
0002e0 a6 47 b6 3d 03 14 79 bc a6 83 20 3d 83 8f 5a be
       0.089003846 -0.015202525 0.03918805 -0.21343808
0002f0 ee a3 c5 bd 0f 09 07 be ca eb 19 3e 98 f9 d8 3e
       -0.09650408 -0.1318705 0.15031353 0.42377925
000300 12 d8 fe 3c 8c 8e 3a 3e cf 09 49 3e 80 69 67 be
       0.03110889 0.1821844 0.19632648 -0.22598839
000310 c8 7e 9e 3c 48 b3 45 be 78 e4 2c 3d 36 61 6a 3e
       0.019347563 -0.19306672 0.042210072 0.22888646
000320 7b 9e a8 3b 28 d6 b1 bb 52 8a 17 3e 37 b4 c5 3d
       0.0051458455 -0.0054271407 0.14798859 0.09653514
000330 e2 91 1c bd f8 2c 2f be 61 5c 5a 3e bc e6 74 be
       -0.038225062 -0.17106998 0.21324302 -0.23916143
000340 d6 73 02 be d1 24 57 bd dc 89 74 bd 1e b7 a6 be
       -0.127395 -0.052525345 -0.059701785 -0.32561582
000350 3b e3 5f 3d ff 4b fe 3d b7 b0 42 be cc 41 c4 bd
       0.054660063 0.12416839 -0.19012724 -0.09582862
000360 34 2a a5 3c ae 2e 6e 3d 8d d6 72 3d 70 39 af bc
       0.020161726 0.058149986 0.059286643 -0.021389693
000370 31 0b 15 3e 60 42 3f 3e ad da 04 bd 0b eb cf 3c
       0.1455505 0.18677664 -0.032435108 0.025380632
000380 67 02 49 3e 46 45 0c bd 56 61 b0 3d 90 9e ba 3e
       0.19629823 -0.03424575 0.08612315 0.364491
000390 52 3e 16 bc d7 c5 c1 bc fe 4e ef 3d 3d 00 d6 3e
       -0.009170132 -0.023653908 0.116849884 0.41797057
0003a0 1c cc 8a be b1 77 77 3c 5d fb b7 3e 67 72 a3 3e
       -0.27108848 0.01510422 0.35933962 0.3192322
0003b0 7a 99 02 be c5 8c 6d bd 88 dd db 3e 4c e7 60 be
       -0.12753859 -0.057995576 0.42942452 -0.21963233
0003c0 11 69 74 be 71 58 8a be cb a2 cf 3d 23 98 25 be
       -0.23868205 -0.270206 0.10138472 -0.16171317
0003d0 79 3b 48 bd 01 7f 61 be 8d b3 b7 3d 1e 1f ce be
       -0.048884843 -0.22021104 0.089697935 -0.40258116
0003e0 e5 2c 42 be f9 e8 e7 bb 90 51 0a 3f 29 45 c6 be
       -0.18962438 -0.007077333 0.54030704 -0.3872464
0003f0 ac 27 e7 bd 50 3b c4 3e c4 a3 e8 be 25 cd f2 3e
       -0.11286864 0.38326502 -0.45437443 0.47422138

convA.bias f4 [10]
000000 50 1c af 3d a2 b3 d8 3d b9 89 b4 b9 05 5e f2 bc
       0.08550322 0.10581137 -0.00034434887 -0.029585848
000010 e2 80 20 3c 43 42 82 bd d6 c3 b4 3d 45 50 51 bd
       0.009796353 -0.06360295 0.08826415 -0.05110194
000020 07 4c e5 3b d2 34 30 bc
       0.0069975886 -0.010754781

bnA.weight f4 [10]
000000 b5 54 f5 3e 16 5d 57 3f a7 a1 90 3f 3c 0c 1c 3f
       0.4791619 0.8412641 1.1299332 0.6095617
000010 b1 28 46 3f 92 c9 01 40 0f 0f c0 3f 74 06 96 3f
       0.7740584 2.0279279 1.5004596 1.1720719
000020 1e b3 1f 3f ea 98 10 3f
       0.62382686 0.5648333

bnA.bias f4 [10]
000000 1d db 44 3e fb 04 31 3e ac 8b af bc dd 96 fa be
       0.1922421 0.17287056 -0.021428905 -0.48943225
000010 70 dc bf be 58 41 1f 3f a7 95 28 3f 81 6d 01 3f
       -0.37472868 0.6220908 0.6585335 0.50557715
000020 0e d4 1b bd e0 e8 a9 3c
       -0.038044028 0.020740926

bnA.running_mean f4 [10]
000000 e7 ab fd 41 8a 9d da c2 a8 70 04 c2 85 12 ee 43
       31.708937 -109.30769 -33.110016 476.14468
000010 aa f4 13 c4 e8 32 50 bf 20 a4 36 c1 5e a5 77 c2
       -591.8229 -0.81327677 -11.41507 -61.91149
000020 08 89 80 42 6f fa 6a 42
       64.26764 58.744564

bnA.running_var f4 [10]
000000 78 27 21 47 cd a8 58 47 c0 ad 4e 47 9a e3 a9 47
       41255.47 55464.8 52909.75 86983.2
000010 ec 32 17 48 a4 ea 16 45 2e 60 b3 45 1e 08 83 46
       154827.69 2414.665 5740.0225 16772.059
000020 0e 70 b7 47 2d 7e da 46
       93920.11 27967.088

conv0.weight f4 [10, 10, 5, 5]
000000 1a cc 3e be 24 a8 c0 be de ea af b9 b3 f6 84 bd
       -0.18632546 -0.3762828 -0.0003355359 -0.06492367
000010 a2 e8 9b be 4a 66 b1 be 70 b8 d1 bb 09 29 7f 3e
       -0.30450922 -0.34648353 -0.0064001605 0.24917997
000020 8f 9a 82 be f8 e2 8c bb f9 e2 27 bd 0f d3 13 3f
       -0.25508544 -0.0042995177 -0.040987942 0.57743925
000030 28 2d d9 be 40 76 1c be 53 b7 a4 3e 64 ad 03 3e
       -0.42417264 -0.15279484 0.32171115 0.12859112
000040 52 a8 a9 bd 54 b3 94 3e b3 7c ac 3d 69 d9 53 be
       -0.08284058 0.29043067 0.08422222 -0.20688404
000050 ba 5d 94 be 42 8e 3d bd 7a 68 d7 3e ec 1d 8c bd
       -0.28977758 -0.046278246 0.42071897 -0.06841645
000060 54 73 d2 3d ca e6 1c be 74 df e6 3c e9 c2 3d be
       0.10275903 -0.15322414 0.028182723 -0.18531384
000070 a3 3d d6 bd f9 da b0 3c 64 10 9e be c6 f8 8c be
       -0.10460975 0.02158879 -0.3087188 -0.2753355
000080 6f 31 15 3f b7 27 3f 3e a3 d4 f3 3d a8 8c 32 3e
       0.58278555 0.18667494 0.119057916 0.17436469
000090 24 d0 c7 bb c5 28 7e 3d 7d 79 a6 bc c9 c8 eb bd
       -0.0060978103 0.0620506 -0.020321602 -0.11512906
0000a0 34 18 9f bd 7d 11 75 3e 92 1c f1 3c 57 da cb 3d
       -0.07768288 0.23932452 0.029432569 0.099537544
0000b0 5d 1c 82 3e 23 01 1f bf 53 07 29 bf d8 c5 fc 3e
       0.25412264 -0.6211111 -0.660268 0.49369693
0000c0 f2 d2 8e 3d 7a 4e 82 be 13 ac 35 bf ef 5a 33 bf
       0.069738284 -0.25450498 -0.7096569 -0.7006063
0000d0 8e c1 1d be 45 50 02 bf 38 e7 02 bf 53 1e 38 bd
       -0.15405867 -0.5090373 -0.5113406 -0.044950794
0000e0 cd 77 09 3e c2 60 23 bd ee 7d a9 3d b3 a9 72 3e
       0.13424607 -0.039887197 0.08275972 0.23697548
0000f0 51 81 a0 3e 7c 35 87 3d 55 71 de bc 12 4d 7e 3e
       0.3134866 0.06601998 -0.02715365 0.24834087
000100 53 e8 48 bd 7a d1 6e 3e 36 0c 6e 3e 18 ed 33 3f
       -0.049049687 0.23322096 0.23246846 0.7028365
000110 36 36 ad 3e 02 5a 89 3e 8b 3e 36 be cd c0 07 bc
       0.33830422 0.26826483 -0.17797296 -0.008285713
000120 6a 6e ef bd 98 e9 92 bd 70 2a 53 3d 00 23 77 3e
       -0.11690982 -0.07173461 0.051554143 0.24134445
000130 04 27 97 3e 26 30 d8 be 1d cb 29 3d e1 33 48 3e
       0.29521954 -0.42224234 0.04145347 0.1955104
000140 6e f6 41 3e ea 5d b5 be 24 f0 f7 be 3e 5d 8a 3e
       0.18941662 -0.35423213 -0.484254 0.27024263
000150 2b b2 ce be ea 99 47 bf 3d 2f cb 3c 4a 66 97 3e
       -0.40370306 -0.7796923 0.024802798 0.29570228
000160 67 b7 2b bf e4 bc 7e 3e e9 c1 15 3e f7 27 b8 3e
       -0.67076725 0.24876744 0.14624752 0.3596799
000170 c5 6d 00 bf 1a 8e 4a 3d 20 02 97 3e d9 73 f6 3e
       -0.50167495 0.049451925 0.2949381 0.4813526
000180 cc 2b 6a bd 73 db a5 be 71 dc e2 3e 32 68 57 be
       -0.057170674 -0.3239399 0.44308808 -0.21035841
000190 23 c3 7a 3d 86 4c c7 bc cb eb 13 3d b7 f5 34 be
       0.061221253 -0.024328481 0.03611354 -0.17671858
0001a0 35 d8 32 be 28 14 33 be 05 a9 59 3e b1 a0 c3 3d
       -0.17465289 -0.17488158 0.21255882 0.09552134
0001b0 6f 1e e7 3d 5b 54 da 3e 8a 72 dd 3e 0d 2e 91 3e
       0.112851016 0.42642483 0.4325145 0.28355446
0001c0 76 f0 f5 3c 95 53 b9 3e b1 97 3b 3d 9a 18 e0 3d
       0.030021887 0.3619658 0.04579896 0.109421924
0001d0 e2 6e 24 3d 91 96 6a 3d 7c 88 3c be 5b 07 33 be
       0.04014481 0.057272498 -0.1841144 -0.17483275
0001e0 92 0a 46 be b9 d8 9c 3e 98 a3 4c 3e f1 2f 88 3e
       -0.1933997 0.30634096 0.19984281 0.26599076
0001f0 0b 75 3b 3f 0e 62 3d 3e e5 ba 30 3d 8b 65 42 be
       0.7322547 0.18494436 0.043146987 -0.18984048
000200 79 5c c0 be 85 1a 6b 3e 58 d6 9a 3d b1 a2 42 3d
       -0.3757055 0.22959335 0.07560414 0.047518436
000210 58 1f 56 3d 9d 89 52 be 06 88 24 3d 6f 08 ec be
       0.052275985 -0.20560308 0.040168785 -0.46100184
000220 da 75 12 be e8 1e ec be 7d f8 80 3e 52 b0 43 3f
       -0.1430277 -0.4611733 0.25189582 0.7644092
000230 f7 ff 07 3f 37 5f be 3d 86 92 2d bb 01 04 15 bf
       0.53124946 0.092955045 -0.002648504 -0.58209234
000240 25 fc 13 be 2e 68 c6 3e b8 d4 8a 3e d1 17 cd 3e
       -0.14451654 0.38751358 0.27115417 0.40057233
000250 93 56 9b 3e 22 90 86 3e 57 31 b4 bd c3 b6 01 3d
       0.30339488 0.2628184 -0.08798473 0.031668436
000260 48 82 56 3e 59 8e 30 bd 45 1f 1f bd b3 85 c4 bd
       0.20948136 -0.043104503 -0.03884818 -0.095958136
000270 8a 99 9a be a9 d2 0f bf c2 ca 95 be 73 80 a5 3c
       -0.30195266 -0.56180817 -0.29256254 0.02020285
000280 8d f9 79 bc 3f a2 83 3c d2 97 02 be 5e d1 ea 3d
       -0.015257251 0.016068576 -0.12753227 0.11465715
000290 6a 03 19 3e 8e 4f 2e bd 87 82 dd be d1 1c df bc
       0.14942709 -0.042556338 -0.43263647 -0.02723542
0002a0 fc d4 3c 3e 0a 94 79 bd 97 49 4c 3e 72 17 e1 3e
       0.18440622 -0.060932197 0.19949947 0.439632
0002b0 5c ee e7 bd 2d db 41 be 48 fd fb 3e 8a 71 da bd
       -0.1132476 -0.18931265 0.49216676 -0.10666187
0002c0 1e be df 3e 24 fd d8 bd 0f 96 2c be cf 65 0a 3f
       0.43699735 -0.10595158 -0.16854118 0.540616
0002d0 0b c6 b5 3d 50 a8 d2 3e 89 0f 72 3e d3 1a e0 3e
       0.08875664 0.41144037 0.23638739 0.43770465
0002e0 91 f0 c8 3e da fc 34 be 24 f7 19 3e 2e 8e 07 be
       0.39246038 -0.1767458 0.15035683 -0.13237831
0002f0 ff 00 11 3e 98 10 d4 3e ad 35 88 bd f9 56 e5 3e
       0.14160536 0.4141891 -0.06650863 0.44792917
000300 8c 48 86 be c0 1c 1e be e3 fe 21 3f 55 4b df be
       -0.26227224 -0.15440655 0.6327955 -0.4361216
000310 03 92 b5 be bd c8 d4 be 8f 8c b3 be 8b 85 2e be
       -0.3546296 -0.415594 -0.35068175 -0.1704313
000320 1c 5e 9d 3d 84 08 0d 3e 1c 21 28 be 90 ef 77 3d
       0.076839656 0.1377278 -0.1641888 0.0605312
000330 09 48 c8 3c 3f 8c 00 3e 97 07 3f be 4c 03 8e bd
       0.024448412 0.125535 -0.18655239 -0.069342226
000340 32 c9 6c 3e 3e 59 5e bd eb 6a 46 3e 93 4d 9f be
       0.23123625 -0.054284327 0.19376723 -0.31113872
000350 fe ff 66 3d 77 5d 87 bd e2 cf 0f bf 90 d6 b0 3d
       0.056396477 -0.06609624 -0.5617658 0.086346745
000360 20 45 5b 3c 87 b1 9e be 01 38 c5 3c 23 68 fe bc
       0.01338318 -0.30994818 0.024074556 -0.031055516
000370 6a 61 16 3f 31 b3 92 3e 5a ea 9c 3e 85 af 0f 3f
       0.5874239 0.28652337 0.30647546 0.56127197
000380 60 e7 84 3e 30 12 e6 bc a3 dc 94 be 95 ff 29 3e
       0.25957775 -0.028084844 -0.29074582 0.16601403
000390 28 c2 47 bd 9d a6 d6 bd 42 37 22 3e 99 b9 d3 3e
       -0.048769146 -0.10480998 0.15841392 0.41352537
0003a0 2c c4 24 be 9f 1c 66 be 36 90 87 bd 71 fa 82 3d
       -0.16090459 -0.22471856 -0.06619303 0.06395424
0003b0 08 f6 3d 3e 46 f7 e2 3e 03 2d 36 3e df 67 8c 3e
       0.18550885 0.4432928 0.17790608 0.27422997
0003c0 90 5f 9d 3e a1 78 50 3e f0 00 13 3f 03 72 cb 3e
       0.3073697 0.20358516 0.57423306 0.39735422
0003d0 ed 0f 4e 3e 6e 7f fb 3d e3 00 66 3e f2 a6 e4 be
       0.20123263 0.12280165 0.22461276 -0.4465862
0003e0 24 5f ad be 36 84 8d be f0 c4 88 be 6b cb 85 bd
       -0.3386165 -0.2763993 -0.2671275 -0.065329395
0003f0 bb 4d 8c be c1 7c 16 be c3 fd 17 3e 5d 4f 55 3e
       -0.27403054 -0.14696027 0.14842896 0.20831056

conv0.bias f4 [10]
000000 4b 1a 05 3b 9d dc 15 bc f3 20 39 bc 6e fd 72 bd
       0.0020309861 -0.009146837 -0.01129936 -0.05932372
000010 cb d4 cc ba 36 1a 3d bd 8e db 85 3d c5 5f 1e bd
       -0.0015627382 -0.046167575 0.06536017 -0.03866555
000020 4d 43 98 bc 7b 31 73 bd
       -0.018586779 -0.05937336

bn0.weight f4 [10]
000000 8f 17 81 3f 04 e0 83 3f d0 10 bd 3f db c6 6d 3f
       1.0085315 1.0302739 1.4770756 0.92881554
000010 9a 66 87 3f 3d f8 4b 3f 2c a6 83 3f 82 ca 85 3f
       1.0578187 0.79675657 1.0285087 1.0452425
000020 9f ad 46 3f b8 0e 7e 3f
       0.77608675 0.9924121

bn0.bias f4 [10]
000000 f5 b9 14 be fe 80 4d 3e ef 69 a4 3e d2 b3 fe bd
       -0.14524062 0.20068738 0.3211207 -0.12436642
000010 fb 0f 42 3d 03 37 c6 bc f3 64 33 3d b3 8d cf 3c
       0.04737852 -0.024196154 0.043797445 0.025336122
000020 86 07 5f be 15 1a a2 be
       -0.21780214 -0.31660524

bn0.running_mean f4 [10]
000000 e2 a2 22 40 0f 5e 19 be 78 6f 1b 3e 21 d3 93 c0
       2.5411916 -0.14977287 0.1517924 -4.6195226
000010 a6 7e 29 c0 e8 91 83 c0 22 37 f0 bf 65 eb 2f bf
       -2.648355 -4.111561 -1.8766825 -0.6871856
000020 e2 7b 60 c0 1e 98 c1 bf
       -3.5075612 -1.5124547

bn0.running_var f4 [10]
000000 9d bf 32 41 ab 44 08 41 a2 9f 2b 41 bd dd 9b 41
       11.171781 8.516765 10.726473 19.48327
000010 c1 8f 3f 41 c8 6e 00 42 49 de 59 41 55 2f f8 40
       11.972596 32.108185 13.616769 7.755778
000020 35 d3 65 41 f9 ab a5 41
       14.364064 20.708971

conv1.weight f4 [16, 10, 3, 3]
000000 ff 3e c8 be fa 5b c0 3b 5a 22 8e 3d 30 d1 97 be
       -0.39110562 0.0058703395 0.06940146 -0.29651785
000010 d6 3a a2 be 07 50 d2 be 50 ea 80 3d 72 3f d7 be
       -0.31685513 -0.4107668 0.062946916 -0.42040592
000020 19 02 02 3b 53 3e 0e be 39 17 0c bf a6 1f 02 be
       0.0019837676 -0.13890962 -0.54722935 -0.12707385
000030 91 5f 98 be 02 db 94 3c 0d a6 bf 3e fa 4b 46 be
       -0.2976041 0.018170837 0.37431374 -0.1936492
000040 d1 aa e4 bd 70 82 44 bf e4 a7 04 3e 39 ab d5 be
       -0.11165393 -0.7676153 0.1295467 -0.41732195
000050 ae b1 c7 3e f0 4d 90 be 4b c5 ea 3d 1b d0 99 3d
       0.39002746 -0.28184462 0.11463412 0.07510396
000060 46 46 61 be 27 8b 3f 3c a4 31 c8 be 57 85 70 be
       -0.21999463 0.011690891 -0.39100373 -0.23488365
000070 93 78 c7 be da ab 55 bd 4f 55 1f 3e 25 32 36 3f
       -0.38959178 -0.052165844 0.15559886 0.71170264
000080 27 49 07 3f 69 d5 0f be 86 89 d0 bd 64 28 cf be
       0.52845997 -0.14046253 -0.101824805 -0.40460503
000090 a2 d0 a2 bd 2f 9f ef 3d 66 ac 33 3e 0f 94 87 bc
       -0.0794995 0.11700284 0.17546234 -0.016550092
0000a0 e9 99 b9 3d d2 39 97 3d 8c 64 ac 3e 1e a4 45 3e
       0.09062559 0.07384075 0.3367046 0.19300887
0000b0 70 5e 19 3e 22 ab 09 be f4 83 c2 be e9 e1 a2 3e
       0.14977431 -0.13444188 -0.37991297 0.3181298
0000c0 2a 0d 03 bf 57 52 9a 3e a0 08 45 3d 70 db 34 3e
       -0.5119196 0.30140945 0.04810393 0.17661834
0000d0 1c 7d 16 bd a9 95 c9 be 45 65 b7 3d 24 f0 04 3e
       -0.036740407 -0.39371994 0.089548625 0.12982231
0000e0 8c ef 77 3e 6c 3f 23 be 60 45 59 3e 02 0e a8 3e
       0.24212474 -0.15942162 0.2121787 0.32823187
0000f0 77 d3 bb 3e 9e 46 ce bd 95 e8 0b be 42 d1 c9 3e
       0.36684772 -0.10072063 -0.13662942 0.39417464
000100 95 ad 4e 3e 4a 26 e6 3d 79 c4 58 be d8 fa 85 be
       0.20183404 0.11237772 -0.21168698 -0.2616794
000110 12 64 cf 3e 46 2a 0b bf 21 29 36 3e c6 e4 c8 3e
       0.40506035 -0.5436138 0.17789127 0.3923704
000120 00 8d ce be f7 9f a3 3e dd d2 ef bd 12 bc ce 3e
       -0.4034195 0.3195798 -0.11710141 0.4037786
000130 f8 ba 9a 3e 5d 61 0f bf bc bc db 3e 42 d7 6e be
       0.3022077 -0.5600794 0.4291743 -0.23324302
000140 34 b5 03 3f 18 66 07 be 59 7d 55 bb 5c 04 67 3e
       0.5144837 -0.1322254 -0.0032575934 0.22560257
000150 bb f4 c6 be 2f 7f 2b be 51 bb 27 3e c7 c8 a8 be
       -0.3885859 -0.16747735 0.1638005 -0.3296568
000160 3d e0 23 be 67 ab 10 be 1e b8 d2 bd 1a 58 02 bf
       -0.16003509 -0.14127885 -0.10289024 -0.5091568
000170 21 30 7e 3d 50 19 91 3d 2a 52 c8 be 3d e3 4f be
       0.062057618 0.07084906 -0.39125186 -0.20301528
000180 9a 97 00 bf d0 2e c0 bd 6a 16 ba 3b 2e f8 8b bd
       -0.50231326 -0.09383929 0.0056789415 -0.06834446
000190 34 a2 c6 3d ed 43 e7 bd 91 c6 04 3e ef 62 5d 3d
       0.096989065 -0.11292253 0.12966372 0.05404943
0001a0 a1 9a 13 3e 37 10 8c bd a1 93 8a 3c 92 3d b8 3d
       0.14414455 -0.0683903 0.016916098 0.089961186
0001b0 1e f0 c4 be 43 f0 7a 3c 08 8f a0 bd 91 1e 2f 3e
       -0.38464445 0.015316072 -0.07839781 0.17101504
0001c0 51 7b 85 be 49 03 95 3d 86 58 4b be f0 10 a0 bc
       -0.26070645 0.07276017 -0.19857988 -0.019539326
0001d0 68 97 46 be aa 3f 4e 3e 37 92 af bd 5e ed 08 be
       -0.19393694 0.20141473 -0.0857281 -0.13371798
0001e0 bb b2 05 bd 26 c7 86 be 93 59 df 3d f0 6e 92 bd
       -0.032641154 -0.26323813 0.10905757 -0.07150066
0001f0 11 fc 09 3e 15 fa 26 3c 32 3e 84 bf 25 33 c7 be
       0.13475062 0.01019146 -1.033148 -0.38906208
000200 82 c2 92 bc bf 0c de 3e a3 d3 d8 3e 08 62 af be
       -0.017915014 0.433691 0.42348966 -0.3425448
000210 94 87 0c bf 92 ef a0 bf 84 df 86 be 2c 06 a8 be
       -0.54894376 -1.2573111 -0.26342404 -0.3281721
000220 c6 ab d8 3d 3e 43 ef 3e b8 98 9a be 90 06 98 3e
       0.10579638 0.4673099 -0.3019464 0.29692507
000230 0c 7b d1 be 84 03 bf 3e 25 f3 86 be bf 69 86 be
       -0.4091419 0.3730737 -0.2635738 -0.26252553
000240 83 7a 2e bf 9a 62 6b be 2e 61 16 bd 14 f3 9b 3e
       -0.6815569 -0.22986832 -0.03671377 0.3045889
000250 6c 70 9c 3c c2 f5 a5 3e 16 fa ca bd 69 74 2f be
       0.019096576 0.3241406 -0.09910981 -0.1713425
000260 26 87 93 bd 93 58 11 be 71 5b 0b bd 81 9d d5 3c
       -0.07203512 -0.14193945 -0.034022752 0.02607608
000270 d0 8d ce 3e fc a3 5a 3d 6b 3b e3 bd f4 c4 0e 3e
       0.4034257 0.053379044 -0.110953175 0.13942319
000280 9b c8 63 be ed 2d e7 3e da 34 a1 be 40 0f 4e be
       -0.22244494 0.45152226 -0.31485635 -0.20123005
000290 8b 7d 29 3e 00 57 2c 3e 28 9c 1a bc cf 31 87 be
       0.16551797 0.16830063 -0.009436645 -0.26405188
0002a0 7c 7e 55 3d 31 6b 5d 3d 0f d1 c3 bd 44 9c bf bd
       0.052122578 0.054057304 -0.09561359 -0.09355977
0002b0 d9 ea 1e be fa 3d 2a 3e 13 3f 01 3f e2 37 0e 3e
       -0.15519275 0.16625205 0.5048687 0.13888505
0002c0 88 26 1e be 10 e2 0b 3d 0c fe b4 3c 39 98 aa 3e
       -0.15444386 0.034151137 0.022093795 0.33319262
0002d0 45 f3 cf bc cd ec 1d be e3 c6 cf 3e ae b7 d8 be
       -0.025384555 -0.15422364 0.40581426 -0.42327636
0002e0 21 8d ef be b3 02 c3 be d9 96 a6 bd a4 f3 a3 be
       -0.4678736 -0.38087997 -0.08134241 -0.3202182
0002f0 f8 46 37 bf c8 68 16 be 53 64 1c be cf 77 bd 3d
       -0.71592665 -0.14688408 -0.15272646 0.09251367
000300 3c 50 86 3d f5 96 23 3e 59 d9 85 3d 60 0d e3 3e
       0.06558272 0.15975554 0.065355964 0.44346142
000310 68 05 c9 3e b9 eb 20 3e a0 cd ae be cb c3 6c be
       0.39261937 0.15714921 -0.34141254 -0.23121564
000320 8c c3 50 3e 54 1f ba 3e a8 03 f3 bd 67 dc 9f bd
       0.20387095 0.36352026 -0.11865932 -0.0780571
000330 68 ec 84 3e d5 41 e3 be f4 ad ec bd 2d 40 da 3e
       0.25961614 -0.44386163 -0.115566164 0.42627087
000340 c7 7d c0 be de a6 a1 be 9d b2 6d bd d6 11 1b bf
       -0.3759596 -0.31572622 -0.058031667 -0.6057409
000350 27 fb 43 be 56 48 bf be 23 5e 52 3f 09 01 3f 3e
       -0.19138776 -0.37359875 0.8217489 0.18652739
000360 5d d8 08 be 1c e7 60 bd 7b 00 98 ba f5 b9 95 3e
       -0.13363786 -0.054907903 -0.0011596823 0.29243436
000370 b8 b6 62 3e 69 8f c4 3e e6 26 6e be e9 7d 2c 3e
       0.22140014 0.38390663 -0.23257026 0.16844906
000380 58 b3 2e be 27 b9 30 3e 64 80 34 be 5e 40 63 3e
       -0.17060602 0.1725813 -0.17627102 0.22192523
000390 96 ca b0 3d 56 76 78 3d d8 e2 63 be 26 a8 1d 3e
       0.0863239 0.06065973 -0.22254503 0.15396175
0003a0 4f 16 1a bd 3c 91 c1 bd d1 bd ac be 08 a0 2d bf
       -0.03761893 -0.094515294 -0.33738568 -0.67822313
0003b0 dd 51 25 3e 22 13 36 bf 27 18 6d 3e 5e 02 bb 3d
       0.1614451 -0.71122944 0.23153745 0.09131311
0003c0 fa 00 31 be 81 9a d3 3e 60 84 a4 bd 7f 1c 66 be
       -0.17285529 0.41328815 -0.08033061 -0.22471808
0003d0 72 08 b5 be df fd 55 3e e8 a6 95 3e 7d 0f 7f 3c
       -0.35358006 0.20897625 0.29228902 0.015567658
0003e0 9c 99 2f 3d f9 3f 2d bf 4b 9d 1d bf 57 b9 f4 be
       0.042871103 -0.6767574 -0.61568135 -0.47797653
0003f0 bc cf b9 bd 86 42 0e be 6e f6 20 be 77 58 c3 3e
       -0.09072825 -0.13892564 -0.15719005 0.3815343

conv1.bias f4 [16]
000000 4f 30 a7 3e 43 81 bc 3e be 25 4e bd 52 3d bf 3f
       0.32654044 0.3681737 -0.050328963 1.4940588
000010 01 6d 4f 3e e5 77 4d 3e f3 f5 d0 3c f8 84 53 3f
       0.20256425 0.20065267 0.025507903 0.8262477
000020 04 23 ae bf fa 2c 48 3d e5 2f 0e bd 2e 73 0c 3f
       -1.3604436 0.048871018 -0.034713645 0.5486325
000030 82 e3 ef 3d 20 4c 4d be 0e 4d 34 3f 2a 0e ea 3e
       0.117133155 -0.2004857 0.70430076 0.4571393

convnorm1.weight f4 [16]
000000 60 d6 8e 3f 99 72 bf 3f a5 7b c1 3f 69 fe 88 3f
       1.1159172 1.4956847 1.5115858 1.070264
000010 03 e2 cc 3f 30 3b eb 3f 21 fe c6 3f 21 78 a9 3f
       1.6006473 1.8377438 1.5546304 1.3239785
000020 6b ee d2 3f c0 2b bb 3f 23 cc ac 3f f8 b9 97 3f
       1.6479009 1.4622726 1.3499798 1.1853628
000030 d2 6b c4 3f f8 98 b8 3f 8f 24 70 3f c5 eb 98 3f
       1.5345404 1.4421682 0.93805784 1.1946951

convnorm1.bias f4 [16]
000000 eb a1 da 3b d1 c4 a7 3e 4d 51 09 3e 03 a8 d3 3e
       0.006672134 0.32767347 0.1340992 0.4133912
000010 97 7a e8 3d b5 fe 0e 3f 8a c7 fb 3d 81 43 ea 3d
       0.11351507 0.558574 0.122939184 0.114386566
000020 51 f5 15 3d 08 74 93 3e fa 17 63 3e cf f2 8b 3e
       0.036610905 0.28799462 0.22177115 0.27333686
000030 ed c8 88 3a ca 4b a8 3e bb 54 ac 3e 8e 94 ca 3e
       0.0010435857 0.32870322 0.33658394 0.39566463

convnorm1.running_mean f4 [16]
000000 c8 8b ce 3e da 78 a5 3d 50 35 49 3e 6c 5a 2d 3e
       0.4034102 0.08079691 0.19649243 0.16929024
000010 ac 16 38 3e 08 bc c2 3e 52 4e 91 3e 81 27 9f 3e
       0.17977399 0.3803408 0.28380066 0.31084827
000020 a4 3b 49 40 74 20 9f 3d ff fd 5f 3e 27 88 33 3f
       3.1442652 0.07769862 0.21874236 0.70129627
000030 b8 19 ce 3d 24 0b 6c 3e 8d aa 64 3e ca 8c a1 3e
       0.10063499 0.23051125 0.22330685 0.31552726

convnorm1.running_var f4 [16]
000000 83 95 0e 3f 74 c7 ca 3d d9 4a 90 3e 57 4b 3b 3e
       0.55696887 0.09901324 0.28182104 0.18290459
000010 bf b0 a3 3e ba 4f 85 3f 5e 99 f4 3e f7 ae 13 3f
       0.31970784 1.0414956 0.4777326 0.5768885
000020 49 cd 73 40 75 cc df 3d 11 b2 9d 3e 1c ae 93 3f
       3.8094046 0.10927669 0.30799916 1.1537509
000030 45 f2 24 3e 1a b8 fd 3e 0a 2d ae 3e d4 d1 17 3f
       0.16108043 0.4955452 0.34018737 0.5930455

conv2.weight f4 [128, 16, 3, 3]
000000 02 31 aa be 07 da 6d be a8 41 b7 be 8f ff 9a be
       -0.33240515 -0.23227702 -0.3579228 -0.302731
000010 34 a7 d7 be e3 49 f9 be ee c3 88 be ed a8 1c be
       -0.42119753 -0.48689184 -0.26711982 -0.15298815
000020 f1 f0 21 be 75 f2 34 3f 86 cf 3d 3f da 74 05 3f
       -0.15814568 0.7068246 0.7414478 0.52131426
000030 62 c0 13 3f 3a 51 05 3e 13 cb fb 3e 47 1f 01 3f
       0.5771543 0.13019267 0.4917837 0.5043835
000040 04 f2 2e 3f aa 98 1e 3f 7e 06 00 be 61 47 08 be
       0.68338037 0.61951697 -0.12502477 -0.13308479
000050 34 ce 48 bf 75 b0 d5 3e 01 4f b0 3e b9 d8 a9 3e
       -0.7843964 0.4173619 0.34435275 0.3317316
000060 18 1e ba be 63 92 1b be 86 98 a2 bd 95 c8 9f 3e
       -0.36351085 -0.15192561 -0.07939248 0.3120772
000070 b6 38 2a bc 6e f8 ae 3e ad 67 c3 bd 51 a3 00 be
       -0.0103894975 0.34173912 -0.09541259 -0.125623
000080 61 26 a3 3d 90 b3 fa bd 27 95 08 3d 25 4d 80 be
       0.079663046 -0.1224128 0.033345368 -0.25058857
000090 e1 5f 3f be f2 85 b8 bd b1 a7 8a 3d 72 6d 70 bf
       -0.18688919 -0.09009923 0.06770266 -0.93917
0000a0 62 91 16 bf 06 53 05 bf 9c a2 ed bd e0 82 9c bd
       -0.58815587 -0.5207981 -0.11603281 -0.0764215
0000b0 ce d6 06 bf e3 ca bc be 20 5c ed 3d d9 ee 59 be
       -0.52671516 -0.3687354 0.11589837 -0.2128252
0000c0 5e 5e da 3e 4b 04 65 3d 72 15 e3 3e af 0b 72 be
       0.4265012 0.055912297 0.443523 -0.2363727
0000d0 e4 1e 07 3d ad a3 e5 3c 3c 0e 9f be fd aa 62 3d
       0.032988444 0.028032148 -0.31065547 0.05533885
0000e0 db df 85 3d 43 e9 6e 3d 10 96 91 3d 57 e9 a4 be
       0.06536838 0.058327924 0.071087 -0.32209274
0000f0 37 b6 c8 3d 30 27 dc bc c1 69 53 3e b3 38 b5 3d
       0.0980038 -0.026874155 0.2064581 0.08848705
000100 f3 cf c4 3d 3f 24 dd 3d 90 bf a9 3c 63 29 af 3c
       0.09609976 0.10797929 0.020721227 0.02138204
000110 cb e2 a8 bd 62 93 a0 3d 41 63 88 3d 3a 36 c0 3d
       -0.08246382 0.07840611 0.06659556 0.09385343
000120 b9 c8 0c be c4 6d 9c bb a7 bf 13 bf 62 6f 8d 3d
       -0.13748445 -0.0047738273 -0.57714313 0.0690601
000130 5b b7 d8 be f7 33 24 be 51 77 1c bf 00 95 31 be
       -0.4232739 -0.16035448 -0.6111956 -0.17341995
000140 69 9c f6 bd d2 7a 48 be cd e2 16 be 96 51 5d be
       -0.120415516 -0.19578102 -0.14734955 -0.21613154
000150 92 7c 38 be 10 05 9b be 69 17 ce be f9 cb 1e 3e
       -0.1801627 -0.302773 -0.40252236 0.15507497
000160 57 9f 0b 3d 4f f7 91 3e 2b 93 5d 3e 3a e6 19 be
       0.034087505 0.28508994 0.21638171 -0.1502923
000170 04 94 00 3e 90 62 63 bf b8 0d 08 bf 60 10 b5 be
       0.12556463 -0.8882227 -0.53145933 -0.35364056
000180 d9 4a 33 3c 99 e2 5c 3b 38 26 b1 be 00 f8 61 3e
       0.010943138 0.0033704399 -0.3459947 0.2206726
000190 aa f8 3d be 03 fe 2c bf 63 6c 42 3e 1e 57 20 bf
       -0.18551889 -0.6757509 0.18986659 -0.6263293
0001a0 52 1c ad 3e 1f 3a 1a bf ca 4a 6c 3e a6 f0 1a 3e
       0.3381067 -0.60244936 0.23075405 0.15130863
0001b0 dc f7 28 bf a6 0f 3b bf 91 d3 54 bf 4e 51 81 bf
       -0.66003203 -0.7307075 -0.83135325 -1.0102937
0001c0 83 ee 5f bf 19 bc a8 be 75 18 25 bf dc 2f 2c 3e
       -0.87473315 -0.32956007 -0.64490443 0.16815132
0001d0 ff c0 a6 be 43 15 fc bf 6d 5e ba be 0f 67 02 bc
       -0.3256912 -1.9693989 -0.36400166 -0.007959141
0001e0 f7 a8 f4 be c4 0d de be 77 01 14 c0 d5 c8 1a bd
       -0.4778516 -0.43369877 -2.3125894 -0.037789185
0001f0 a6 1b e4 bf b9 25 83 bf 6f b0 0a bc 7e 86 00 bd
       -1.7820938 -1.0245887 -0.008464917 -0.03137826
000200 17 5b cb 3c b5 d4 1a bf 5a 63 db be d9 e2 af be
       0.024823708 -0.60480815 -0.42849237 -0.3435276
000210 89 99 5f 3e 87 75 12 3e da 0d 85 be 31 96 4d be
       0.21835913 0.14302646 -0.2598713 -0.20076825
000220 6a 39 77 3d 3d 99 25 be 77 76 6b be 51 ef e6 3d
       0.06035749 -0.16171737 -0.2299441 0.11276115
000230 ed 81 5d be 8f 91 48 bd 61 83 06 be 09 a9 95 be
       -0.21631594 -0.04896694 -0.13136055 -0.29230526
000240 f1 91 c0 be 58 e7 fe be 71 e1 cb be f4 82 b5 be
       -0.37611344 -0.49785876 -0.39820436 -0.35451472
000250 69 c5 ba be 5e 41 15 be 47 50 09 bf 7c 0c 13 be
       -0.36478737 -0.14575717 -0.5363812 -0.14360231
000260 75 6a ea be c6 95 a6 3e 78 c1 51 3e 64 f7 0d 3e
       -0.45784345 0.32536143 0.20483959 0.13863903
000270 60 90 00 3d 07 45 aa 3b c3 ac 16 3d 2f 0d e2 3d
       0.031387687 0.005196217 0.036785852 0.11037671
000280 9f b2 fe 3d 61 4d 6c 3e 3c 58 73 bf 30 c2 70 bf
       0.12436413 0.23076393 -0.9505651 -0.94046307
000290 77 b7 a8 3e bd 68 ab bf 26 96 66 3e 49 a8 7e bf
       0.32952473 -1.3391339 0.22518215 -0.9947553
0002a0 e7 e6 c6 3e f7 c7 3a bf f5 69 44 bf 95 83 11 3e
       0.3884804 -0.7296137 -0.7672418 0.14210351
0002b0 5f cd b0 be ae 4c 7e be bc d2 02 bf b3 33 bd be
       -0.34531686 -0.24833938 -0.51102805 -0.36953506
0002c0 ee ce f1 3d 74 3c 9f be 22 47 5e 3c fe 54 dd be
       0.11807047 -0.3110081 0.013566764 -0.43228906
0002d0 70 a3 18 bf 4d b5 f2 3e 80 0a 64 be 9c 20 d1 3e
       -0.59624386 0.47403947 -0.2226963 0.4084519
0002e0 d5 eb 34 be 96 90 6c bf 83 1e 26 be 38 1e 5c bf
       -0.17668088 -0.9240812 -0.16222577 -0.8598361
0002f0 ca 8f 07 3f da f7 ab bd bb a1 1e bd 79 06 69 3e
       0.5295378 -0.08396883 -0.038728457 0.22756375
000300 63 77 19 bb f0 30 58 3e 47 0b a6 bd 29 06 a2 3e
       -0.0023417107 0.21112418 -0.0810762 0.31645325
000310 06 2b 73 bd 89 7e 1f 3e 75 b3 3b be 2d 57 30 3d
       -0.059367202 0.15575613 -0.18330176 0.043051887
000320 90 a4 2e bf 82 1c 81 3c e3 cc 25 bf 4a 81 58 be
       -0.6821985 0.015760664 -0.6476576 -0.2114307
000330 7f 64 03 bf 1c 35 24 be 12 99 43 3d 79 ee 24 be
       -0.5132522 -0.16035885 0.0477534 -0.16106595
000340 43 4b 7b bf e5 b1 f1 be 69 3e 91 bf 9e b3 9f be
       -0.98161715 -0.47206035 -1.1347171 -0.31191725
000350 81 da 89 be 2f 41 e8 be 86 39 34 be cb 3a 90 bf
       -0.26924518 -0.4536223 -0.17600068 -1.1267942
000360 43 4d 30 bf 9c fd fb 3d 04 81 f0 bd 38 83 8a 3d
       -0.6886789 0.123042315 -0.11743358 0.06763309
000370 d0 dc d9 bd 92 8c 07 bf 6f a6 22 be 47 a0 f5 be
       -0.1063782 -0.5294887 -0.15883802 -0.47973844
000380 0b f3 c8 3d 60 88 2c be 96 4e 5c 3e 5f e0 87 3c
       0.09811982 -0.16848898 0.21514353 0.01658648
000390 db 9b ff 3d 55 94 cc 3d 3c c7 e0 bd df 47 49 3e
       0.12480899 0.099892296 -0.10975501 0.19656323
0003a0 23 5b d4 3d 9d 7c 8f 3e 12 21 8a bd cf e8 98 3e
       0.103689454 0.2802476 -0.06744589 0.2986512
0003b0 94 5b af ba a2 d8 b4 3e 49 d2 9e 3d 44 c5 6a 3d
       -0.0013378733 0.35321528 0.077549525 0.057317033
0003c0 c2 e3 a2 3b bc f4 a1 3d 8c 10 76 3e f0 5a ee bd
       0.0049709985 0.079080075 0.2402975 -0.11638439
0003d0 0b e9 ce be ce a4 c0 3e 2a 42 59 be 0c 98 ae 3e
       -0.40412173 0.37625736 -0.21216646 0.34100378
0003e0 39 2c ed bd 72 6a d9 3e d9 c4 40 bd 05 7b 4c be
       -0.115807004 0.42464024 -0.04706273 -0.19968803
0003f0 36 72 a3 be 1a 96 a3 3e c0 60 af be 0f a5 dc 3e
       -0.31923074 0.31950456 -0.34253502 0.4309468

conv2.bias f4 [128]
000000 27 cc d9 bd bd 56 5c bd bb fc 93 be 23 14 8c bc
       -0.10634642 -0.053793658 -0.28903756 -0.017099446
000010 18 f4 28 3f 52 14 88 bb 63 02 f5 bd 54 54 e9 3e
       0.6599746 -0.004152813 -0.11963346 0.4557215
000020 6d a1 93 3d ec 0c 75 be ed f9 6a 3f 67 24 94 3e
       0.07208524 -0.2393071 0.91787606 0.28934023
000030 cf a9 4d 3e 2c 12 ad 3e d6 94 ca be 73 f3 15 3f
       0.20084308 0.33802927 -0.39566678 0.585746
000040 2a 66 c2 be 37 f4 31 3d 13 4b 77 3e 80 04 8d be
       -0.3796857 0.043445792 0.24149732 -0.27542496
000050 89 ff 12 3e 6b e5 4b 3d f6 38 18 3d 51 a1 1d 3f
       0.14355291 0.049779337 0.037163697 0.61574274
000060 21 b9 b2 3d f8 bd 62 3d f3 e3 55 3d 40 c2 3f 3f
       0.08726717 0.05535695 0.052219342 0.74905777
000070 7b 1c 3e bf 2f b5 48 be 74 76 f8 3d 6e bc 1e 3d
       -0.7426221 -0.19600366 0.12131968 0.03875392
000080 35 39 cb 3d 53 31 2d 3e e2 b9 57 be b0 9c 05 3f
       0.09923021 0.16913347 -0.21067002 0.5219221
000090 95 9c 85 bd 4e 05 a2 3e 48 7a 7b be 0d 38 2f 3e
       -0.06524006 0.31644672 -0.24558365 0.17111225
0000a0 ea 1b b1 be 1a ba d8 be 19 74 4a 3d 23 ea 23 bd
       -0.3459161 -0.42329484 0.049427126 -0.040018212
0000b0 13 00 8c 3e 59 08 38 bd a6 de c8 3e 05 6b 93 3e
       0.27343807 -0.044929836 0.39232367 0.28792587
0000c0 92 07 41 3e 56 f7 c1 bc 0e cc 95 be 71 c8 2a 3f
       0.18850544 -0.02367751 -0.29257244 0.667121
0000d0 aa da f3 bd 9e b8 39 3f 55 5e 7f be c0 2d ac 3e
       -0.11906941 0.7254733 -0.24938329 0.33628654
0000e0 00 1e 73 be 3e 83 1c be 0a 46 e4 bc 89 cf b1 3e
       -0.23741913 -0.1528444 -0.027865428 0.3472865
0000f0 db d1 f5 be c9 41 86 3d a2 81 2c 3f 55 7e 54 3f
       -0.4801167 0.06555516 0.67385304 0.8300527
000100 9f c6 d7 3e 5c 7b cd 3e 18 23 9e bd dc 93 a0 3d
       0.42143723 0.40133178 -0.07721537 0.07840702
000110 97 1a 1f 3e 53 16 c6 3e 06 8c 8d 3e a9 e1 77 3d
       0.15537487 0.38688907 0.27645892 0.06051794
000120 db ff 97 3e 46 82 fb bd fd e5 52 3e 99 b8 aa 3e
       0.2968739 -0.12280707 0.20595546 0.33343962
000130 a9 63 77 be f5 7b 8e 3e a1 8d 04 3f d7 06 30 3d
       -0.24159111 0.27828947 0.5177861 0.042975273
000140 e1 d3 00 3f eb ce 5d 3e 63 94 29 3e d4 79 34 bc
       0.503233 0.21660964 0.16560511 -0.011015374
000150 cf ae 24 3e 58 99 4c 3e 95 14 0b 3e 9a 9a 7f 3f
       0.16082309 0.19980371 0.1358207 0.9984528
000160 b9 fd 8e 3e 87 05 8a 3e b9 af 24 3f 08 2b d3 bd
       0.2792795 0.26957342 0.6433063 -0.10310942
000170 60 eb 0a bb 07 e6 43 3e 7b b7 a5 3c 9e a6 f7 3e
       -0.0021197423 0.19130717 0.020229092 0.48369306
000180 f9 af 94 3e ff 18 45 be a5 97 2e be 78 85 26 bf
       0.29040506 -0.19247817 -0.17050035 -0.6504741
000190 f5 7a 00 3f b1 9b ad 3e 8d 7c 5f 3d b2 cf a6 3e
       0.5018762 0.33907846 0.05456214 0.32580334
0001a0 0b 03 8c 3e 4c 41 19 3e 8f 97 10 3e 5f 06 15 3d
       0.27346072 0.14966315 0.14120315 0.03638303
0001b0 b3 07 77 3c c5 5f 2c 3f b0 fa 7d 3e de 41 c5 be
       0.015077519 0.6733363 0.24802661 -0.38526815
0001c0 ba 6d 1a be c0 40 c7 3e 57 ca 53 3e 4f 3d 28 3e
       -0.1508092 0.38916588 0.20682655 0.16429637
0001d0 d1 9e 26 3e c2 12 09 3e a1 c1 41 bb d1 a8 fb 3e
       0.16271521 0.13386062 -0.0029564875 0.49152234
0001e0 61 e8 2c 3e 96 fa 13 be b5 a0 1b bf 05 77 ac be
       0.1688552 -0.1445106 -0.60792094 -0.33684555
0001f0 c3 7d bc bd e2 a3 8d 3e 24 99 04 bc 50 5e 9e 3e
       -0.09203675 0.27664095 -0.008093152 0.3093133

linear.weight f4 [17, 128]
000000 35 d5 3f be 5e 95 8a bd b3 e2 0f 3f 7b 4d e6 3d
       -0.18733676 -0.06766771 0.5620529 0.11245247
000010 2b f1 59 bd a2 bf 38 be 73 fa c0 3d 05 86 12 3f
       -0.05320851 -0.18041852 0.094227694 0.5723575
000020 71 98 14 bf d3 0d 30 be b5 83 68 3e 40 77 c8 3e
       -0.5804511 -0.17192774 0.22706492 0.3915348
000030 d2 16 cf be be a0 3e bf 49 b0 ce be de 07 c2 be
       -0.40447098 -0.74464023 -0.4036887 -0.37896627
000040 48 84 cd be 6f 9f 06 3f d5 cc 72 be db 2d c7 3e
       -0.40139985 0.52587026 -0.2371095 0.38902172
000050 cb 12 a7 be d8 94 4e be f4 b9 82 be b2 ab d2 bd
       -0.32631525 -0.20173967 -0.25532496 -0.102866545
000060 75 67 b3 be b0 aa eb 3e b0 19 2c 3e 68 69 0c 3f
       -0.3503987 0.46028662 0.16806674 0.5484834
000070 b1 ab 6b 3e 2d 8e 01 bf b8 6c d2 be 71 fe 93 be
       0.23014714 -0.5060757 -0.4109857 -0.2890506
000080 1a f9 14 bf a8 4b 02 3e 3e 83 c3 3d 74 22 aa 3e
       -0.581926 0.12724173 0.09546517 0.3322941
000090 78 34 90 3e 72 ab 58 bf d1 1d f2 be 40 6b 08 3f
       0.2816503 -0.84636605 -0.47288373 0.5328865
0000a0 43 5a 9e 3f 32 ff 23 bf 99 f2 29 3d 8a ae bf bd
       1.2371296 -0.6406127 0.041491125 -0.093594626
0000b0 4f 6f 53 bc c6 db b9 3e 3a b8 b3 be 33 02 5c 3e
       -0.012904956 0.36300486 -0.3510149 0.21485214
0000c0 b6 84 07 3f 27 7e 9d be 66 fd c2 bd 27 be 42 bd
       0.52936876 -0.3076031 -0.09520988 -0.047544625
0000d0 d3 09 d5 3e 2d e6 1d bf 7c 8d 68 bf 21 78 87 3f
       0.41609058 -0.61679345 -0.9084089 1.0583535
0000e0 d5 a9 a1 be 88 88 99 be 03 99 bc bd 40 ea b4 be
       -0.31574884 -0.29986978 -0.09208872 -0.3533497
0000f0 4e 65 48 bf 93 73 01 be 16 72 0c bf 89 5b ae be
       -0.7827958 -0.12641744 -0.5486158 -0.3405421
000100 f4 eb 41 3f 4f ad a0 be e6 29 97 be e1 e5 50 bf
       0.7575066 -0.31382224 -0.29524153 -0.8160077
000110 bf ab 35 3f a6 2d 4d be 09 d4 b3 bc 95 83 c3 be
       0.7096519 -0.20036945 -0.021951692 -0.38186327
000120 ce 62 81 3d c4 ff d3 3d a9 34 14 bf 73 b1 61 be
       0.063176736 0.10351518 -0.57892853 -0.22040348
000130 28 bf 72 3e be fd 5c be ac 6b 96 be 4a 33 02 bf
       0.23705733 -0.2158117 -0.29379022 -0.5085951
000140 b4 ce 80 3e 15 67 57 3e 86 ff 9a 3d 0f e5 9b be
       0.25157702 0.21035416 0.075682685 -0.30448195
000150 37 4b 45 be 46 69 83 be 76 1d 94 3d 83 00 8c be
       -0.19266973 -0.25666255 0.07232182 -0.2734414
000160 13 43 4e be f4 cb b9 3e 79 4c 87 3d 18 a6 59 3e
       -0.20142774 0.36288416 0.06606383 0.21254766
000170 5d 8f 12 bf a9 ad 11 3f 7c bf 8b bd e8 b4 e3 3e
       -0.57250005 0.5690561 -0.06823632 0.44473958
000180 4f 69 d9 3e 94 6c 61 bd 12 d9 da be c5 13 3c 3f
       0.42463157 -0.05503519 -0.42743737 0.73467666
000190 ca ec 94 be 4e 11 0f 3f c2 d8 e7 be 93 ee 3e bf
       -0.29086906 0.5588578 -0.4528256 -0.74582785
0001a0 f4 5d d0 3e 5b ef bf bd 17 6a ae 3e a4 8f 66 bd
       0.4069668 -0.09371825 0.34065315 -0.05628933
0001b0 56 62 22 3f c5 c7 d9 be 03 ee dd 3e 25 2d 88 3e
       0.634313 -0.42535225 0.4334565 0.26596943
0001c0 e0 74 41 bf ff f3 99 3e 0c 55 02 bf 60 bb 21 bf
       -0.7556896 0.30068967 -0.5091102 -0.63176537
0001d0 b8 53 11 bf ef f7 21 3f 97 fe 90 3b e0 c6 a9 bc
       -0.5676837 0.6326894 0.0044248807 -0.020724714
0001e0 37 64 65 3e 1a 0d 2f bf e0 bb ee 3c 6b 1d 62 be
       0.2240151 -0.68379366 0.02914232 -0.22081535
0001f0 c8 bc 06 bf 6f a3 21 3f b6 3b 19 be 37 9f 15 bf
       -0.5263181 0.63140005 -0.14964184 -0.5844607
000200 fa 7f 50 3e 50 c0 72 3d b0 d2 5d bf cc 6c 8e be
       0.20361319 0.059265435 -0.8664961 -0.2781738
000210 88 6d b3 bd 12 76 06 be fd 28 6f bf cb 8a 3d be
       -0.08761126 -0.13130978 -0.9342192 -0.18509977
000220 cc b9 a0 be 14 e6 e1 3e 33 74 9f ba ed 83 ba be
       -0.31391752 0.44120848 -0.0012165367 -0.36428776
000230 ee a0 63 3e 21 01 7b be 1e 8a 1c bf ca b7 84 bb
       0.22229359 -0.2451215 -0.6114825 -0.0040502297
000240 f9 81 18 bb 2e 2d dc 3c 81 14 94 be 92 7b 35 3e
       -0.002327083 0.026877012 -0.28921893 0.1772292
000250 10 d1 4c 3f 35 4d ec be 41 09 b5 be e1 9b 49 3e
       0.80006504 -0.46152654 -0.35358623 0.1968837
000260 08 0f be bd 29 53 04 bf 38 2d c8 3c fd aa 96 be
       -0.09280211 -0.5168939 0.024435624 -0.2942733
000270 95 b6 29 3f 90 0a 21 be 0e 77 f0 bc 29 e8 5b bf
       0.66294223 -0.15726686 -0.029353645 -0.85901123
000280 2f fe 28 3f 17 d9 3f bf 7b 67 b3 be a4 39 53 3d
       0.66012853 -0.7494063 -0.35039887 0.051568642
000290 42 76 2d 3e 47 55 9c be 51 d0 fb 3b d0 52 8c bd
       0.16939643 -0.3053381 0.0076847454 -0.06851733
0002a0 3a 10 b7 be 2f 75 c1 be 24 c6 d1 be 9f 51 cb be
       -0.35754567 -0.37784716 -0.40971482 -0.3971071
0002b0 ff 2e e2 3d a8 2a be bd ad 85 c1 3e 56 73 65 be
       0.1104412 -0.0928548 0.377973 -0.22407278
0002c0 61 ed 17 3f d1 0d ee be c0 a3 29 3c 1f 61 49 be
       0.59346586 -0.46494916 0.010353982 -0.19665955
0002d0 9d 59 0a 3f 50 f6 75 be 6e 1d aa be 06 6c c0 3e
       0.5404299 -0.24019742 -0.33225578 0.37582415
0002e0 6b 1f 10 be 78 a5 64 bf 36 c0 e3 bd 39 1a ea be
       -0.14074485 -0.89314985 -0.11120646 -0.4572313
0002f0 2d a7 b0 bc d9 ae 1c be 36 01 85 bf 92 94 50 be
       -0.02156409 -0.15301074 -1.0390995 -0.20369175
000300 37 dd 90 3f 5c e1 d8 3d 99 af ff be 64 d4 5b 3d
       1.131751 0.10589859 -0.49938658 0.05366935
000310 b7 ea 4f bf 4d 7c dc bd 1a c4 8c 3e 40 dd 1e bd
       -0.8121752 -0.10765896 0.27493364 -0.03878522
000320 8d de 8b 3d 88 1d db 3e f8 d5 c4 be 8d 77 8f 3e
       0.068295576 0.42795968 -0.38444495 0.28020898
000330 88 b2 a8 3d 85 c4 1f be f3 d6 b5 3f 1a 94 0f 3e
       0.08237177 -0.1560231 1.4206222 0.1402134
000340 06 84 87 bd df bd 3f 3f bc 2c 7d bc 57 69 ac be
       -0.06616978 0.74899095 -0.01545256 -0.33674118
000350 58 2d 09 3f 31 45 29 bf ff 62 24 3f d7 ef bc be
       0.53584814 -0.661212 0.64213556 -0.36901733
000360 28 c3 bc be a1 45 46 bf 2d 3b 81 be d5 f3 26 3f
       -0.36867642 -0.77449995 -0.2524046 0.6521581
000370 29 92 40 bd 56 55 78 3e 28 a5 04 bd e9 7c e1 3e
       -0.04701439 0.24251303 -0.032384068 0.4404061
000380 52 46 e0 bd 8d 31 3d be 05 f0 43 be a6 fa 15 bf
       -0.109509125 -0.18475933 -0.19134529 -0.58585584
000390 78 24 01 be 2c fa 8d 3c b4 1a d9 bc a0 f6 0a 3d
       -0.12611568 0.017331205 -0.02650199 0.033926606
0003a0 ad 90 73 3e a5 f0 2e 3d 65 03 40 3e 2c 2b e0 be
       0.23785658 0.042709965 0.18751295 -0.43782938
0003b0 f5 ab 50 bd 04 6f d6 3b 74 8e 94 be 43 7e 29 bf
       -0.05094524 0.006543996 -0.29014933 -0.66208285
0003c0 63 7e 07 3f f9 ed 64 3f ba 34 10 3d 16 74 0a bf
       0.52927226 0.8942562 0.035206534 -0.54083383
0003d0 9c e5 c8 3e f5 01 5c 3f d3 40 71 be 01 b9 b7 be
       0.39237678 0.85940486 -0.23559885 -0.35883334
0003e0 7c 3a 0c 3e 31 4a c8 bd d9 62 90 be 7b 21 f0 be
       0.13694185 -0.09779776 -0.28200415 -0.46900544
0003f0 7d 55 38 bf 98 13 6c 3f a6 fa 17 bd 9f df 83 be
       -0.72005445 0.922174 -0.03710427 -0.25756547

linear.bias f4 [17]
000000 fa af f2 bc d3 bd 6d be 16 5e b5 bd 87 51 8b bf
       -0.029624928 -0.23216943 -0.08855836 -1.0884255
000010 7e 5d 84 be 5e b4 38 3c 7a ec ac bf fc 91 4c bf
       -0.2585258 0.011273472 -1.3509667 -0.79910254
000020 dc a6 81 3e 74 b1 32 bf a8 44 25 bf 3e f3 7d bd
       0.25322616 -0.6980202 -0.64557886 -0.061999552
000030 f8 23 c6 be a5 59 09 3d 6a 6b 93 bf b5 4a ff be
       -0.38699317 0.033532757 -1.1517155 -0.49861684
000040 a9 87 5a bf
       -0.8536325
