Code/model_Valetudo.pt (torch, 89310 bytes, 10 tensors)

conv1.weight f4 [16, 3, 3, 3]
0.00977574 0.11609176 -0.14404729 0.027348809 -0.10794165 0.112721264 -0.20670228 0.21594742
-0.0042681657 -0.090444535 0.012261166 0.10080117 -0.04674214 0.22292183 -0.11228132 0.106687926
-0.0279144 -0.034688335 -0.20577906 0.25194454 0.022447592 0.10862553 0.39181766 -0.6712186
0.052324627 -0.13463889 0.15319638 -0.3972309 0.10319246 -0.06981658 -0.08924424 0.23867545
-0.3465525 0.22167349 -0.31322825 0.034542643 -0.07991951 0.12096454 0.07334103 0.15259136
0.28854096 -0.16534168 0.09722102 0.0027053384 -0.06966443 -0.07420159 0.28740385 0.04707928
-0.15540296 0.14712766 -0.22797899 -0.028445574 -0.13344978 0.12755077 0.03512845 0.0055184746
0.034614015 -0.08052892 -0.10347508 0.15467073 0.08299612 -0.18284175 0.08222877 -0.11457411
0.018755976 -0.10372903 -0.031397883 0.043187525 -0.010717963 0.017525472 0.14858398 0.04185137
0.004326517 0.06831593 -0.055393532 -0.6419031 -0.0064759445 -0.47839385 0.27610666 0.28022152
0.36477572 -0.12535845 -0.3757519 -0.48031542 0.37177372 0.51635665 -0.015118163 -0.054476008
0.019155886 0.08872838 -0.12673292 -0.222353 0.16558404 0.040105693 -0.040005952 -0.051575683
0.005372706 0.011117194 0.08152908 0.0020033526 -0.0021634763 0.0024991313 -0.0658403 0.11763759
0.038594026 -0.030807931 0.063636295 -0.0074767233 -0.13355967 0.1743569 -0.11789023 -0.033942107
-0.0027623593 0.20323256 0.086411096 -0.01606759 -0.033216737 0.0684194 -0.17514282 0.11629198
-0.0493551 0.044005413 0.029336603 -0.24614845 0.23682162 -0.49201858 0.39555204 -0.07964995
-0.2994548 0.046168204 -0.10771591 0.31289503 0.02804145 0.17022692 -0.18095076 0.050362617
0.039122276 -0.021889132 -0.0685216 0.027002685 0.14667316 0.06762954 -0.39840573 -0.4625878
0.018754184 -0.010510979 -0.18138814 -0.06596926 0.27209097 0.5378984 -0.06329422 -0.013163885
-0.018177073 -0.009203519 0.047093507 -0.13399997 0.006168462 0.00235648 0.067832574 0.22220719
-0.08820881 -0.043394364 0.09796267 0.03370638 -0.17446841 0.04901883 -0.1881522 -0.16011195
0.24045357 0.17036086 0.4993311 0.18820432 -0.14269732 -0.043056834 0.18713234 0.07997876
0.28137618 0.058750976 0.10839631 -0.122587204 -0.09894995 0.0046145343 -0.1857822 0.043150727
-0.30296913 -0.15826528 -0.33152437 -0.19253455 -0.052251454 -0.012627524 0.058834318 -0.025986362
-0.2898311 -0.2537826 0.5007168 0.1648882 -0.28692693 0.12810503 0.024500221 0.020887617
-0.01972446 0.29429865 -0.41410068 0.12348651 -0.05113141 0.049993813 0.007768892 -0.15791282
0.22735332 -0.07931188 0.0057099424 -0.0077669695 0.0045948075 -0.021718903 -0.082713865 0.09457038
-0.30373725 0.20043862 0.1232492 -0.008334062 -0.08326113 0.09881482 0.0561534 0.09769738
-0.19771983 0.066497184 -0.16178802 0.106928416 -0.038299307 0.33905137 -0.30570328 -0.29889235
0.22404453 0.07432024 -0.13855492 -0.21562953 0.316229 0.31241068 -0.22817229 -0.07632091
-0.12218759 0.2418585 -0.15459259 0.07639775 -0.18626939 0.17096989 -0.07250187 0.34262604
0.24476078 0.058486912 0.115817465 -0.17722523 0.21992673 -0.29541647 -0.32406977 -0.16713087
00000000: 6d2a 203c 84c1 ed3d 2281 13be 9c0a e03c
00000010: 8310 ddbd 68da e63d c3a9 53be 5221 5d3e
00000020: f8db 8bbb fc3a b9bd 0fe3 483c d870 ce3d
00000030: b074 3fbd 9f45 643e c0f3 e5bd 337f da3d
00000040: bdac e4bc 5b15 0ebd bfb7 52be e0fe 803e
00000050: 03e4 b73c 1077 de3d 539c c83e fbd4 2bbf
00000060: 5952 563d c7de 09be 83df 1c3e d961 cbbe
00000070: 9256 d33d fffb 8ebd afc5 b6bd 5667 743e
00000080: 546f b1be 60fe 623e 745f a0be 967c 0d3d
00000090: d7ac a3bd 42bc f73d d233 963d e940 1c3e
000000a0: a4bb 933e 544f 29be d01b c73d 0c4c 313b
000000b0: 3aac 8ebd 01f7 97bd 9926 933e 34d6 403d
000000c0: f421 1fbe a2a8 163e 5373 69be b106 e9bc
000000d0: 0fa7 08be ab9c 023e d9e2 0f3d 52d4 b43b
000000e0: 6dc7 0d3d 59ec a4bd beea d3bd 0162 1e3e
000000f0: dff9 a93d de3a 3bbe 8f67 a83d d5a5 eabd
00000100: 22a6 993c e36f d4bd 119b 00bd 67e5 303d
00000110: 659a 2fbc 9491 8f3c 6626 183e 586c 2b3d
00000120: 75c5 8d3b 39e9 8b3d 54e4 62bd c353 24bf
00000130: 2934 d4bb 0af0 f4be da5d 8d3e 3279 8f3e
00000140: e2c3 ba3e f75d 00be 8e62 c0be e7eb f5be
00000150: 2059 be3e f32f 043f 2cb2 77bc 3c22 5fbd
00000160: ceec 9c3c 3ab7 b53d 46c6 01be 81b0 63be
00000170: dd8e 293e de45 243d 48dd 23bd 0641 53bd
00000180: 860d b03b e424 363c b8f8 a63d ae4a 033b
00000190: 1cc9 0dbb 77c8 233b 47d7 86bd faeb f03d
000001a0: c514 1e3d ea60 fcbc bf53 823d 4dff f4bb
000001b0: dec3 08be 9d8a 323e 6f70 f1bd e106 0bbd
000001c0: b308 35bb 321c 503e 4df8 b03d 2ea0 83bc
000001d0: 460e 08bd 781f 8c3d a458 33be 7d2a ee3d
000001e0: 9328 4abd 053f 343d 5153 f03c 570e 7cbe
000001f0: 5e81 723e dce9 fbbe cc85 ca3e 831f a3bd
00000200: 2452 99be df1a 3d3d 299a dcbd c733 a03e
00000210: 2fb7 e53c f74f 2e3e 284b 39be 0849 4e3d
00000220: ae3e 203d d650 b3bc 0d55 8cbd bc34 dd3c
00000230: 7d31 163e 5b81 8a3d d6fb cbbe 4fd8 ecbe
00000240: 60a2 993c 3e36 2cbc d0bd 39be e41a 87bd
00000250: 824f 8b3e b6b3 093f 66a0 81bd 56ad 57bc
00000260: 16e8 94bc 5bca 16bc 1fe5 403d 4a37 09be
00000270: cf20 ca3b 2d6f 1a3b ceeb 8a3d 488a 633e
00000280: d2a6 b4bd 4abe 31bd a7a0 c83d b30f 0a3d
00000290: d9a7 32be f8c7 483d f8aa 40be 63f4 23be
000002a0: 7639 763e 1473 2e3e 53a8 ff3e a2b8 403e
000002b0: 3f1f 12be 5d5c 30bd 9f9f 3f3e e7cb a33d
000002c0: 8a10 903e dda4 703d e2fe dd3d 000f fbbd
000002d0: 45a6 cabd 8535 973b b03d 3ebe d1be 303d
000002e0: c51e 9bbe 4b10 22be 90bd a9be c727 45be
000002f0: 9f05 56bd ade3 4ebc 41fc 703d 5ae1 d4bc
00000300: be64 94be cbef 81be fa2e 003f 74d8 283e
00000310: 16e8 92be f72d 033e b0b4 c83c 821c ab3c
00000320: 3195 a1bc 50ae 963e 0105 d4be 7fe6 fc3d
00000330: 2b6f 51bd 50c6 4c3d 3192 fe3b e6b3 21be
00000340: 4fcf 683e 446e a2bd 781a bb3b 1082 febb
00000350: 0a90 963b d7eb b1bc e365 a9bd 1eae c13d
00000360: 7383 9bbe c83f 4d3e 146a fc3d 978b 08bc
00000370: d084 aabd 6d5f ca3d 1c01 663d 9015 c83d
00000380: 1177 4abe ad2f 883d c2ab 25be 49fd da3d
00000390: bcdf 1cbd 2498 ad3e 2485 9cbe 6b08 99be
000003a0: ee6b 653e 3635 983d 57e1 0dbe fdcd 5cbe
000003b0: c4e8 a13e 4bf4 9f3e ffa5 69be 234e 9cbd
000003c0: 7d3d fabd c1a9 773e 854d 1ebe 6c76 9c3d
000003d0: 67bd 3ebe bb12 2f3e dc7b 94bd ae6c af3e
000003e0: 92a2 7a3e f98f 6f3d b531 ed3d 887a 35be
000003f0: 7934 613e d440 97be 79ec a5be 5b24 2bbe

conv1.bias f4 [16]
2.216331 1.70127 0.59643734 0.88759655 1.1943517 -0.07106426 0.0059269364 0.16253462
0.9893564 0.53347373 2.0011532 0.47885394 -0.009225548 0.8167777 -0.827544 1.1111221
00000000: 5ed8 0d40 37c3 d93f 1eb0 183f 8739 633f
00000010: 84e0 983f 248a 91bd bf36 c23b 7a6f 263e
00000020: 7646 7d3f bc91 083f e512 0040 582c f53e
00000030: c126 17bc 5818 513f ecd9 53bf 4039 8e3f

convnorm1.weight f4 [16]
1.1521963 0.9796057 1.0715024 1.1163799 1.21341 1.2248993 0.92783475 2.0595798
1.7825803 1.0680532 1.1124107 1.4371059 2.1197836 1.2702836 1.2255932 0.93986744
00000000: 2b7b 933f 70c7 7a3f fe26 893f 89e5 8e3f
00000010: 0551 9b3f 80c9 9c3f 9486 6d3f 28d0 0340
00000020: 972b e43f f8b5 883f 7963 8e3f 16f3 b73f
00000030: 89aa 0740 a798 a23f 3de0 9c3f 279b 703f

convnorm1.bias f4 [16]
0.7858519 0.32773674 0.16227308 0.25060746 0.14535624 -0.048437357 0.25810325 0.12545997
0.43153483 0.3936577 0.6198646 0.2801484 -0.057478547 0.22214393 -0.46408263 0.49128038
00000000: 972d 493f 1ccd a73e ea2a 263e 9f4f 803e
00000010: 44d8 143e 4066 46bd 1c26 843e 9478 003e
00000020: 22f2 dc3e 818d c93e 72af 1e3f 9c6f 8f3e
00000030: a06e 6bbd b379 633e 3d9c edbe 1a89 fb3e

convnorm1.running_mean f4 [16]
30.79246 7.6634026 17.904846 19.592106 11.085275 15.3039665 34.29763 9.937227
5.3685036 34.968235 26.19892 5.664598 8.553776 16.716505 150.834 48.15451
00000000: f556 f641 983a f540 203d 8f41 a2bc 9c41
00000010: 495d 3141 0cdd 7441 c630 0942 e2fe 1e41
00000020: c8ca ab40 79df 0b42 6397 d141 6344 b540
00000030: 44dc 0841 67bb 8541 81d5 1643 389e 4042

convnorm1.running_var f4 [16]
1193.2158 314.63174 1188.3087 1284.8247 380.49683 850.61755 2535.4397 216.6937
139.54662 1284.0752 1675.7771 248.15009 285.23822 536.3489 5853.744 3036.7124
00000000: e826 9544 dd50 9d43 e189 9444 649a a044
00000010: 983f be43 86a7 5444 0977 1e45 96b1 5843
00000020: ef8b 0b43 6882 a044 de78 d144 6c26 7843
00000030: 7e9e 8e43 5416 0644 f4ed b645 66cb 3d45

conv2.weight f4 [128, 16, 3, 3]
-0.026655566 0.01640344 0.008046757 0.046213415 0.1931125 0.16559064 -0.08407452 0.10028489
0.060277767 -0.61620563 -0.57760483 -0.36066657 -0.3238726 -0.30733767 -0.104457065 0.19056766
0.29519126 0.22885722 -0.8106258 -0.76960546 -0.78199536 -0.08449098 -0.06685581 0.0654228
0.082578346 0.18763672 0.12163599 -0.005765742 0.083307065 0.22656034 -0.10924244 -0.118330754
-0.103779234 -0.26902458 -0.3857481 -0.48773023 -0.8192775 -0.75225973 -0.59922945 0.08184227
0.055612303 0.050646976 -0.10969618 0.00016472404 0.060667478 -0.5725789 -0.6757304 -0.63701314
-0.746977 -0.6814048 -0.56666595 0.35887042 0.23578764 0.25156245 -0.27899158 -0.30141494
-0.13428123 0.05606132 -0.10491878 -0.14076343 -0.66888124 -0.65841347 -0.6631213 0.26693502
0.11815347 -0.06404535 -0.32994482 -0.5608798 -0.9177008 0.072762474 0.15991056 0.017294623
0.021450637 0.0950126 -0.017451271 -0.21294649 -0.13727286 -0.39598414 -0.31972528 -0.104828805
-0.19215432 0.15891367 0.119069986 -0.019303214 -0.029112525 0.10484147 0.11004464 -0.32426885
-0.3506283 -0.42469126 -0.10486978 -0.0884011 0.011048134 0.0616211 0.12283965 0.0634667
0.11199524 0.003086455 -0.02818385 -0.0347945 -0.035798103 -0.031213108 -0.35668197 -0.2707474
-0.3295345 0.07445105 0.07160504 0.11394289 0.1481545 0.24536678 0.2314779 0.19233756
0.18479404 0.24463767 -0.26808023 0.023182841 -0.07306813 -0.13106054 -0.048704226 -0.1073111
-0.029810825 -0.099191785 -0.29984736 0.13014261 0.10569779 0.048099242 -0.121001825 -0.19752745
-0.10202158 0.11416781 0.10661197 -0.04648223 -0.30407682 -0.37056518 -0.31732497 -0.6666575
-0.60503983 -0.4775834 -0.22608218 -0.21620056 -0.26593575 0.24222453 0.27018312 0.18544199
0.34824514 -0.42578268 -0.16340095 -0.5283466 -0.23236479 0.24593298 -0.20121504 0.3386062
-0.5443661 -0.16043322 0.026354488 0.19610617 0.019632729 0.21448673 -0.27669424 0.18396719
-0.19997083 0.009965844 -0.24342106 -0.01898904 0.10465075 -0.009045184 0.043654956 -0.24269529
0.07780071 -0.19713013 -0.0012843678 -0.03662876 0.012971422 -0.06368789 -0.0067816284 -0.05308223
0.0045878626 -0.06564613 0.05909975 0.016213667 -0.2732458 0.019895742 0.06659284 0.070057556
0.09057984 -0.32274354 -0.12060288 -0.27580562 0.08364254 0.17632958 -0.25776726 0.019416098
-0.18943885 -0.01244458 0.13861196 0.0041416027 0.1423501 -0.24138069 0.045570627 -0.17985608
0.09134158 -0.16106027 0.11365123 0.008379721 0.06806823 -0.056664146 -0.08394795 0.04517191
-0.10597779 0.11676195 -0.23252413 0.12375815 -0.060641337 0.15892811 0.037947077 -0.11474945
-0.018745957 0.12131057 0.013443165 0.062253244 -0.08481588 -0.014489742 0.028665284 0.010968796
0.057979085 -0.21038848 0.22833335 -0.059634954 0.29538453 -0.07598254 -0.22504446 -0.17981002
-0.19007546 0.25168836 0.11502025 0.16562685 -0.45495218 0.094575495 -1.0901805 0.15481383
-1.117108 0.17135435 0.16893794 0.15023477 -0.2599749 0.106114194 -0.2656402 0.03442867
0.1423786 -0.0023315155 0.130358 -0.12461161 0.4245538 -0.34113163 0.17723987 -0.28512833
00000000: c65c dabc 8260 863c 8cd6 033c 474a 3d3d
00000010: 48bf 453e 9890 293e 432f acbd 2a62 cd3d
00000020: d2e5 763d a7bf 1dbf e9dd 13bf 4aa9 b8be
00000030: a1d2 a5be 5d5b 9dbe 96ed d5bd 2b24 433e
00000040: 4f23 973e 8c59 6a3e 2c85 4fbf dd04 45bf
00000050: d930 48bf 9b09 adbd b3eb 88bd 64fc 853d
00000060: d61e a93d d723 403e 4a1c f93d 8dee bcbb
00000070: e59c aa3d 6fff 673e 80ba dfbd 6557 f2bd
00000080: 358a d4bd 97bd 89be c680 c5be c7b7 f9be
00000090: 2cbc 51bf 1894 40bf 1a67 19bf ec9c a73d
000000a0: bac9 633d 3473 4f3d 64a8 e0bd c6b9 2c39
000000b0: 767e 783d 8894 12bf abfc 2cbf 4b13 23bf
000000c0: e239 3fbf 8c70 2ebf 0511 11bf ddbd b73e
000000d0: 5172 713e cbcc 803e fcd7 8ebe 0f53 9abe
000000e0: 0581 09be 8ea0 653d a8df d6bd 4a24 10be
000000f0: cd3b 2bbf c98d 28bf 51c2 29bf b5ab 883e
00000100: 72fa f13d 352a 83bd 87ee a8be d295 0fbf
00000110: 71ee 6abf 7e04 953d 98bf 233e 74ad 8d3c
00000120: 3fb9 af3c f795 c23d f8f5 8ebc a50e 5abe
00000130: 4291 0cbe 6fbe cabe 08b3 a3be 7cb0 d6bd
00000140: 1ac4 44be 44ba 223e f7da f33d c621 9ebc
00000150: 647d eebc 20b7 d63d 165f e13d 9106 a6be
00000160: 8d85 b3be 2271 d9be f8c5 d6bd a30b b5bd
00000170: 3c03 353c 6866 7c3d 5b93 fb3d d4fa 813d
00000180: c35d e53d 1f46 4a3b d1e1 e6bc ad84 0ebd
00000190: 08a1 12bd a2b2 ffbc 059f b6be 679f 8abe
000001a0: bfb8 a8be cb79 983d aaa5 923d e45a e93d
000001b0: d0b5 173e 6e41 7b3e 8b08 6d3e 23f4 443e
000001c0: a63a 3d3e 4c82 7a3e d041 89be f1e9 bd3c
000001d0: bea4 95bd bc34 06be 157e 47bd ecc5 dbbd
000001e0: d535 f4bc 1025 cbbd 9885 99be 1b44 053e
000001f0: 1578 d83d b603 453d cecf f7bd a344 4abe
00000200: b1f0 d0bd d0d0 e93d 6057 da3d 2764 3ebd
00000210: f5af 9bbe b8ba bdbe 6b78 a2be 11aa 2abf
00000220: e4e3 1abf d085 f4be 1682 67be ae63 5dbe
00000230: bb28 88be b509 783e 7155 8a3e 81e4 3d3e
00000240: 304d b23e 3000 dabe 9452 27be b941 07bf
00000250: 09f1 6dbe dbd5 7b3e 510b 4ebe cb5d ad3e
00000260: 945b 0bbf 9b48 24be 5ee5 d73c 0ed0 483e
00000270: d1d4 a03c 69a2 5b3e deaa 8dbe e561 3c3e
00000280: 27c5 4cbe c847 233c 5f43 79be e78e 9bbc
00000290: 2253 d63d 4032 14bc 8acf 323d 1d85 78be
000002a0: fb55 9f3d 7bdc 49be 3b58 a8ba 0a08 16bd
000002b0: 1686 543c cc6e 82bd 6c38 debb c16c 59bd
000002c0: c855 963b 7a71 86bd 9412 723d 86d2 843c
000002d0: e0e6 8bbe 65fc a23c d461 883d 567a 8f3d
000002e0: ec81 b93d a43e a5be a5fe f6bd 6536 8dbe
000002f0: c84c ab3d be8f 343e 12fa 83be 820e 9f3c
00000300: 42fc 41be 5ae4 4bbc 4bf0 0d3e 48b6 873b
00000310: 3ac4 113e 802c 77be 44a8 3a3d 312c 38be
00000320: 4b11 bb3d fcec 24be fac1 e83d 194b 093c
00000330: 5b67 8b3d aa18 68bd e7ec abbd 2e06 393d
00000340: e20a d9bd e420 ef3d ce1a 6ebe ea74 fd3d
00000350: 0d63 78bd 0dbe 223e 656e 1b3d c201 ebbd
00000360: 1f91 99bc ad71 f83d b940 5c3c 42fd 7e3d
00000370: f3b3 adbd 6266 6dbc 75d3 ea3c 77b6 333c
00000380: 7a7b 6d3d 1470 57be 38d0 693e c843 74bd
00000390: a43c 973e bc9c 9bbd 0e72 66be 1e20 38be
000003a0: 24a3 42be 4cdd 803e bd8f eb3d 169a 293e
000003b0: 7eef e8be ccb0 c13d 098b 8bbf 8487 1e3e
000003c0: 65fd 8ebf 8477 2f3e 11fe 2c3e 25d7 193e
000003d0: 6e1b 85be 6652 d93d fe01 88be 1405 0d3d
000003e0: b2cb 113e 57cc 18bb 917c 053e 5f34 ffbd
000003f0: 1e5f d93e cea8 aebe 5e7e 353e 57fc 91be

conv2.bias f4 [128]
0.5401857 0.1457609 0.15165026 -0.12260488 0.7823149 0.69278795 0.47313258 0.7321318
0.3365832 0.24274148 -0.33498383 0.19682969 1.013916 0.16834459 0.6577939 1.1051742
1.0949551 -0.083035365 0.24011885 0.0787023 0.27189296 0.3177952 0.3961226 0.059813302
0.394649 0.08756713 0.08672975 -0.023033312 0.3592588 0.5571165 0.32208142 0.3164674
0.45256665 0.83929425 0.52217984 0.50270736 0.36812237 0.018602362 0.8448989 0.26406553
0.08365074 0.15739657 -0.08710309 0.052034788 -0.14394541 0.49611637 0.13276842 0.042263575
0.59665126 0.9179955 0.002157457 0.22072907 0.16002442 0.4713226 -0.013100537 1.1379753
0.09862442 0.036292296 -0.41195413 0.7872869 0.29886878 0.05400674 0.32910314 0.31567878
0.24921262 0.43623614 0.19719566 0.33392516 0.70851344 0.9305392 0.389641 0.44890693
-0.030892419 0.33472574 0.9112488 0.0484976 -0.046560638 0.55888736 0.012307778 0.27038231
0.34175074 -0.011521713 0.21092275 0.4346201 -0.048666187 0.55538017 0.68877506 0.3516993
-0.61483836 0.17300533 -0.6352239 0.6936299 0.0627077 0.38440138 -0.010318576 0.68804866
0.049865212 0.3679379 0.271111 0.655159 1.3081644 -0.77723056 -0.5647917 0.5404297
0.19497262 0.9935509 0.106046945 0.2928942 0.73712873 0.5265626 0.11417146 -0.6354895
0.20329301 0.40532824 0.6979203 -0.0044927136 0.32454926 0.30790463 -0.3328107 0.06828254
0.9265351 -0.057073284 -0.15995044 0.12237125 0.21860702 0.33030102 0.65138966 0.11015531
00000000: 9c49 0a3f 5842 153e 354a 1b3e 4418 fbbd
00000010: ca45 483f 8d5a 313f 6f3e f23e fd6c 3b3f
00000020: a254 ac3e 3991 783e 0083 abbe b98d 493e
00000030: 00c8 813f 8662 2c3e 2e65 283f 5976 8d3f
00000040: 7d27 8c3f 720e aabd b7e1 753e ac2e a13d
00000050: 8e35 8b3e 0db6 a23e 95d0 ca3e cbfe 743d
00000060: 6f0f ca3e 6556 b33d 5e9f b13d 5bb0 bcbc
00000070: c5f0 b73e 309f 0e3f dbe7 a43e 0408 a23e
00000080: d1b6 e73e fddb 563f 94ad 053f 6eb1 003f
00000090: 897a bc3e fb63 983c 4b4b 583f 9933 873e
000000a0: 1451 ab3d 912c 213e 1b63 b2bd 6e22 553d
000000b0: 6d66 13be f702 fe3e 72f4 073e 921c 2d3d
000000c0: 23be 183f c101 6b3f 1f64 0d3b cd06 623e
000000d0: 71dd 233e 3251 f13e a2a3 56bc 2da9 913f
000000e0: 9afb c93d 3ba7 143d a7eb d2be a28b 493f
000000f0: 5405 993e 2c36 5d3d 3580 a83e a6a0 a13e
00000100: 9831 7f3e 585a df3e a9ed 493e 3df8 aa3e
00000110: 2361 353f d137 6e3f 067f c73e 21d7 e53e
00000120: 1912 fdbc 2c61 ab3e 9a47 693f 6ba5 463d
00000130: 5eb6 3ebd 3e13 0f3f 90a6 493c 8d6f 8a3e
00000140: f4f9 ae3e 91c5 3cbc 22fc 573e 8786 de3e
00000150: 3256 47bd 652d 0e3f 9053 303f ee11 b43e
00000160: 0c66 1dbf 4f28 313e 099e 22bf bb91 313f
00000170: e56c 803d 42d0 c43e 3f0f 29bc f523 303f
00000180: 773f 4c3d 5b62 bc3e 10cf 8a3e 80b8 273f
00000190: ee71 a73f 95f8 46bf 3096 10bf 9a59 0a3f
000001a0: e7a6 473e 5a59 7e3f 242f d93d 3bf6 953e
000001b0: 78b4 3c3f cecc 063f bad2 e93d 71af 22bf
000001c0: 0b2c 503e 2f87 cf3e e8aa 323f 9d37 93bb
000001d0: 522b a63e ada5 9d3e 2a66 aabe b7d7 8b3d
000001e0: 6831 6d3f adc5 69bd 0cca 23be c79d fa3d
000001f0: 85da 5f3e 371d a93e 79c1 263f 1b99 e13d

linear.weight f4 [17, 128]
-0.26837283 0.04390343 -0.08777474 -0.17607325 -0.42067215 -0.103926346 0.28227645 0.2588016
0.42820203 -0.35225636 0.21401514 -0.21594821 -0.11065328 0.031026386 -0.14048553 -0.57330126
-0.056701586 -0.13519655 0.001009714 -0.298399 0.61238766 -0.10054993 -0.09991705 0.11367156
0.18375178 -0.2376269 -0.36518747 0.05441281 0.35835505 0.040631756 0.14188474 -0.3296526
0.06584535 -0.08951114 -0.049626913 -0.105813354 0.17618482 0.10590046 -0.22310725 -0.50782806
-0.12522009 0.095971815 -0.11401458 0.05560527 -0.65039915 -0.4550051 -0.2084981 -0.12355541
-0.27019295 -0.4296419 -0.04987599 -0.45487034 -0.5511126 -0.26677442 0.02755249 0.031340774
0.23307274 -0.27006328 0.30766916 -0.56983334 -0.14174443 -0.2864472 -0.0554485 -0.34374326
0.71049994 0.27306664 0.251966 -0.14781937 -0.28250858 0.10306443 -0.12299645 0.101501875
0.13456778 0.018823845 0.0561449 0.043431133 0.03607052 -0.30967507 -0.34344515 0.14497533
-0.4750915 0.11734384 -0.27618927 -0.6670327 -0.29732054 -0.6390485 0.29499352 0.051412337
0.0819378 -0.29327974 -0.23765835 -0.30523378 0.21284123 0.13093325 0.16763444 0.1880012
0.3173444 0.14918205 0.003774029 0.015173042 0.1472128 -0.03858959 0.22439477 0.28359675
-0.741278 -0.07562288 0.23456544 -0.11951681 0.2804746 -0.047750443 -0.32285255 0.15513444
-0.24007227 -0.15576908 -0.25635856 0.072601885 0.21624061 -0.31792155 -0.09277516 -0.15809228
0.45702878 -0.083417244 -0.14217883 0.15602504 -0.6200171 0.10348391 -0.106236205 -0.23080215
-0.32240266 0.093517914 -0.036693405 0.06142632 -0.1205197 0.16639209 -0.04364147 -0.29344797
-0.005188739 -0.4324082 -0.107970975 -0.214344 0.33804086 -0.65068185 -0.5313873 -0.06755516
0.1986081 -0.0901762 -0.14842026 0.2368578 -0.42215145 -0.07213565 -0.029205155 0.62038213
-0.19822581 -0.06289933 -0.03660142 -0.16892724 -0.13540688 -0.062090535 -0.24964868 -0.30807814
0.036422253 0.21105108 0.24366279 0.24011876 -0.1323883 -0.24886887 0.32051888 0.048722357
0.003883769 -0.2033972 0.088234976 -0.053684648 -0.499453 -0.005155688 0.1524752 0.048208993
-0.4680264 0.106547326 0.093208484 0.0121622905 0.19378063 -0.029960383 0.36799598 -0.030789105
0.07593845 0.20436844 0.21433051 0.11286181 -0.18461983 0.13328882 -0.08989617 -0.23561043
-0.25751784 -0.6045082 -0.08289725 -0.32465613 0.15443903 0.021353843 -0.1142203 -0.06585716
-0.6173918 0.006428784 0.44051498 0.0709203 -0.15686674 -0.59935206 -0.099968635 -0.5798611
0.13483697 -0.5068708 0.16997701 -0.13999656 0.2546403 -0.124650225 0.13349827 0.5262544
-0.40101114 -0.033059727 0.13651443 0.11527997 0.20414318 0.18989842 0.09036165 -0.26242125
0.10428628 -0.21426977 0.10780009 -0.022794355 -0.13248102 0.1547273 -0.22488783 -0.300042
-0.4724367 -0.05637531 -0.14717826 0.21429977 0.010348908 -0.06319329 -0.09745688 -0.008739386
-0.081773154 0.014806844 0.03570822 0.075755134 0.17523377 0.03362189 0.0038355961 -0.11459787
-0.24867357 -0.13118666 0.059862845 -0.28815636 -0.18950368 0.17185532 -0.07731052 -0.14302765
00000000: 2a68 89be 15d4 333d 3ec3 b3bd 8c4c 34be
00000010: 5762 d7be 56d7 d4bd 8a86 903e a581 843e
00000020: 4c3d db3e f25a b4be c926 5b3e 8721 5dbe
00000030: 309e e2bd 0c2b fe3c 70db 0fbe dfc3 12bf
00000040: ec3f 68bd f770 0abe 6158 843a c1c7 98be
00000050: 70c5 1c3f 1fed cdbd 4fa1 ccbd a3cc e83d
00000060: 6d29 3c3e 7754 73be daf9 babe f7df 5e3d
00000070: 507a b73e 7c6d 263d 3c4a 113e 3ac8 a8be
00000080: edd9 863d 9e51 b7bd 9745 4bbd acb4 d8bd
00000090: cb69 343e 57e2 d83d 3a76 64be 0501 02bf
000000a0: b239 00be df8c c43d 7a80 e9bd 5ac2 633d
000000b0: 8f80 26bf 6ef6 e8be 8780 55be 9e0a fdbd
000000c0: bb56 8abe 06fa dbbe c44a 4cbd c4e4 e8be
000000d0: b715 0dbf a896 88be c2b5 e13c 2f5f 003d
000000e0: 9faa 6e3e bc45 8abe d086 9d3e 99e0 11bf
000000f0: 7425 11be 35a9 92be f71d 63bd 1eff afbe
00000100: 53e3 353f 64cf 8b3e b001 813e f65d 17be
00000110: f7a4 90be 7213 d33d 90e5 fbbd 37e0 cf3d
00000120: 23cc 093e 7734 9a3c 32f8 653d d8e4 313d
00000130: aebe 133d bb8d 9ebe 0bd8 afbe 6a74 143e
00000140: 313f f3be f851 f03d ae68 8dbe a8c2 2abf
00000150: 663a 98be af98 23bf 6409 973e be95 523d
00000160: 01cf a73d c328 96be b65c 73be 9a47 9cbe
00000170: 0df3 593e 5e13 063e 5da8 2b3e 6383 403e
00000180: f77a a23e 2ec3 183e b355 773b 5a98 783c
00000190: f4be 163e 1e10 1ebd bec7 653e 9833 913e
000001a0: 65c4 3dbf 2be0 9abd ec31 703e 3bc5 f4bd
000001b0: 5e9a 8f3e f895 43bd ee4c a5be 90db 1e3e
000001c0: 81d5 75be ee81 1fbe 6e41 83be 4cb0 943d
000001d0: 2e6e 5d3e 9dc6 a2be e700 bebd f1e2 21be
000001e0: adff e93e a9d6 aabd 5497 11be 07c5 1f3e
000001f0: 71b9 1ebf 5fef d33d 5e92 d9bd 6657 6cbe
00000200: f611 a5be 5286 bf3d d34b 16bd 2a9a 7b3d
00000210: 08d3 f6bd b062 2a3e 66c1 32bd d03e 96be
00000220: 4c06 aabb 9c64 ddbe e31f ddbd fe7c 5bbe
00000230: b113 ad3e 1693 26bf 0009 08bf 5c5a 8abd
00000240: ec5f 4b3e 4dae b8bd 7bfb 17be da8a 723e
00000250: 3c24 d8be dbbb 93bd a63f efbc 5dd1 1e3f
00000260: b5fb 4abe 5dd1 80bd 5feb 15bd 43fb 2cbe
00000270: 1aa8 0abe a552 7ebd e7a3 7fbe 6bbc 9dbe
00000280: 802f 153d c61d 583e bd82 793e b1e1 753e
00000290: cc90 07be 7bd7 7ebe 0d1b a43e 1891 473d
000002a0: d586 7e3b 5b47 50be 8ab4 b43d 6fe4 5bbd
000002b0: 4eb8 ffbe 0cf1 a8bb 7522 1c3e cb76 453d
000002c0: 28a1 efbe 7c35 da3d 17e4 be3d 5844 473c
000002d0: 6e6e 463e 7a6f f5bc f869 bc3e 6f39 fcbc
000002e0: 9e85 9b3d f645 513e 7579 5b3e 1824 e73d
000002f0: fb0c 3dbe dd7c 083e 7c1b b8bd dc43 71be
00000300: 61d9 83be 0dc1 1abf 09c6 a9bd 5439 a6be
00000310: 4425 1e3e 41ee ae3c 55ec e9bd 1ee0 86bd
00000320: 640d 1ebf 8da8 d23b 2e8b e13e aa3e 913d
00000330: ada1 20be 236f 19bf 5bbc ccbd c771 14bf
00000340: b412 0a3e 49c2 01bf 740e 2e3e 425b 0fbe
00000350: 3760 823e 9e48 ffbd c5b3 083e 9cb8 063f
00000360: 5551 cdbe a369 07bd 70ca 0b3e e817 ec3d
00000370: e90a 513e bb74 423e 870f b93d 145c 86be
00000380: 0c94 d53d 8969 5bbe 4bc6 dc3d 3abb babc
00000390: 1ba9 07be d570 1e3e ff48 66be 1b9f 99be
000003a0: 39e3 f1be cce9 66bd e6b5 16be 6671 5b3e
000003b0: 778e 293c 7c6b 81bd 7997 c7bd a42f 0fbc
000003c0: af78 a7bd 6898 723c c842 123d 8225 9b3d
000003d0: 7b70 333e 1bb7 093d a05e 7b3b 4ab2 eabd
000003e0: 49a4 7ebe cc55 06be be32 753d 3b89 93be
000003f0: 410d 42be d7fa 2f3e fa54 9ebd d775 12be

linear.bias f4 [17]
-0.0493733 -0.22622432 -0.05294048 -0.57805127 -0.17914787 -0.16830494 -0.64261436 -0.39012805
0.23543483 -0.61745167 -0.5143838 -0.12316469 -0.42025566 -0.23329832 -0.62694186 -0.22876179
-0.5470362
00000000: a83b 4abd 59a7 67be 1ed8 58bd 2bfb 13bf
00000010: 8a72 37be 2158 2cbe 6082 24bf ddbe c7be
00000020: d415 713e 5011 1ebf a8ae 03bf c53d fcbd
00000030: c02b d7be c1e5 6ebe 437f 20bf 8840 6abe
00000040: 900a 0cbf
