Code/model_Valetudo.pt (torch, 89310 bytes, 10 tensors)

conv1.weight f4 [16, 3, 3, 3]
000000 27 f7 28 3d b2 32 99 3d 90 43 4c bd 36 af e3 3d
       0.041251328 0.074803725 -0.04986912 0.11117403
000010 d3 09 30 bc 09 f6 9e 3e 64 fa 06 3e fb 44 17 be
       -0.01074453 0.31047085 0.13181454 -0.14772408
000020 1f d8 38 3d 8a ba 63 3e ad 2e 89 3c ed 52 de be
       0.045127984 0.22239128 0.01674589 -0.43422642
000030 cd c7 9d bb 8c 49 fa be 11 05 6e 3e 82 66 a5 be
       -0.004815078 -0.48884237 0.2324412 -0.3230477
000040 fa 71 35 3e cd 0f 34 3d 26 2f 0d be 12 83 1a 3e
       0.1771926 0.04396038 -0.13787517 0.15089062
000050 3a 98 c9 3d c2 85 36 3e 3b be 53 bd 3a 34 1f bd
       0.09843488 0.17824462 -0.05169509 -0.038868167
000060 63 e9 f8 bc 86 9d ae bb 81 e3 1b 3d c6 bd b3 3e
       -0.030384725 -0.005328837 0.03805876 0.35105723
000070 46 cc 86 3c 46 90 dc be f8 19 d1 bd 6a a7 c0 bd
       0.016454827 -0.43078822 -0.10210031 -0.09406932
000080 45 ce 80 3e 0f fd f0 bc b0 07 0d 3e a0 8d 71 bd
       0.2515737 -0.029417543 0.13772464 -0.058972955
000090 1e 70 dd 3d 51 55 53 bd e5 51 b5 bc ee 55 21 be
       0.108124 -0.051595036 -0.022133777 -0.15755436
0000a0 18 9b ad 3d 2a 82 3b 3d 17 06 61 3d 98 41 20 3d
       0.084768474 0.04577843 0.05493745 0.039125055
0000b0 23 a1 08 be a2 39 eb bd 5f 8e 3b 3e 9b 1e a4 3c
       -0.13342719 -0.11485602 0.18316029 0.020034125
0000c0 37 b9 73 3e 51 ad a2 3d 02 ae ce be b8 5c 36 bd
       0.23801123 0.07943214 -0.40367132 -0.044522017
0000d0 f7 37 ea bd 91 c6 72 3e 17 54 f0 3d be 05 14 3e
       -0.11436456 0.2370856 0.11734789 0.14455315
0000e0 7a 85 82 be db f3 66 be db eb aa 3e 66 5b 02 be
       -0.2549246 -0.22553961 0.33383068 -0.12730178
0000f0 06 ba 0a be d5 2f fa 3d 57 3b fa 3b 85 44 66 3e
       -0.13547525 0.122161545 0.0076364684 0.22487076
000100 6b 84 b4 be 09 45 13 3e 2d b8 95 3e 54 be 5b be
       -0.35257277 0.14381804 0.29242077 -0.21459323
000110 a7 76 b0 bd 7c 9b d0 3d 66 e1 48 3e c2 a6 91 be
       -0.08616381 0.10185906 0.19617233 -0.2844754
000120 9b ca 9f bd a4 89 5e 3d c4 38 fb 3c cf 5d 87 bd
       -0.07802316 0.054330483 0.030666716 -0.066096894
000130 6a 01 6c be 65 70 8e 3e 00 b6 9e bd 0b 56 f5 3d
       -0.23047414 0.27820125 -0.077495575 0.11979302
000140 4a 49 2f bd 8c da 8e bd 19 90 19 3c 8a 30 05 bd
       -0.042794503 -0.06975278 0.009372734 -0.032516994
000150 49 e6 21 be f9 98 ed bc f9 b9 87 bd 0d 78 16 3b
       -0.15810503 -0.029003607 -0.06627268 0.002295974
000160 fe 5e 0f 3e 10 49 31 3e 5e 84 3d 3e 23 ad ce 3b
       0.1400108 0.17313027 0.18507525 0.0063072606
000170 d9 2a ac 3e 34 2e f9 3d 29 bc 2f bf e4 ba 90 be
       0.3362644 0.12167016 -0.68646485 -0.28267586
000180 76 2a f0 ba d7 e3 00 3e 1e 0d cc bc c2 86 85 bd
       -0.0018323201 0.12586914 -0.024908599 -0.06519844
000190 26 e1 9f 3e 90 25 65 3e 8c 39 bd 3c bf 37 55 bd
       0.31226462 0.2237761 0.02309873 -0.052055117
0001a0 0d 89 51 3c 4a 37 43 bc e2 0c e7 3b a5 c6 94 be
       0.012789023 -0.011915037 0.0070510963 -0.29057804
0001b0 14 8c 09 be 8c f5 ba be fd dc 09 bf f2 cd b3 3e
       -0.13432342 -0.36515462 -0.53852826 0.3511806
0001c0 85 b0 96 3e 4c 52 8e 3e 2e 4d 21 3e 8a 2b 11 3d
       0.2943155 0.27797163 0.15752098 0.035441913
0001d0 ca 41 27 bc 1b 65 2a be d1 35 3b bd 45 d1 85 3d
       -0.010208556 -0.16640131 -0.04570562 0.065340556
0001e0 6d d8 ec bc e4 9c 21 be a8 22 ad 3d 9e 12 16 bc
       -0.028911794 -0.15782505 0.08453876 -0.009159712
0001f0 ce bc 27 3e a4 95 cf bc e8 a9 46 3d c1 75 d0 3b
       0.16380617 -0.025339909 0.04850188 0.0063616936
000200 eb 4e 98 bd ae 79 2c 3e fa d1 56 bd ef 46 7d bd
       -0.074369274 0.16843292 -0.052446343 -0.061835226
000210 d1 60 93 3c ce 97 52 3d 52 8f d7 bd a0 db c6 bc
       0.017990502 0.051414303 -0.10525383 -0.024274647
000220 85 c6 dc 3d e6 66 bb bd 0b d4 7e 3c 82 80 16 3e
       0.10780052 -0.09150486 0.015553485 0.1469746
000230 1e 73 16 be a3 93 c7 bc 3c d0 2c 3d 18 bd d9 bc
       -0.14692351 -0.02436239 0.042190775 -0.026579425
000240 82 2d 2a 3e 82 b5 a7 bd 91 11 76 bd c4 5f 0a 3b
       0.16618922 -0.08188917 -0.060075346 0.002111421
000250 81 b1 58 bd f3 b8 87 3d c0 51 bb 3d 95 df 2c bd
       -0.052903656 0.06627073 0.09146452 -0.042205412
000260 63 a1 a7 bd 1c 91 e8 3c 59 18 0a be fe 54 c3 3d
       -0.08185079 0.028389506 -0.1348585 0.09537695
000270 9b 86 b8 bd 4d 5a 32 3c ee a0 bd 3d c1 c2 16 bf
       -0.09010049 0.010885787 0.092592105 -0.5889092
000280 34 e2 b4 be 66 d2 2b 3f d0 68 a0 bd 35 85 3c 3e
       -0.3532883 0.6711792 -0.078324914 0.1841019
000290 37 5b 3e 3c 60 b8 23 be b7 72 32 3e e4 ee 16 b9
       0.011618427 -0.15988302 0.17426573 -0.00014394108
0002a0 a9 aa 4f bd c2 e5 15 be 9f 4c 83 3d 0b 69 57 39
       -0.050699864 -0.14638427 0.06411099 0.0002054313
0002b0 67 8a 83 ba ba 1b 79 3c 96 1d f2 3e 51 87 cc 3e
       -0.0010035754 0.015204364 0.47288197 0.39946988
0002c0 78 16 04 be 0b f3 03 bf 69 bd 4e 3e ec a7 de be
       -0.12899196 -0.5154273 0.20189442 -0.4348749
0002d0 83 77 f7 ba 56 10 09 3e 6e f4 d4 bd ba 95 ed bd
       -0.0018880222 0.13385138 -0.10398184 -0.11600824
0002e0 92 82 28 3e 10 f8 20 bd ea 08 2e 3d bd 79 de bc
       0.16456059 -0.03929907 0.04248897 -0.027157659
0002f0 eb b3 ee bc 0c 28 61 3e b3 8f c6 be d2 78 df 3d
       -0.029138526 0.21987933 -0.3878151 0.109117165
000300 c4 e7 b4 be e7 8d ec 3e 32 ff 1a bd 03 83 9b 3d
       -0.35333073 0.46202013 -0.03784103 0.07593348
000310 58 18 5b 3e d9 5b ac be f2 7d ff 3c 70 25 6a 3d
       0.21396005 -0.33663824 0.031187985 0.05716461
000320 71 6c 8d bd dc 9e 17 bd 25 16 07 3e 17 d3 8a bd
       -0.06905449 -0.037016734 0.13192041 -0.067785434
000330 be e4 7c be 01 78 6a 3e 37 a7 91 3d 30 6d fb bc
       -0.24696633 0.2289734 0.07111972 -0.030691713
000340 e3 58 9c 3d 40 6a c3 bc 25 c1 1e 3c ca f7 13 bd
       0.07634141 -0.023854375 0.009689604 -0.036124982
000350 cc 5f 15 3d d8 02 88 bd 1b e3 0a bd c1 fa b0 3d
       0.036468312 -0.066411674 -0.03390799 0.086415775
000360 a7 1e 78 3d 89 a0 7d bc 97 67 94 bd 02 30 89 be
       0.060576107 -0.015480169 -0.07246321 -0.2679444
000370 e7 94 6b be c3 db b8 3e c1 99 f0 bd c4 a1 98 3e
       -0.2300602 0.36105165 -0.11748076 0.29810917
000380 c8 ca 53 be e6 f5 e6 3d db 7e 33 3e 70 67 5f be
       -0.20682824 0.1127737 0.1752886 -0.21816802
000390 de 08 ef 3d e2 64 31 be 46 0c e5 3c fa a3 a0 be
       0.11671613 -0.1732364 0.027959954 -0.31375104
0003a0 0a 8e 9d 3e 66 b8 1a 3d ae 5f 51 3e 71 03 3b bd
       0.3077243 0.037773512 0.20446655 -0.04565758
0003b0 fc e0 1d be 0c a2 7c bd 67 a3 8d 3d 1f 46 76 3d
       -0.15417856 -0.061677977 0.06915932 0.060125466
0003c0 87 ad 02 be fb 0b af 3d 3e a1 36 3d 3a 86 4b be
       -0.12761508 0.08547207 0.044587366 -0.19875422
0003d0 5e a3 09 be 8b 23 a8 3e cd 5e df 3b 5d ff d7 3d
       -0.13441226 0.32839617 0.006816721 0.105467536
0003e0 fe d2 5a be 69 77 0a 3f ce b9 8b 3d 0e 36 40 be
       -0.2136955 0.54088455 0.06822549 -0.1877062
0003f0 43 39 4b 3e 8a dc da 3c 1e 29 35 be 90 9e 83 3d
       0.19846062 0.02671649 -0.17691466 0.06426728

conv1.bias f4 [16]
000000 a8 c5 57 be 11 f5 3c 3f aa 4e 9f 3e c2 1b c1 3e
       -0.21071494 0.7381144 0.31114703 0.3771649
000010 eb ec 28 3f 30 4e c3 3f 53 ed 12 3f 7a 45 cc 3f
       0.6598651 1.5258236 0.5739338 1.5958703
000020 b8 6b fd 3d 67 a0 d3 be 84 c6 bb 3f 22 57 77 3d
       0.12374061 -0.41333315 1.4669957 0.06038583
000030 58 ac 9c 3e 8f 2d aa 3f 2b 14 f2 3e c3 28 58 3e
       0.30600238 1.3295153 0.47281012 0.211093

convnorm1.weight f4 [16]
000000 f7 3b 84 3f 92 e8 9b 3f 79 91 f2 3f 9a ce 89 3f
       1.03308 1.218035 1.8950645 1.0766175
000010 53 fd 8b 3f a8 dd c5 3f 15 73 87 3f 28 f6 92 3f
       1.0936683 1.5458269 1.0581995 1.1481371
000020 19 e9 a5 3f a1 ee 9e 3f e9 28 ee 3f e3 78 bb 3f
       1.2961761 1.2416574 1.8606235 1.4646267
000030 a2 55 a1 3f c6 65 50 3f 29 75 8b 3f ff 55 62 3f
       1.2604258 0.81405294 1.089513 0.8841247

convnorm1.bias f4 [16]
000000 75 41 9d 3d 87 7c aa 3d a0 26 0a bc ea 55 6e 3e
       0.076785006 0.08324533 -0.0084320605 0.23274961
000010 39 b8 41 3e 45 f1 f6 3e c4 c1 5e 3d 88 d0 12 3f
       0.18917932 0.4823095 0.054384008 0.57349443
000020 76 93 72 3d b1 69 a6 be c1 07 c8 3e 76 38 84 bb
       0.05922266 -0.3250251 0.39068416 -0.004035051
000030 a7 04 6b be 18 a3 24 3f 04 fb 2a 3e 64 6f 36 3e
       -0.22950993 0.6431136 0.16697317 0.1781593

convnorm1.running_mean f4 [16]
000000 eb d0 ee 41 dd 9f c0 41 6f c0 f1 40 fb 76 87 41
       29.85201 24.078058 7.5547404 16.933096
000010 b6 ee ab 41 2e dd 6b 40 61 00 bd 41 17 e1 9e 41
       21.491558 3.6853747 23.625185 19.859907
000020 d9 f0 2b 41 d1 8e f8 42 ce f8 17 41 6c bf 5a 41
       10.746301 124.27894 9.498243 13.671734
000030 41 f8 98 40 cb f1 29 42 93 c4 a3 41 bf 21 37 42
       4.7803044 42.486126 20.470984 45.782955

convnorm1.running_var f4 [16]
000000 57 69 8e 44 c4 63 97 44 93 38 2a 43 45 e5 6f 44
       1139.2919 1211.1177 170.221 959.58234
000010 3e 83 c2 44 e3 ee da 42 18 5e a3 44 68 9b 33 44
       1556.1013 109.466576 1306.9404 718.4282
000020 2a d5 94 43 3f f0 73 45 f0 16 52 43 8d 1d 33 44
       297.66534 3903.0154 210.0896 716.46173
000030 33 57 20 43 6b 1c cf 44 a6 13 9d 44 1f 7e 82 45
       160.34062 1656.8881 1256.614 4175.765

conv2.weight f4 [128, 16, 3, 3]
000000 3f ae 34 be b6 25 1d be a0 3a 05 be 6c ce 07 be
       -0.17644595 -0.15346417 -0.13010645 -0.13262337
000010 9f 22 85 bd f9 b5 85 bd 6b 0a bc bd bf d9 20 be
       -0.06500744 -0.06528849 -0.091816746 -0.15708064
000020 0c 45 0f be f2 8b 59 be 17 9c 1c be 66 e8 8d be
       -0.13991183 -0.21244791 -0.15293919 -0.27716368
000030 6a ac 59 be 60 b3 b3 bd d5 91 cc bd 55 d3 08 be
       -0.21257177 -0.087744474 -0.09988753 -0.13361867
000040 d6 92 42 be 06 4d 0b be 24 bf 58 be f3 e4 e9 bd
       -0.19001326 -0.13603601 -0.21166664 -0.11420622
000050 b0 7c d3 bd 5a 7d 35 be 0c fd 12 be 3f 5b ab be
       -0.10326517 -0.17723599 -0.14354342 -0.33468053
000060 3e e0 d5 bd 90 72 84 be 41 0e f0 bd 54 31 a9 bd
       -0.104431614 -0.25868654 -0.11721469 -0.08261362
000070 fc 88 b2 bd 56 77 c5 3c 81 5d 8b bd fc ba 6f bb
       -0.08717534 0.024104755 -0.06804944 -0.0036579957
000080 ab cd 6a 3d 33 d4 d4 3b 77 dd de bc bd c9 c3 bd
       0.057325047 0.0064950227 -0.027205212 -0.09559963
000090 27 9e ba 3d 11 88 32 3d 76 7f 87 3d 65 e9 93 bc
       0.091121964 0.043586794 0.06616108 -0.018055627
0000a0 94 e3 3a 3d 0d 27 4b 3d 1d 6e 22 3c 30 38 45 3d
       0.04562719 0.04959779 0.009913948 0.048149288
0000b0 73 36 30 bd 24 2c 99 be 4c f8 df 3c 7b 3b 77 be
       -0.043020677 -0.2991649 0.027340077 -0.24143784
0000c0 47 f8 e3 3c d3 13 84 be 9c 92 8d be 16 61 23 be
       0.027828349 -0.25796375 -0.27650917 -0.15955004
0000d0 29 0a 2e be 48 d6 88 3d 42 62 37 bd cd 79 04 bb
       -0.16996063 0.06681496 -0.04477144 -0.00202142
0000e0 c3 01 cd 3b 61 d1 00 be fc e4 d6 bd aa 11 a9 bc
       0.0062563135 -0.12579872 -0.10492894 -0.020638306
0000f0 8a 03 10 bd 7e 73 9a 3d 47 ca 5a bd e9 92 8e 3d
       -0.035159625 0.0754156 -0.053415563 0.06961615
000100 26 79 92 3d 3e 41 b5 3d 1b c5 2f 3d d7 2d 30 3e
       0.071520135 0.088503346 0.042912584 0.17204987
000110 b8 2f 8a 3d 1e 2d f3 3d 62 11 05 3e 62 2c 2d 3d
       0.06747383 0.1187384 0.12994912 0.042278655
000120 28 bd 59 be 2d 0c 07 be 4e 8c fc bd 93 1b a1 bc
       -0.21263564 -0.13188238 -0.123314485 -0.019666469
000130 4e ca d7 bd 48 af 03 bd f9 36 a0 bd 48 f1 b0 bd
       -0.105366334 -0.032149583 -0.07822985 -0.08639771
000140 8d 6e 39 bd 56 03 24 be 12 53 00 be b0 c4 71 be
       -0.045271445 -0.16016898 -0.12531689 -0.23610187
000150 08 1c 5e be 95 61 7c be d9 e5 73 be ff b5 8b be
       -0.2169038 -0.246466 -0.23818149 -0.2728729
000160 eb 10 6b be 16 23 3d be 1a 3e 14 3e 90 ce 98 3e
       -0.22955672 -0.18470415 0.14476815 0.29845095
000170 da 4c b5 3a 9e 3e 86 3e 27 c6 9b 3c 03 e8 a7 3d
       0.0013832108 0.26219648 0.019015385 0.081985496
000180 2d b7 c3 bd 5d 15 1b 3d 6a 2b 3f 3e 1c f9 01 3c
       -0.095564224 0.03786217 0.18668905 0.007932927
000190 2c 82 23 bd a9 89 b3 3d 53 28 f1 3c b2 04 2c 3d
       -0.039919063 0.08766491 0.029438173 0.041996665
0001a0 be 8e 0f 3e e2 ee 07 3c c9 7d 90 3c 3c dc 3e 3d
       0.14019296 0.0082967 0.017638104 0.04659675
0001b0 94 0a 7c bd b5 7d 1a bd ed b5 aa bd ac c5 b9 3c
       -0.061533526 -0.03771754 -0.08335481 0.022677265
0001c0 1c 4c db bd d5 ee 41 3d 89 ca 62 be 3e b5 fd bc
       -0.10707876 0.04734691 -0.22147574 -0.030970212
0001d0 69 1a 27 bd f2 b5 1e 3e 4c 21 6f 3e 12 5e 2d 3e
       -0.04079667 0.15499094 0.23352545 0.16930416
0001e0 dc e5 89 3d 89 c7 57 3d 91 4a 02 3e 89 17 1b 3e
       0.06733295 0.052680526 0.12723757 0.15145697
0001f0 71 4a 55 3e e6 50 2d 3e 2f a8 6d 3d a8 8e 5c 3d
       0.20829178 0.16925392 0.05802172 0.053846985
000200 05 ea 13 3b 08 d5 64 3d 42 54 95 bd f9 d4 8d 3b
       0.0022569906 0.055867225 -0.072914615 0.004328367
000210 3b 57 3f 3c c8 fc 24 3d f0 38 e5 3d 34 df bf bd
       0.011678512 0.040280133 0.111925006 -0.093687445
000220 b6 a1 25 be 33 08 13 be f3 4d 1d be 60 00 c1 bd
       -0.16174969 -0.14358597 -0.15361767 -0.094239
000230 c0 00 0a 3d 40 2e 2c be 9e 10 9b bd d4 18 14 bd
       0.03369212 -0.16814518 -0.07571529 -0.03615649
000240 81 3f d8 3d ae 93 43 bf 0e d4 20 3c 65 fd f8 be
       0.105589874 -0.76397216 0.009816183 -0.48630825
000250 62 e6 f1 bd 5e c2 70 bc 43 77 45 be 49 be 30 3e
       -0.1181152 -0.014694778 -0.19283776 0.17260088
000260 a7 b0 39 bf d8 b1 02 3d 8d a0 b6 3d 1d 9d 8d bf
       -0.72535175 0.031907886 0.089173414 -1.1063572
000270 6e 06 51 3e 82 bc ab bf 62 c5 8c 3d e7 c0 96 bf
       0.20412609 -1.3416903 0.06873585 -1.1777619
000280 ec 50 8d 3e ef 01 40 3e 50 ae d4 3e 8c 15 cf 3e
       0.276008 0.18750738 0.4153924 0.40446126
000290 b6 89 22 be 91 d9 d5 3e d5 98 77 be ec a2 12 3e
       -0.15872845 0.41767552 -0.24179395 0.14319962
0002a0 25 2a dd be 49 7e 0d 3e df 80 fb 3e ef 7a 34 3e
       -0.43196216 0.13817705 0.49121758 0.1762502
0002b0 a1 13 0b be 7f 46 a5 3d 4e a5 34 be 5d 07 ab 3d
       -0.13581707 0.08070087 -0.17641184 0.08351014
0002c0 57 40 70 3e f2 21 5d 3d e7 d2 a9 3d 83 2e 6a be
       0.23462044 0.05398745 0.082921796 -0.22869305
0002d0 93 f5 4c 3e 91 dc 29 3e fe ba 3b 3e 85 d2 2a 3e
       0.20015554 0.16588046 0.1833305 0.1668187
0002e0 26 22 e1 3d 59 81 3a 3e 89 82 4f 3e ac 83 46 3e
       0.109928414 0.18213405 0.20264639 0.19386166
0002f0 be b9 68 3e b4 8c 1b 3e e4 55 fe b9 be b9 a8 be
       0.22727105 0.15190393 -0.0004851065 -0.3295421
000300 51 d1 ad 3d e4 2a 30 bf 31 b5 0f 3e 0b e2 06 bf
       0.084871896 -0.68815446 0.14033963 -0.52688664
000310 3c 8e 70 3e 79 7c 1e 3c 75 43 a6 3d 62 2c d8 be
       0.23491758 0.009673231 0.08118335 -0.4222136
000320 a7 9f e0 3d 3f b1 3f be dc 66 2e 3e 2d 3f 66 3e
       0.10967951 -0.18719958 0.17031425 0.22485037
000330 9d 28 44 3e ed 4c c3 3d 2a 5b e5 bd 7a 6a 09 bf
       0.19156118 0.09536157 -0.11199029 -0.53678095
000340 4e bf 3c be 39 98 9d bd 60 5d 2d be bb 19 20 3e
       -0.18432352 -0.0769505 -0.16930151 0.15634815
000350 63 01 48 bf a0 51 81 3e 0d 1b 45 bf 12 94 e6 bc
       -0.78127116 0.25257587 -0.769944 -0.028146777
000360 28 5e 52 be 9c ec 00 be 93 6f a2 be 00 8b 9a be
       -0.2054373 -0.1259026 -0.3172575 -0.30184174
000370 7d fd 8f be 54 9e 99 be ea 68 e1 bc e1 aa 65 bd
       -0.28123084 -0.30003607 -0.027515847 -0.056071166
000380 97 29 ca be 52 8f 91 be 6a c1 49 bf 1d e0 7c be
       -0.39484856 -0.28429657 -0.7881075 -0.24694867
000390 bf 0a 22 bf 30 61 e8 be 2c 62 d2 be 7e d5 51 bd
       -0.6329765 -0.45386648 -0.41090524 -0.051228993
0003a0 56 d0 88 be 79 0e 11 bf c4 be a2 3e 41 78 46 be
       -0.26721448 -0.5666271 0.31786168 -0.1938181
0003b0 12 8a 41 be 38 eb 84 be 60 57 8c be c3 2a e8 3e
       -0.18900326 -0.25960708 -0.27410412 0.45345125
0003c0 7a af ab be 5f 45 91 3e 94 dd 9c be ec b2 1a bd
       -0.33532315 0.28373238 -0.306378 -0.03776829
0003d0 b9 3b 57 bf 48 3c 17 be ba 5d 3c bf 6c a3 8d be
       -0.84075505 -0.14769089 -0.73580515 -0.27663743
0003e0 68 1f 98 be 29 7b 78 be e9 bb 29 bd e1 ad a6 bf
       -0.2971146 -0.24265732 -0.04143897 -1.3021814
0003f0 c2 b0 3c ba 71 0b 95 bd 81 76 95 3d 0f 52 27 be
       -0.000719797 -0.07277573 0.072979935 -0.16339897

conv2.bias f4 [128]
000000 69 d9 83 3f a7 48 a0 3e c8 98 48 3e 04 42 e9 bd
       1.0300723 0.3130543 0.19589531 -0.113895446
000010 92 80 2c 3e 66 a4 10 3e 34 0a 98 3e 4b 1b 5d 3e
       0.1684592 0.14125213 0.29695284 0.21592443
000020 39 7a af be 60 b3 b6 3e 02 d2 07 3f e3 77 b3 bd
       -0.34272936 0.35683727 0.5305482 -0.08763101
000030 c8 a7 e1 3d 45 dd d9 bd 97 99 51 3e a7 ef 9a 3e
       0.1101833 -0.10637907 0.20468746 0.30260965
000040 28 36 5b 3e 58 16 c1 3e 59 25 2e 3f f4 37 1a 3f
       0.21407378 0.3771236 0.6802574 0.6024163
000050 23 a6 ce 3d 52 89 80 3e 19 b4 bd 3d ae 74 1b 3f
       0.10090282 0.25104767 0.092628665 0.60724914
000060 e7 10 e9 3e 63 68 d3 be fd 4a 0f be f0 4e 16 3f
       0.45520708 -0.41290578 -0.1399345 0.587142
000070 b5 a6 97 be 81 03 2b 3f d1 75 f8 3d 74 ee 12 3f
       -0.29619375 0.6680222 0.12131847 0.573951
000080 ae be e6 3e ea 1b 72 3e d0 2b 22 3f 1a fe 9b 3e
       0.45067352 0.23643461 0.633481 0.30467302
000090 18 6c e5 3e fa 94 dd 3d 46 6c 16 3f 41 e1 2c 3f
       0.4480903 0.10819431 0.5875896 0.6753121
0000a0 2e 72 27 3f 35 4a af bb bf ad 8a 3e e7 d0 e0 3e
       0.654086 -0.0053494223 0.27085683 0.4390938
0000b0 86 72 87 3f 68 18 4c 3f f7 1b c5 be 27 6a 1b bd
       1.0581825 0.7972474 -0.38497898 -0.03794303
0000c0 ee 41 8b 3d b5 d4 53 3f 02 4f 8e 3e ba 54 07 bc
       0.067996845 0.8274644 0.27794653 -0.0082599465
0000d0 05 0b df 3e 81 f4 e2 3d 18 b3 6a 3e 20 62 21 3e
       0.43563095 0.11081792 0.22919881 0.15760088
0000e0 d9 55 6c 3e cf a3 be 3e 4a ee 67 b9 ec 7b 5d 3d
       0.23079623 0.3723435 -0.00022118646 0.05407326
0000f0 a6 55 ac 3d 62 47 ff 3e 34 5d 97 3f 7e 14 42 3e
       0.08414774 0.49859148 1.1825318 0.1895313
000100 1d 99 78 3e 4e 0d 8b 3c 7b db e0 3e d1 62 0c 3f
       0.24277158 0.016974118 0.4391745 0.5483828
000110 97 88 20 bd 43 24 0a 3f c5 f0 da 3e be 49 70 3f
       -0.039192762 0.5396158 0.42761818 0.9386252
000120 1a e5 7f bd bd 5f 4d 3f 07 42 fd 3d f3 8f fe 3e
       -0.062474348 0.8022421 0.12366109 0.497192
000130 31 67 f0 3e c0 d9 a4 bc 1b 62 fd 3c 94 6c 41 3f
       0.4695373 -0.020123363 0.03093057 0.755563
000140 fc 39 3d 3f 98 9b b9 3e 23 71 b0 3e bd ae c8 3e
       0.739166 0.3625152 0.34461316 0.39195815
000150 9c c7 46 be b1 87 74 3f b4 c3 0f 3e c6 37 10 3f
       -0.19412082 0.9551955 0.14039499 0.56335104
000160 7b 8c d4 3e 9b 27 1e 3f 95 03 34 3f 62 9d a0 be
       0.41513428 0.61779183 0.70317966 -0.31370074
000170 77 42 f1 3d 2f 36 09 bc d6 ee d1 3e 1c d8 73 3d
       0.11780255 -0.008374735 0.4100253 0.05953227
000180 a8 14 65 3f d4 d0 01 3f 31 42 f4 3e be 4c 4b be
       0.89484644 0.5070927 0.4770675 -0.19853494
000190 cc 3b 8f 3c 0b 14 1e 3f ec b2 c3 3e 87 20 fe bc
       0.017484568 0.61749333 0.38222444 -0.03102137
0001a0 c9 1b b1 3e 5b b6 16 3e ae 69 02 3f a2 db cf bc
       0.3459151 0.14718 0.50942504 -0.025373284
0001b0 19 d8 99 3e 53 3f 8a 3d 2f da 30 3f ed 89 0e 3f
       0.30047682 0.067503594 0.6908292 0.5567921
0001c0 63 1a 01 3f 1c 02 bd 3e e0 ca 07 be 05 70 2b 3e
       0.5043089 0.36915672 -0.13260984 0.16741951
0001d0 b8 70 b7 3e 4a 0e bf 3e 34 eb 90 3b ac c6 c1 3e
       0.35828185 0.3731559 0.0044225696 0.37846887
0001e0 b4 08 b2 3e de e9 17 3e da 4c 39 3d 86 6c bd 3e
       0.34772265 0.14835307 0.045239307 0.3699686
0001f0 5a 42 99 bd 45 05 44 3e 89 92 03 3f e1 d6 49 3f
       -0.07483359 0.19142635 0.5139547 0.78843504

linear.weight f4 [17, 128]
000000 c6 e2 fa 3d 3c 3b 7f be 6c fb 73 be 3e 22 26 3d
       0.12250285 -0.2492494 -0.23826379 0.04056
000010 dc 13 93 be 0a 16 54 3e 1d b4 37 bd 71 04 5c be
       -0.2872609 0.20711532 -0.044849504 -0.2148607
000020 c6 1c 38 3c b3 1b 9b 3d 40 a8 89 3e 9e e7 c0 be
       0.011237329 0.075736426 0.26886177 -0.3767671
000030 f9 b5 4c 3d ff 77 f7 be 2e bb 0e 3e e1 4d 38 3e
       0.04997823 -0.48333737 0.13938591 0.17998458
000040 52 23 03 bf a7 a9 4c 3e f2 54 0f be c2 11 9d 3e
       -0.5122577 0.19986592 -0.13997248 0.3067761
000050 9d fb ad be 5a ea a3 be 47 c7 f1 be 6c 96 d7 3e
       -0.33981028 -0.32014734 -0.4722235 0.4210695
000060 5f 67 d0 be 85 83 30 be 81 3e dd be b4 1e bd be
       -0.40703866 -0.1723767 -0.4321175 -0.36937487
000070 9a a0 cd bc ac e8 8f 3e 3b cf 9a be 16 69 99 be
       -0.025100995 0.28107202 -0.3023623 -0.29962987
000080 4f ec 45 3e 31 c0 a7 be c1 12 8e bd 52 90 78 3e
       0.19328426 -0.32763818 -0.06937171 0.24273804
000090 20 94 22 3e a1 e4 19 3e c0 d9 a7 bd d7 74 8e be
       0.15876818 0.15028621 -0.081958294 -0.27823517
0000a0 1a c6 13 be bb 3a 23 be b5 25 d6 be d7 cd 23 3d
       -0.14431038 -0.15940373 -0.41825643 0.039991226
0000b0 db 33 c5 3d cf d4 a2 3d cd 86 95 be 5a aa 48 be
       0.09629031 0.07950746 -0.29204407 -0.19596234
0000c0 5f 8c 52 be 1c ae b7 be d7 f7 e6 bd 9c e9 1a 3e
       -0.2056136 -0.35875022 -0.112777404 0.15128177
0000d0 79 54 04 bf 70 83 4b bd 1b 98 f7 bc ac 67 27 3e
       -0.51691395 -0.049685895 -0.030223897 0.16348141
0000e0 8f 39 ae 3e c6 7b e5 be 25 c7 9b bd 1a f7 b3 3c
       0.3402829 -0.44820994 -0.07606343 0.021968413
0000f0 17 02 0e be 50 f4 00 bc ed 97 d6 bd bc 79 9b be
       -0.13867985 -0.007870749 -0.10478196 -0.30366313
000100 1e 2f 3c be 1a d0 4d be 1d 42 98 be 7a 0b 05 be
       -0.18377349 -0.20098916 -0.2973794 -0.12992659
000110 68 7c 68 3e 87 54 66 bc 88 2a de bd 9e e5 7c be
       0.22703707 -0.014058239 -0.10847956 -0.24696967
000120 00 26 d9 3d 38 da cf 3c 4a ba 50 be be d4 a2 3e
       0.10602951 0.02537261 -0.20383564 0.31802934
000130 2b 95 be 3d 3e cb be 3e 8d 25 67 bd 00 98 33 be
       0.09305795 0.37264436 -0.056432296 -0.17538452
000140 62 eb 5c be 32 a8 b5 3e ab f4 c9 3b 53 09 c6 3e
       -0.21574166 0.35479885 0.0061632 0.3867899
000150 8a 97 2c be 8e cd c0 be ec e0 64 bd 05 1f 08 be
       -0.16854683 -0.37656826 -0.055878565 -0.13293083
000160 bd 6d 65 3e 81 f5 1a bf ea f6 93 3d b1 74 80 be
       0.22405143 -0.6053086 0.072248295 -0.25089028
000170 eb 7d e1 3e b5 6b 03 3e 1b f6 14 bf 9d 9e 8d be
       0.4404138 0.12834056 -0.5818803 -0.27660075
000180 b9 9a b2 3d 72 c2 3f 3e 1f 21 07 3f 60 b1 c8 bd
       0.08720917 0.18726519 0.52784914 -0.097994566
000190 b6 f6 cd bd d5 98 6b 3e a0 75 ba 3e d9 d6 b1 be
       -0.10056822 0.2300752 0.36417866 -0.34734228
0001a0 07 5c 04 bf 33 9f 2e be b2 23 0d bf 54 56 64 be
       -0.5170292 -0.17052917 -0.5513259 -0.22298557
0001b0 9a 0a 2f 3e ad 77 80 be 64 8d d2 be 60 1f 08 bd
       0.17093888 -0.25091305 -0.41123497 -0.033233047
0001c0 88 79 02 be 3e fb 96 bd 68 03 3e be c6 da 1d be
       -0.12741673 -0.073721394 -0.18555987 -0.15415487
0001d0 76 a2 81 3e 82 73 fa bd 26 b8 8f be 51 55 8d 3c
       0.2531926 -0.122290626 -0.28070182 0.017252596
0001e0 7a dd db be 91 1b 26 3d da 06 cb be ab 4d 92 3e
       -0.4294241 0.040553633 -0.39653665 0.2857488
0001f0 39 8d ee 3e e8 35 02 bc b2 5c 9e bc 09 b7 df be
       0.4659212 -0.007947423 -0.01933131 -0.43694332
000200 8b 5a 39 be 71 5b 09 bf 77 3b 86 bd 2b 69 20 3d
       -0.18100946 -0.53655154 -0.06554311 0.039162796
000210 e0 40 35 3d 83 f0 32 be a7 af 38 3b 0b 44 18 bd
       0.044251323 -0.1747456 0.0028180869 -0.037174266
000220 c2 ae 1a 3e f7 bb 96 3e c0 f1 b3 be 86 e6 20 bd
       0.15105727 0.2944028 -0.35145378 -0.039282344
000230 f2 78 92 3d e2 7a cd 3d 0e 33 f1 3e 9e 3c e5 be
       0.07151975 0.10033204 0.47109264 -0.4477281
000240 b0 ed 88 be 7b 35 75 3e 09 fd 92 be 1f a8 36 3e
       -0.2674384 0.23946182 -0.28708676 0.1783757
000250 55 38 2b 3c 7c 22 cd 3e 72 f3 8c bd d5 a1 b5 bd
       0.010450442 0.40065372 -0.06882371 -0.08868758
000260 99 12 98 3e d1 e7 2f bd 92 81 5e bf 84 01 c5 be
       0.2970169 -0.042945687 -0.8691646 -0.3847772
000270 9a 82 9c bd 3e 6d e2 be 05 08 6a 3d f0 02 b4 3c
       -0.07642098 -0.4422397 0.057136554 0.021974057
000280 c9 5a 9e bd b5 56 93 be f2 7d f7 bd d3 3d 33 3d
       -0.0773216 -0.2877709 -0.12084569 0.043760132
000290 b0 2b aa be 79 ed b4 3c 78 de 6a be 46 42 30 3e
       -0.33236456 0.022085892 -0.22936428 0.17212781
0002a0 55 a6 cf 3d de 56 d4 3d fd 6d 03 be c8 ff cb 3c
       0.10139147 0.10368131 -0.12834926 0.02490224
0002b0 e6 29 68 bc ab c1 1a 3e 6f d1 46 3d 38 8b b9 be
       -0.014170146 0.15112941 0.048539575 -0.36239028
0002c0 5f 5e 7a 3e eb 5d 9e be 0c 56 ff bd c1 7d 3b 3d
       0.24450062 -0.3093103 -0.12467584 0.045774225
0002d0 d2 36 9c bc ed 68 aa 3e 8f c9 1f ba 53 8e 55 3d
       -0.01906911 0.33283177 -0.0006095403 0.052137684
0002e0 b6 36 35 3e 2e 66 fd bd ac 00 95 bd ad a9 e7 bd
       0.17696652 -0.12373005 -0.07275519 -0.1131166
0002f0 33 ed d5 bd 62 af 2c 3d da b0 e3 3d 17 09 52 bd
       -0.10445633 0.042159446 0.11117716 -0.0512782
000300 5c 46 45 be 48 51 54 bd 9c 6e dd 3e 4e cf 5f 3d
       -0.19265121 -0.05183533 0.4324845 0.05464106
000310 9d ce 41 bd 4a 07 35 bd 2d e8 19 3f ab 7c ab bd
       -0.047316182 -0.044196405 0.601199 -0.08373388
000320 54 bc ff bd 00 ae 82 bd dc 0a 82 3d 2e 7f b6 bd
       -0.124870926 -0.06380844 0.063497275 -0.08910976
000330 9b be 4f bf cb a7 53 bf 54 8c cb 3c cc ae 67 bd
       -0.81150216 -0.82677907 0.024847187 -0.056563184
000340 8a 35 b9 3d 2f 4f a0 bd 82 9f 92 3d a9 e3 3e be
       0.09043415 -0.07827603 0.0715933 -0.18641533
000350 8b 07 37 3e b1 7c a1 3d 71 12 ee 3e 09 76 a4 be
       0.17873971 0.07885111 0.46498445 -0.32121304
000360 e9 61 6b be 7f e9 02 bf 1f ce f1 bd f7 f9 2f bd
       -0.22986569 -0.51137537 -0.118068926 -0.042962994
000370 72 c2 7e be 2e 5d 48 bd 51 58 21 bf 4d 25 24 3c
       -0.24878863 -0.048916988 -0.63025385 0.010018659
000380 22 5a 0d 3f ad 7a cb 3d 1c 74 be 3e 33 11 16 3e
       0.55215657 0.09935508 0.3719796 0.14654998
000390 6a 43 8b 3e 7b 56 f3 3d db b0 ed bc 0a 62 85 3d
       0.2719987 0.11881729 -0.029014995 0.0651284
0003a0 3e ef a3 3d f7 c2 03 be fb 00 89 be eb 5d fd bd
       0.08004616 -0.12867342 -0.2675856 -0.12371429
0003b0 72 f5 c5 3c 98 ff 0c bf c4 6d 08 3e 97 f3 93 be
       0.024164889 -0.55077505 0.13323122 -0.28896782
0003c0 f9 29 e2 3c 7e fe 01 bf 62 32 1e 3e a2 c2 f5 3d
       0.027607905 -0.5077895 0.15448907 0.12000014
0003d0 f2 c5 5e be bb fd 59 be 33 e1 6a bc 3f 80 06 be
       -0.21755198 -0.21288197 -0.014335918 -0.1313486
0003e0 3d 3f ac be 22 9e d4 3e cd 5e d0 3c fb 4f b3 3c
       -0.33641997 0.41526896 0.02543583 0.021888724
0003f0 dd f3 44 bd 09 df ab 3e ad b3 9c be fc 87 bc 3e
       -0.04808413 0.335686 -0.30605832 0.36822498

linear.bias f4 [17]
000000 ee 3c 41 bd c8 b5 97 be ed e5 b5 3c 0b 1f 05 bf
       -0.047177248 -0.29630876 0.022204364 -0.5200049
000010 8d de 32 be ef e1 dd bd fe 7c 27 bf 6a 39 e5 be
       -0.17467709 -0.10834109 -0.654251 -0.44770366
000020 f6 75 9e 3e 5f 54 11 bf 86 32 08 bf a4 d0 ee bd
       0.30949372 -0.56769365 -0.5320209 -0.11660889
000030 03 66 d2 be d3 93 17 be 71 38 33 bf 09 0a 7d be
       -0.41093454 -0.14802484 -0.70008 -0.2471086
000040 97 78 17 bf
       -0.5916838
