Code/model_Valetudo.pt (torch, 119254 bytes, 22 tensors)

convA.weight f4 [10, 3, 10, 10]
00000000: 93b0 11bd dfe0 1abe 8842 05be c7fb b1bd
00000010: 0133 3dbe d65d 13be 4c50 00be 024f 77be
00000020: 2205 2abe e6ac 83be 839e b73d fa4d 51be
00000030: e1aa 063e b2dd 123e ca77 28be 2de5 603e
00000040: a44e b63d 8411 6bbe 2d73 cc3d bcc1 89bd
00000050: d62c 98bb 66a9 943e 027f 37be 5663 19bd
00000060: f4d9 393e 2f8e f9bd f3a6 2d3c feb2 513e
00000070: 4b16 32be 32d7 adbd 2234 cb3d d717 af3d
00000080: 0b09 8cbd 1543 9a3d ec9e 60bd 7f45 283d
00000090: 1f08 8b3b 9b22 8dbd f1ab 45bd 69e8 b9bd
000000a0: 2732 9a3d cc8c 3fbe ba29 663e ef67 303e
000000b0: 54bb 31be 2973 733e 83f8 ed3d 4543 21be
000000c0: 93ac 153e 8724 c4bc 9625 15bd 123f 853e
000000d0: 509b eabd 5348 aebd acf7 3f3e a351 2c3c
000000e0: 933c 203d 99fd 7c3e 52d9 49be ba5a 24be
000000f0: 8ba1 2e3e 78b5 f13d 8450 293d 11bd e93d
00000100: e8b9 123e dfc8 0c3e 5566 343e 8e66 093e
00000110: bb2e 0d3e 716a 143c 53fa 823d 6f5c 43be
00000120: 45a4 083e 4d36 3a3e 0286 16be 749b 1d3e
00000130: bbc1 bd3d 820a 3ebe 6434 1d3e bde8 373d
00000140: 47a8 32be 50c5 273e fe7d 50be a295 81bd
00000150: 4df5 253e ba40 1dbe c840 9e3b 24c5 153e
00000160: c55f 67be cd10 96bd 8fe2 623e d7a0 563e
00000170: d89e e63d 0db7 183e 1e3d fc3d 3ed5 183e
00000180: 1068 203e 10a2 013e 475e 0d3e 210e 873c
00000190: 4e08 debd b192 00be 585c e6bb c64c 41be
000001a0: 76b8 dfbd 9098 9a3d 8596 7dbe 4821 98be
000001b0: 4dd9 8ebe 0187 efbe 82ed e63c 6516 31bf
000001c0: 112d acbe fbc7 2f3e fd02 0dbf 4156 3ebd
000001d0: 58ec df3e 7503 65be ec19 733e 6c6b 0a3f
000001e0: 6167 89bf a38a 08bf a606 2b3f 1b12 80bf
000001f0: 396a 10bf 1c96 573f bfb8 49bf cfe5 ccbe
00000200: d0dd 5a3f 0fab febe 4246 b43d 7922 a63d
00000210: f4c8 4e3e 6b95 7c3d c3c4 403c a471 993e
00000220: 948d c7bd 7d90 78bd 11d2 94bd 14f0 d2be
00000230: 61bd ccbd fe80 46bf 6f27 c9be bd10 853d
00000240: 2d6f 20bf a0dc 1a3c ed77 d93e 2f37 12be
00000250: 3e23 483e 14fb 103f 8389 96bf c893 08bf
00000260: d83b 1a3f 7722 a9bf 95ae 27bf 80bb 383f
00000270: 1fb3 89bf 32b5 1ebf c5a2 313f 64b2 5ebf
00000280: 018a 213e 4e24 4d3e 9779 9e3e 5c00 343e
00000290: b34f 6e3e 7944 b13e f467 843d a0f5 26bc
000002a0: ad22 c03d ad8a 8dbe 414b 873d a675 10bf
000002b0: d532 30be 7dbd 453e db5e e4be bb32 d63d
000002c0: e206 093f 1654 3d3d bf2a c83e 4c62 393f
000002d0: 7b8a 84bf 65d0 abbe 66cd 243f 4fca 93bf
000002e0: 5c56 18bf 6480 313f d5cf 87bf c72c 02bf
000002f0: 0d57 413f 0446 5fbf db81 fa3d 7e2e 113e
00000300: 4afe 953e 27f7 513e dd58 4e3e cc98 b03e
00000310: b496 da3d 68b5 b53c 8b78 813d aa84 92be
00000320: 1402 40be ae9f a0be 64bc a3be 77b1 1fbe
00000330: ce5e 5cbe f5e9 0fbe 2816 0a3a c4fb 26bd
00000340: 7c39 ddbc 101e 5f3d 2798 b8be f723 85bd
00000350: b629 b1be 9598 3cbe 03d6 3cbd f537 1dbe
00000360: 9a98 2bbd 7c1d 213e b534 74bd da2b 39bb
00000370: 59bf 80bd bc41 5dbe 2b8f 88bd b911 adbd
00000380: 2b90 0ebe 6770 b43c aed0 82bd 44a8 bebd
00000390: ee38 18bd 4cff bbbc 56ba 0fbe 3777 17be
000003a0: 6e8b 64be 53a7 b0bd f8bb 00bc ae9d c63c
000003b0: d6ea d33d d2bc 073e 03f9 083e 7dd0 6f3d
000003c0: a10c 8cbe 89a3 d9bb c1bd ccbe ad24 55be
000003d0: f8b9 fbbb a657 33be d3a2 0b3d c647 3d3e
000003e0: d218 3abd 5146 053d cd70 143b 8abf f6bd
000003f0: 4575 9a3d de5a cc3d f9a4 87bd c4f4 433e
-0.035568785 -0.15124844 -0.13013661 -0.08690601 -0.18476488 -0.14391264 -0.12530631 -0.24151233
-0.1660352 -0.2571785 0.089657806 -0.20439902 0.13151123 0.14342383 -0.16451946 0.21962424
0.08901718 -0.229559 0.099829055 -0.06726405 -0.0046440167 0.2903549 -0.17919543 -0.03744825
0.18149549 -0.121853225 0.010598886 0.20478436 -0.17391317 -0.08488311 0.09922053 0.08549469
-0.06837662 0.07532326 -0.05483906 0.0410819 0.0042429115 -0.06891366 -0.04825968 -0.09077532
0.07529097 -0.18706053 0.22476855 0.17227148 -0.17356616 0.23774399 0.116196655 -0.15748318
0.14616613 -0.023943199 -0.036412798 0.2602468 -0.11455405 -0.085098885 0.18746823 0.010517511
0.039120268 0.24706115 -0.19711807 -0.16050234 0.17053811 0.118021905 0.04133655 0.11413015
0.1432873 0.13748501 0.17617162 0.13418028 0.13787358 0.009058581 0.06395402 -0.1907823
0.13343914 0.18184777 -0.14699557 0.15391332 0.09265467 -0.18558696 0.15352017 0.04489969
-0.17447005 0.16383862 -0.20360562 -0.06327368 0.16206856 -0.15356722 0.0048295 0.14625984
-0.22595127 -0.07327423 0.22156738 0.20959793 0.11260766 0.14913578 0.12316345 0.14925095
0.15664697 0.12659478 0.13805495 0.01648623 -0.10841428 -0.12555958 -0.007030051 -0.18876943
-0.10923855 0.0754863 -0.2476445 -0.29712892 -0.27900162 -0.46782687 0.028189424 -0.69174796
-0.33628133 0.1716613 -0.55082685 -0.046468977 0.43735003 -0.223646 0.23740357 0.5407016
-1.0734674 -0.5333654 0.6680702 -1.0005525 -0.5641208 0.84213424 -0.78797525 -0.4001908
0.8549471 -0.49739882 0.08802463 0.08112044 0.20193845 0.061665934 0.011765662 0.29969513
-0.09743801 -0.06068467 -0.072666295 -0.4119879 -0.09997059 -0.77540576 -0.39287898 0.06497333
-0.6266964 0.009452015 0.4247431 -0.14278863 0.19544694 0.56633115 -1.1760715 -0.53350496
0.60247564 -1.3213643 -0.65500766 0.721611 -1.0757788 -0.6199523 0.6938899 -0.8699095
0.157753 0.2003338 0.3095214 0.17578262 0.2327259 0.34622553 0.0646514 -0.0101903975
0.09381614 -0.27644864 0.066061504 -0.5642952 -0.17206891 0.19310565 -0.4460362 0.10458895
0.5352613 0.04622277 0.39095113 0.72415614 -1.0354761 -0.3355743 0.64375913 -1.1546115
-0.59506774 0.69336534 -1.06103 -0.50849575 0.75523454 -0.8721621 0.12231799 0.14177892
0.2929557 0.20504437 0.20151086 0.34491575 0.106732756 0.022181228 0.0632182 -0.2861684
-0.18750793 -0.31371826 -0.31979668 -0.15595041 -0.2152054 -0.14054091 0.0005267584 -0.040767446
-0.02700495 0.05447203 -0.36053583 -0.065010004 -0.34602135 -0.1841758 -0.046102535 -0.15353377
-0.04189358 0.15733904 -0.059620578 -0.0028254897 -0.06286497 -0.21607107 -0.06667932 -0.08450646
-0.13922183 0.022026254 -0.06387459 -0.09309438 -0.037163667 -0.022948883 -0.14035925 -0.1479157
-0.22318813 -0.086256646 -0.007857315 0.02424511 0.10347526 0.13255623 0.1337624 0.05854844
-0.27353385 -0.0066418094 -0.3998852 -0.20814772 -0.0076820813 -0.17513904 0.03409083 0.1848441
-0.045433827 0.032537762 0.0022650242 -0.12048252 0.07541899 0.09978269 -0.06623263 0.1913634

convA.bias f4 [10]
00000000: ef44 42bb c150 623d 978a fa3c b09f 743c
00000010: 55a4 e6bc 2a97 463d 708f 41bb 3804 67bd
00000020: 4107 3fbd 2469 b7bc
-0.0029643138 0.055252794 0.030583663 0.014930651 -0.028154531 0.048484005 -0.0029534958 -0.056400508
-0.046637777 -0.022389002

bnA.weight f4 [10]
00000000: 3ccd 2a3f 54db 253f 29b7 283f adfe 3540
00000010: 58df 653f 0830 093f 4cd2 3e3f e66a 4c3f
00000020: 87fa f43e 71ad 803f
0.6671941 0.64787793 0.6590448 2.8436692 0.8979392 0.53588915 0.7453964 0.79850614
0.47847387 1.005293

bnA.bias f4 [10]
00000000: 8395 7ebe 32a6 5abd e3f6 30be e360 7d3f
00000010: 085c f5ba 4bfd 893c bac5 e63d 036e c0bd
00000020: 3409 af3c d67d 06be
-0.24861722 -0.053381152 -0.1728168 0.9897596 -0.0018719444 0.016844412 0.11268182 -0.09395983
0.021366693 -0.1313394

bnA.running_mean f4 [10]
00000000: 1a90 89c4 b391 d541 7979 6244 3183 8dc1
00000010: d2c9 75c2 3b38 85c2 4179 94c1 0baf 75c2
00000020: ea07 0444 46aa a4c3
-1100.5032 26.696142 905.898 -17.689058 -61.44709 -66.609825 -18.559206 -61.42094
528.12366 -329.33026

bnA.running_var f4 [10]
00000000: cbc7 1c49 8185 d247 8ae0 2549 9d6f 3d47
00000010: 731e 4e49 9e4b 9d48 ea27 4848 9b25 6248
00000020: 13af 6549 20cc 8d48
642172.7 107787.01 679432.6 48495.613 844263.2 322140.94 204959.66 231574.42
940785.2 290401.0

conv0.weight f4 [10, 10, 5, 5]
00000000: 1b3a 3d3f 37a9 f4be d6e9 b8be a69d d53e
00000010: b715 33bf 1c2e 033f 444c e93d fe92 183e
00000020: 174b 003e d4d0 d6be 0c61 d7bd 5e9d 8c3e
00000030: 26f5 27bf 449b c13d 4cd5 b93e 4c30 503f
00000040: 35d3 07be d0a1 45be 7e16 373f 73e5 b2be
00000050: 0f86 063f b4b9 113e 3b91 fc3d a0be 64bc
00000060: 1e5e 14bf 6ece 13bc 0375 b8bd 25e2 e3bd
00000070: 0ebf 873e 31cb 0abe e6a0 093f be10 203e
00000080: 5680 48be d32b 503e edb6 03bf 19dc 93be
00000090: 0b02 d03e 893b 8bbe 05d3 743d 0a3a 253e
000000a0: fba7 a83c bcba e0bd 6fe7 18be 7c30 a43e
000000b0: f672 67be bbcc a03e 41a3 cf3c 6f00 29bc
000000c0: 2f38 9b3e 8c66 8abe 2afc 933e d9e4 0dbe
000000d0: b0d4 023e 752b aa3e 0a07 4fbd 17df eebd
000000e0: d933 393e 46fd 4e3f 8f9a a3bd 488a 743e
000000f0: 8abe 883e 07e2 253f 9bbb a93c 0bd5 22be
00000100: 0cf2 473e db69 aa3d 2a16 95be 5e95 3abd
00000110: d76a 933d 5006 9cbe ee7c 21bd 1f10 113e
00000120: b0ed 393f 6930 8bbd d179 8d3d 0fa7 3f3e
00000130: 53d9 46be 7488 f5bd 4681 e6bd 6d3a e9bc
00000140: d7ac ec3e b312 243f 9a06 cb3e 0e06 703c
00000150: 6cd9 32bf 551c 863e ffe8 f83e 59cd acbd
00000160: 16d5 2c3e 86b4 3f3e 9edb 6f3e 0c11 203e
00000170: 4989 cfbd a824 25bf 0614 68bd 9576 ffbc
00000180: 3e3c 5fbd c74b 08be 8eb7 0ebe 3748 26bd
00000190: 893e 7abd ffb3 6cbe fb25 f93d 53c0 963e
000001a0: fc32 b9bd aaee a73c 087d 81bd f99c 95be
000001b0: 42b6 3b3e c606 963e 9a9c a53d cd47 6ebd
000001c0: fab6 bf3d b4f6 6f3e e89c 37bd 7a72 cd3c
000001d0: 47e4 8dbe 12ac d53d aa99 e33c 7214 88be
000001e0: 3d62 dabd e3bd 1abe 08ac 79be 073b 163e
000001f0: c62b 663e e6d2 bbbe 22e3 11bd 7f84 0ebe
00000200: c10e d5be 25a9 3abe d1ee d73c a46c ffbd
00000210: d073 e7bd a014 ab3e fe03 053e 7aec 533e
00000220: 4e21 f4bd ff94 5d3f 2e30 633c b6b8 8abe
00000230: dd70 b8bd 66a6 083e 4e55 303e 014a 99bd
00000240: 4579 0c3e 75b0 a43e bf90 0a3d 271f a43d
00000250: f04e dc3e 62b4 a23d e0f9 99bd dc63 d8bd
00000260: 6c9e 72be 2157 82be 57ee 80bd bd76 4d3e
00000270: c6ae c93e e0d8 263d cdeb 19bd 864b 4bbc
00000280: 455c 803d 7667 ecbe 432c 6fbe b3ba 4cbd
00000290: d03c a3be 79bf 0f3e bd9f 723c 0595 edbd
000002a0: 2c96 80be 505e babd bda2 583e 6163 9f3e
000002b0: 84f4 bdbc cd46 b83d 1909 1c3e 5e44 dcbe
000002c0: 7644 933e 646a b13d aa40 cebe a576 013f
000002d0: a15f 103e 899b 81be 5f7b 49be 6bec 073f
000002e0: 1e62 d23d ed12 15bf d53c 0ebe adbf 5c3f
000002f0: 55ab 86be 3b8a 113e 1a30 72be 6622 e23e
00000300: f733 7f3e 4cf2 b8be 4741 a73e 3109 813d
00000310: d7e8 bcbe 7fe8 b2be cf5e 063f 96ba 923e
00000320: 0896 243f 2e69 38be a4dd cf3e 69b2 e03e
00000330: 9bf9 2abe 0416 e1be f726 88bc 3a9e 063f
00000340: ef61 04be ff12 263e 2d1e 803c 45a9 763d
00000350: c30e e4be 10d2 703e 6c30 b13e ad0f 203f
00000360: 072b 92be 38f2 d73e 33fe fa3e 4b82 8cbe
00000370: 07e8 d8be 1e87 163e 615c 193f 0d69 fcbd
00000380: a5c4 413e df70 bcbe a7d1 dbbd 65ba 6d3c
00000390: 800b 803e b575 2f3e 80ea b6bd 6637 783d
000003a0: 7205 0bbf 5a81 2dbe e32f d23d 393a 93bd
000003b0: ffa8 6a3e 1166 a43e 5d76 183e d7a4 303e
000003c0: 6d2c adbe 1a75 40be e8ca 73be 68dc 813e
000003d0: a4ce 013e 0b74 5a3e 07ed f43e 16e8 9bbd
000003e0: 7c7c 693e 4c64 7d3e 4b7d 01bc 67f3 953d
000003f0: 7c3e 703d fc5b 34bd bacc 923d fd9a 473d
0.73916787 -0.4778535 -0.36115903 0.4172184 -0.6995501 0.5124223 0.113915 0.14899823
0.12528645 -0.41956198 -0.10516557 0.27463812 -0.6560844 0.09453443 0.36295545 0.81323695
-0.13264163 -0.19300008 0.71518695 -0.3494068 0.5254831 0.14230996 0.12332388 -0.013961464
-0.5795611 -0.009021385 -0.09006693 -0.11127118 0.2651295 -0.13554074 0.53761137 0.15631387
-0.19580206 0.20329218 -0.51451 -0.2887886 0.4062656 -0.2719386 0.059771556 0.16135421
0.020587912 -0.10973117 -0.14932035 0.3206824 -0.22602448 0.31406197 0.0253464 -0.010315045
0.30316302 -0.27031362 0.28903323 -0.1385683 0.12776446 0.3323628 -0.050543822 -0.11663645
0.18086185 0.80855215 -0.07988464 0.23880875 0.2670787 0.64798015 0.02071934 -0.15901582
0.19525927 0.083209716 -0.29118472 -0.045552604 0.071981125 -0.30473566 -0.039425783 0.14166306
0.7262831 -0.06796343 0.06908 0.18716072 -0.1941884 -0.11988917 -0.11255126 -0.028470242
0.46225616 0.6409103 0.39653474 0.014649881 -0.6986301 0.2619349 0.48615262 -0.084376045
0.16878161 0.18721208 0.23423621 0.15631503 -0.10133607 -0.6450906 -0.05665972 -0.031184474
-0.05450081 -0.13310157 -0.13937208 -0.040596213 -0.061094794 -0.23115538 0.12165447 0.29443607
-0.090429276 0.020499546 -0.06322676 -0.29221323 0.18331245 0.29302043 0.0808651 -0.058173943
0.09361072 0.23433954 -0.04482737 0.025079 -0.27713224 0.104332104 0.027783234 -0.265781
-0.10663269 -0.15111499 -0.24382031 0.14670955 0.22477636 -0.3668434 -0.035617 -0.13917731
-0.4161282 -0.18228586 0.026358994 -0.124718934 -0.11301386 0.33414173 0.12989804 0.20695677
-0.11920415 0.86555475 0.013866467 -0.27094048 -0.09005902 0.13344726 0.17220041 -0.07484818
0.13718136 0.32165876 0.033829447 0.08013754 0.43028975 0.079445615 -0.07518363 -0.10565922
-0.23693246 -0.254571 -0.0629546 0.20064826 0.39391154 0.040734172 -0.037578393 -0.012408143
0.06267599 -0.46172684 -0.23356728 -0.049982738 -0.31882334 0.14037885 0.014808592 -0.11600689
-0.25114572 -0.0910002 0.2115583 0.31130508 -0.023187883 0.08997879 0.15237845 -0.4302091
0.2876317 0.086628705 -0.4028371 0.5057166 0.1409898 -0.25313976 -0.19675969 0.5309512
0.102726206 -0.58232003 -0.13890393 0.86229974 -0.2630259 0.14212887 -0.23651162 0.4416687
0.24922167 -0.36122358 0.3266699 0.06300581 -0.36896393 -0.34943005 0.52488416 0.2865798
0.6429143 -0.18008873 0.40598786 0.43886116 -0.1669678 -0.4396211 -0.016620142 0.52585185
-0.12927984 0.16218184 0.015639389 0.06022002 -0.44542512 0.23517632 0.34607255 0.6252392
-0.28548452 0.42176986 0.49022064 -0.27443156 -0.42364523 0.1469998 0.59906584 -0.12324724
0.1892267 -0.36804864 -0.107333474 0.014509772 0.25008774 0.17134745 -0.08931446 0.060599707
-0.54305184 -0.16943875 0.1026304 -0.071888395 0.2291603 0.3210912 0.14888902 0.17250381
-0.33822957 -0.1879467 -0.23807871 0.2536347 0.12676483 0.2133333 0.47837088 -0.07612626
0.22801393 0.24745291 -0.007903407 0.07321816 0.05865334 -0.044033036 0.07167955 0.048731793

conv0.bias f4 [10]
00000000: 365e 92bc 2a78 fc3c 3204 fa3c be34 c1bd
00000010: be36 93bc 59b8 8fbd d57e 903c 7256 7a3c
00000020: a5b5 d33c 0032 693d
-0.017867189 0.030819017 0.030519579 -0.09433888 -0.017970439 -0.070175834 0.017638603 0.015279399
0.02584345 0.05693245

bn0.weight f4 [10]
00000000: 2155 8b3f 540c a83f 6466 813f e58b 993f
00000010: 144a 673f 55d0 463f 7bed 6b3f 0283 5e3f
00000020: e0d6 903f a29d 603f
1.0885354 1.3128762 1.0109372 1.1995817 0.9034741 0.7766164 0.9215924 0.8691865
1.1315575 0.8774053

bn0.bias f4 [10]
00000000: f242 7ebe 8981 863e 9e9e 2dbe 83c6 4c3e
00000010: e2d9 4c3e 890a 4fbe c325 a03b c032 babd
00000020: 0a70 87be 5d3a 64be
-0.24830225 0.26270702 -0.16955039 0.19997601 0.2000499 -0.20218863 0.004887314 -0.09091711
-0.26452667 -0.22287889

bn0.running_mean f4 [10]
00000000: 696d 4840 8ad2 c5bd e1fc bebf dd3e 843e
00000010: bfae aebf 1007 cebf cbe7 63bf 9b5f 81bf
00000020: 4bd8 24c0 2d24 24c0
3.1316779 -0.09659298 -1.4920923 0.2582921 -1.3647078 -1.6095905 -0.89025563 -1.0107301
-2.5757015 -2.564708

bn0.running_var f4 [10]
00000000: a88b 4041 eaee 8341 3be3 3b41 b09b 9541
00000010: 5d0d 5a41 97c0 de41 cc0f fd41 f7a4 8e41
00000020: 8d12 8541 28e9 ea41
12.034096 16.491657 11.742976 18.70102 13.6282625 27.844038 31.632713 17.83055
16.634058 29.363846

conv1.weight f4 [16, 10, 3, 3]
00000000: 38bc d53e 1d62 6b3e 21fd 6c3e 2811 5e3e
00000010: cb6c a93e 7131 563e cdb2 18be 47e5 8f3d
00000020: 104f 54be 1524 bbbc c63c 433e 0c75 193d
00000030: b675 d23e 8599 583e 8e7c 3c3d fab2 e3bb
00000040: 644f 7c3e a4dc a53e d7f1 95be 9494 0abb
00000050: d0e2 af3d 4d28 7bbe 8a78 3b3d 5072 2ebe
00000060: 98a9 cbbc 8e76 e03c a234 a03e 44c1 a9be
00000070: ded0 863e 7591 563e b95b 0e3c dba7 833d
00000080: 59d2 8ebe 5b37 093e 60cf c0be cfea d53e
00000090: eb09 57bd 016c 57be 0c68 03be 130b 933f
000000a0: 7f46 be3e ed80 af3e db44 81be 67fb 29be
000000b0: af40 11be 6a2b 073d 316f c7bd 7ee5 583c
000000c0: c085 ad3e 1b9a 973e be3a 4f3e a08a 123e
000000d0: c58e 493d 64e1 fabc 48c6 c0be 693b f2be
000000e0: 1dbc aabe 78fd 16be d8fe c0bc 9b92 063e
000000f0: f228 ddbe 6735 563c 5649 adbd 9526 82be
00000100: df02 cdbd e425 8d3e 209e a4be 97e7 023e
00000110: a3da d6be af69 d63e adf4 20be 03e9 9bbe
00000120: 7b1d 233e d90d 7b3d 79cf 093e 0114 ab3e
00000130: f118 403e f533 11be eb5d d9bc 6458 563c
00000140: 694c 0f3e 2949 793d e94a 843e 0a71 643f
00000150: aef4 8cbe 3a74 36bd 1de9 9bbe 3295 1f3f
00000160: 8e0a 26be 6855 713c e0d5 e1bd b72a c5be
00000170: 969f a13d aad3 ac3e 0ad0 d2be e330 0ebf
00000180: ac62 cfbe 56c4 cebd 5219 30be 924d e2bd
00000190: a3c9 983e 4bb8 fe3d afe3 c0bd d4e7 733e
000001a0: 0aac e43c ea2e 853e e010 07bf 0aac b23e
000001b0: 8309 a63d 89f3 4bbe ad8e b33d d230 5b3c
000001c0: 3990 6a3c 5e93 2dbe 2285 89be ad21 1c3e
000001d0: e9c8 da3d dc86 953e 6fcd 99be e7d1 3c3e
000001e0: dee8 9dbe 3d85 6bbd b645 3c3e 5b8f 5f3e
000001f0: fde9 b7bc ac16 afbe d668 45bf 3d51 51bd
00000200: ed98 7d3b c4bd c83e 240a 523e 53ad 8ebf
00000210: c248 f03d 93ac 2cbf a698 353e 9527 32bd
00000220: be58 653c 9afc 463e 8daa 5b3b fe87 343e
00000230: a6ec 943e 3ea3 813e 988f a93e ae6b abbe
00000240: c217 d73d 8442 673d e532 2a3d eb8b 45bf
00000250: 3c29 be3e a7b5 cf3d 32f2 393d 61fa 5ebc
00000260: 3b9b 29bf 765d aabd 5aad ccbd feda b13d
00000270: 2408 06bd 53ee d8bd 0238 a43d 6e42 d1be
00000280: ba44 123e a89f 73be 8cbc 4f3e 11f3 de3e
00000290: 1761 00bf dc55 ee3e c020 4ebe 4421 9b3d
000002a0: c073 df3e 6d9f 1cbe 9434 903d a35d 8b3e
000002b0: cff5 80be ae26 503d 3051 3ebe 23fc 97bd
000002c0: e4aa dc3e 36c0 d53e 0061 ccbe 5a84 863e
000002d0: cd47 f53d 2dd9 5e3d 8bcf 20bf bf91 12bd
000002e0: 9030 a9be ecb6 88be 74aa 313d bf04 d43d
000002f0: 9873 b5be 25f8 9f3e 3de5 073e 2618 26bd
00000300: 70d5 673e f3bc 513c dbdb 203e 08f4 8ebb
00000310: 963b 8d3d 19e3 8ebd 4e76 913e 0717 bbbe
00000320: b9e2 0b3e 2029 91be 6fb6 9abd 949b 443d
00000330: 1529 583e f61c 9b3e 319c dbbd 54e3 c03e
00000340: 0c0d 143e 09e4 473e d864 563e 289b 063e
00000350: b334 823e 4d97 1d39 ab54 713e 6d64 5a3e
00000360: 5be5 473e 1147 83be 9b9e cc3e 7a6a 63be
00000370: b103 c53c 1281 833d a7bf 293e 3ffb 18bd
00000380: 125a a1bd 669f 5bbe cea4 76bf 74da 93be
00000390: b6f9 9fbf c014 b9be b3cd 01bf 740c 68be
000003a0: 4417 0fbf 067c 62bf fe9b 11bf c5b5 6bbd
000003b0: 8e61 5a3e 9113 09bf 4302 683e 1085 28be
000003c0: 9fb0 d53d 4dba 6abe 537a 5ebe d8ca 2a3e
000003d0: 7793 05bf 17b9 80bd 44db 58bb cddd a73d
000003e0: e234 583e 4bdf 8b3e 20d3 933d e638 80be
000003f0: d27d cbbd 564b a53e fef8 d73e 5afc 5a3d
0.41745162 0.22986646 0.23143436 0.21686232 0.33090815 0.20917298 -0.14911957 0.07026153
-0.20733285 -0.022844354 0.19066152 0.03746514 0.4110543 0.21152313 0.046017222 -0.006948826
0.2463966 0.32394898 -0.29286072 -0.0021145688 0.08588183 -0.24527092 0.045769252 -0.17035794
-0.024861142 0.027400281 0.31290156 -0.33155262 0.26331228 0.20953925 0.008688861 0.064285
-0.27894858 0.13400023 -0.37658215 0.41780707 -0.052499693 -0.21037294 -0.1283266 1.1487755
0.3716316 0.3427805 -0.25247845 -0.16599809 -0.14184831 0.033000387 -0.09738005 0.013238309
0.33891106 0.2960976 0.20237252 0.14310694 0.04920842 -0.030625053 -0.37651277 -0.4731095
-0.33346644 -0.14745128 -0.023559019 0.13141863 -0.431953 0.013074256 -0.08461253 -0.2542006
-0.10010313 0.2756797 -0.3215189 0.12783657 -0.41963682 0.41877505 -0.15718336 -0.3045121
0.15929215 0.061292503 0.13458051 0.334137 0.18759514 -0.14179976 -0.026534041 0.013082597
0.13993992 0.060860787 0.25838402 0.89234984 -0.27530426 -0.044544436 -0.3045129 0.6233703
-0.16214964 0.014729835 -0.110271215 -0.3850915 0.07891767 0.33755237 -0.41174346 -0.55543345
-0.40504968 -0.10096042 -0.17197159 -0.110499516 0.29841337 0.12437495 -0.09418427 0.23818904
0.027914066 0.26012355 -0.52760124 0.3489688 0.08107283 -0.1991712 0.087674476 0.013378339
0.014316612 -0.16950747 -0.26859385 0.15247221 0.10682852 0.29204452 -0.30039546 0.18439446
-0.30841726 -0.057500113 0.18385968 0.2183203 -0.022450441 -0.34196985 -0.7711309 -0.051102865
0.0038695887 0.3920728 0.20511681 -1.1146644 0.117326275 -0.6745083 0.17734012 -0.04349478
0.013998209 0.19432297 0.0033518404 0.17630002 0.29086798 0.25319856 0.33117366 -0.3348059
0.10502578 0.05645992 0.041552443 -0.7716662 0.37140834 0.10142069 0.04539699 -0.0136095
-0.6625249 -0.083186075 -0.09994002 0.086843476 -0.032722607 -0.10592332 0.08018495 -0.40870994
0.1428403 -0.23791373 0.20286769 0.4354482 -0.5014815 0.4654988 -0.2012968 0.07574704
0.43642998 -0.15295191 0.070412785 0.27219877 -0.25187537 0.050818138 -0.18585658 -0.07421138
0.4309913 0.41748208 -0.39917755 0.2627285 0.119765855 0.054406334 -0.62816685 -0.035783526
-0.33044863 -0.26702058 0.043375447 0.10352468 -0.35439754 0.31244007 0.13271041 -0.040550373
0.22640014 0.012801397 0.15708868 -0.004362587 0.06896131 -0.06976909 0.28410572 -0.36541006
0.13660707 -0.28351688 -0.07554328 0.047999933 0.21109422 0.30295533 -0.107231505 0.37673438
0.14458102 0.19520582 0.20936906 0.13145125 0.2543083 0.0001502905 0.23567455 0.21327372
0.19521086 -0.25640157 0.39964756 -0.22208586 0.024049612 0.064211026 0.16577016 -0.037348982
-0.07878508 -0.21447524 -0.9634522 -0.28877604 -1.2498081 -0.36148643 -0.507045 -0.22661
-0.55894876 -0.88470495 -0.5687865 -0.057546396 0.21326277 -0.5354548 0.22657113 -0.1645701
0.104340784 -0.2292263 -0.2172635 0.16678941 -0.5217814 -0.06285303 -0.0033089677 0.08196602
0.21113923 0.27318797 0.07218003 -0.2504341 -0.09936108 0.3228404 0.42182153 0.053463317

conv1.bias f4 [16]
00000000: 13f5 58bd cd10 97be 590a 98be 64eb 51bf
00000010: befa 123e 09fc 91be 7afb fe3e be43 1b3f
00000020: 2136 d13e 81ac 8cbe db75 09bd b2e0 863f
00000030: f3dd 8a3e c8f0 48bd 586b 1e3e 7704 7d3d
-0.052968096 -0.29505005 -0.29695395 -0.819998 0.14353463 -0.285126 0.49801236 0.6065024
0.4086161 -0.2747536 -0.03355966 1.0537322 0.2712246 -0.049057752 0.15470636 0.061771836

convnorm1.weight f4 [16]
00000000: ed25 a73f ec76 9d3f 3d54 9d3f 10cc d93f
00000010: 5e44 a73f eb3a 833f 6267 ba3f bdc1 d93f
00000020: 4129 a33f a523 be3f b9ea be3f 1199 773f
00000030: 2a42 913f 805c 8e3f 33e0 9d3f 30a3 c73f
1.3058449 1.2301917 1.2291332 1.70154 1.3067739 1.0252355 1.45628 1.7012249
1.2746965 1.4854628 1.4915382 0.96717936 1.1348317 1.1121979 1.2334045 1.5596676

convnorm1.bias f4 [16]
00000000: 4324 ba3d 7abd 353e 4013 873c e811 d5bc
00000010: 2a0a 8e3d ea10 6e3e 62fb 7b3e 5b7b 6b3e
00000020: 6afe 8d3e 6b20 903e efee 8c3e 9f87 dd3e
00000030: 5622 a73d eb32 723e a504 623e 469c 993e
0.090889476 0.17748061 0.016488671 -0.026009515 0.069355324 0.2324864 0.24607614 0.22996275
0.27733165 0.28149733 0.27526042 0.43267533 0.08160846 0.23652236 0.22072084 0.3000204

convnorm1.running_mean f4 [16]
00000000: eda1 c33f bfa3 4c3e 9f7a c83e 9b9c a23f
00000010: 05cd 593e 2bd1 133e 1502 2a3d b584 0c3d
00000020: 7a71 b23d bbec 133e 5146 a23d 1fb0 753e
00000030: cbb0 853d 8168 543e 3be6 893d 8073 ba3d
1.5283791 0.19984339 0.39156052 1.2704042 0.21269615 0.1443526 0.04150589 0.034306247
0.0871305 0.14445774 0.07923568 0.23992966 0.06527861 0.2074299 0.06733366 0.09104061

convnorm1.running_var f4 [16]
00000000: 01c6 e83f 5bf9 8c3e c4a4 e83e 6b98 f83f
00000010: 715b a43e 75ff 473e 674c 2e3d b72e 403d
00000020: ca72 bb3d 86b6 4d3e 7f7a f53d f71a 523e
00000030: 9ea2 913d 2997 a33e 5421 ae3d 598f 263e
1.8185426 0.27533993 0.45438206 1.9421514 0.32101014 0.19531043 0.04255333 0.04691955
0.09152754 0.20089158 0.11986255 0.20518099 0.07111095 0.31951264 0.085024506 0.1626562

conv2.weight f4 [128, 16, 3, 3]
00000000: dd58 c9be d044 e5be f2b8 9dbe f617 0dbe
00000010: a7bf 9ebe 5506 a3be 069a efbe 5cc8 05bf
00000020: 8136 23bf f558 a03e ade7 263e 8b6d 123e
00000030: 4c30 f83d e54b 51bb 650c f6bc 39cb 823d
00000040: ffab 33be 5ff9 993e 94b4 8dbe 7057 c6be
00000050: 9480 fcbe a282 983c 76cf bebd dfb4 b7bd
00000060: 3549 9c3e 6f62 f4bc dc4e f73c e1f9 a0be
00000070: bb27 d2be cc3a 2bbf 7acc babe 17be 18bf
00000080: 00de 1a3e 70c6 69bf dffb 11bf 8318 f4be
00000090: 949d 8e3e 8e92 173e b9bd 893e 9b65 95be
000000a0: 90e4 6a3e 7a24 e93e e7b3 493e 8b89 873e
000000b0: 4439 b43d 7627 22bf 717d 1cbe a3e4 dabe
000000c0: 77a2 8f3d 61cd 0cbf 121f 02bf 1247 56bf
000000d0: 983a 52bf 22b8 853e ff70 f53e 297b db3e
000000e0: dc83 e03e 4ce0 d53e 9155 18bd 935b bf3e
000000f0: 8bf2 28bf 1ad7 a33e e3af c4be e3b9 1dbf
00000100: 76da e0be 1d18 fbbe 5145 34bf 5c89 9ebe
00000110: 156c 53bf 9302 80bf 1ea9 4fbf 72f4 67bf
00000120: 5ac6 0fbf 6d35 803e e00f 32be d02a 533d
00000130: b49c ddbc a80b 2b3c 6112 32bd d190 8ebe
00000140: cbee 65bd 2382 e9be 9299 dfbe c579 1abf
00000150: 7a6c d3be ab4a 3ebf ac0f 8cbe 214c 99be
00000160: 5e1d cdbe f332 0fbf c94d 28be 8768 e4bb
00000170: be5e 69be 64f4 39bc 73dd e2be dcb6 d9bd
00000180: cf4c c8bd 75ad dabd 7aa5 3d3e b446 1bbe
00000190: 374c 33be 5c28 493d fba7 9dbd c1ea 3d3e
000001a0: 98d8 083e a990 39bd 594c 88bd b0bb a83c
000001b0: 7f58 9ebe 3438 e6be c126 fd3d d42e 17bf
000001c0: ad0d bebe e587 80be 6645 7ebe fbf3 5ebe
000001d0: 8766 bebe 1972 2a3e ec10 fe3c aede 2c3e
000001e0: ebc9 a83e 7f6f ab3e 0664 7f3e f66a 0b3e
000001f0: 5fde 3f3e 7d96 0abe 4b4f 52be 1356 833e
00000200: e3f2 983e cd6c a73c 7fe4 193f 329e c7be
00000210: 588d d83e ee5b 14bf b520 a33e d759 20bf
00000220: 44da 34bf f3fe 73bf 5e8c 15bf 7143 89bf
00000230: fbd5 6fbf 2a3f a5bf 0660 99bf 002a 53bf
00000240: f9eb acbe 2fe6 3bbd 5992 9dbe c290 2dbe
00000250: 223d 80be 96fe 87be 4006 17be 2b50 76be
00000260: 3506 c6bd fd85 82be 021f acbe 6c48 803e
00000270: 6ee6 24be 1520 5e3e cb92 4ebe efcb 973e
00000280: df21 21be fb75 8dbd 653c 91be 648c 44bc
00000290: 253d 1ebf 7679 623d 9655 aabe 9c16 57bd
000002a0: 73a9 0bbf b1b9 38bd 72ae a93d 61b2 babe
000002b0: eda6 3ebe 12ac ccbe 48bd e23d 4718 8cbe
000002c0: c8e8 f6bd 0210 95be f4a7 abbd 23d4 183e
000002d0: cab5 443e d997 88bd 3c4a 863e e772 2dbe
000002e0: e7f6 4c3e 8766 ab3e 7a16 073e 702c 953e
000002f0: 212b b13d f441 17be 0ebe e63c f8fe 223e
00000300: ce1e 233e 91c5 8a3e 6f03 d2bd 7fc5 783e
00000310: 9142 c0bd 1b72 5a3e a6a5 943e cde0 c23d
00000320: 6f9a 613e e14b 403e 50a8 8f3d 0f38 de3e
00000330: d2c2 a53e 14c4 c53e 6909 ebbc 9278 fcbe
00000340: 1540 a4be 9c29 72be d59f e7be 5403 f9be
00000350: 0cb7 93be a826 49be 20c1 04bf a3f0 33be
00000360: 9044 573e 259e 773e a6d9 26be 307b 4a3e
00000370: 8c3f 3abe d1df 643e b2c6 9c3d 52a8 c33d
00000380: bb22 2e3e 1d16 5abf a430 22bf 9a97 1fbf
00000390: fdc7 97be 3746 3fbf 7c97 40bf ec71 39bf
000003a0: 9df7 26bf 54c7 7bbe 523b 3ebf bbd9 29bf
000003b0: d1e5 0ebe f803 46bf 3a55 25be 62b5 42bf
000003c0: e40e 1cbe 6f34 12bf 2d41 fbbe da7e 80bf
000003d0: d275 c5be e69a 64bd ff4a 2fbf bdb7 19bd
000003e0: e96a 85bf dc42 a63d b4f4 6cbf e817 0bbf
000003f0: aee5 97bf e537 463d 1fba c73e cb38 c13e
-0.3932561 -0.44779062 -0.30805165 -0.13778672 -0.31005594 -0.31840768 -0.46797198 -0.5225885
-0.6375504 0.3131787 0.16299315 0.142996 0.12118587 -0.0031936106 -0.030035207 0.06386418
-0.1754608 0.30073068 -0.27676833 -0.38738585 -0.49316847 0.018616978 -0.09316914 -0.08970045
0.30524603 -0.029832093 0.03018897 -0.31440642 -0.41045937 -0.6688659 -0.36484128 -0.59665054
0.15123749 -0.91318417 -0.5702495 -0.4767495 0.27854598 0.14802 0.2690256 -0.2917908
0.22938752 0.45535642 0.19697534 0.26472124 0.08799985 -0.6334146 -0.15282227 -0.4275256
0.070134096 -0.55000883 -0.5082866 -0.83702195 -0.82120657 0.26117045 0.47937772 0.428674
0.438506 0.41772687 -0.037190977 0.37374553 -0.6599509 0.32000047 -0.3841544 -0.61611766
-0.43916672 -0.49041834 -0.7041827 -0.30964172 -0.82586795 -1.0000786 -0.8111743 -0.9060737
-0.56162035 0.2504076 -0.17388868 0.0515545 -0.027052261 0.010439791 -0.04347456 -0.2784486
-0.056135934 -0.456071 -0.43671852 -0.60342056 -0.412937 -0.74332684 -0.27355707 -0.29940894
-0.40061468 -0.5593712 -0.16435923 -0.0069704684 -0.22790048 -0.011349771 -0.44309577 -0.10630581
-0.09780275 -0.106776156 0.18520156 -0.1516369 -0.17509542 0.049110755 -0.07698055 0.18546583
0.13363874 -0.045303974 -0.06655187 0.020597309 -0.30926892 -0.44964755 0.12360907 -0.5905583
-0.3711981 -0.2510368 -0.24831161 -0.21772759 -0.37187597 0.16645087 0.031013928 0.1688182
0.3296655 0.33483502 0.249405 0.13615021 0.18737172 -0.13533969 -0.2053806 0.25651607
0.29872808 0.020437622 0.6011428 -0.3898788 0.42295337 -0.57952774 0.3186089 -0.62637085
-0.70645547 -0.95310897 -0.5841731 -1.0723706 -0.93685883 -1.2909901 -1.1982429 -0.8248596
-0.33773783 -0.045873817 -0.30775717 -0.16949752 -0.2504664 -0.2656142 -0.14748478 -0.24054019
-0.09669153 -0.2549285 -0.33617407 0.25055254 -0.16103527 0.21691926 -0.20173185 0.29647776
-0.15735577 -0.069072686 -0.2836639 -0.011996362 -0.6181205 0.055291615 -0.33268422 -0.052511796
-0.54555434 -0.045098964 0.08285226 -0.36464217 -0.18618365 -0.3997503 0.11071259 -0.27362272
-0.12056118 -0.29113775 -0.08381644 0.14924674 0.19209972 -0.06669588 0.2622851 -0.16938363
0.20016061 0.3347666 0.13192168 0.29135466 0.08650804 -0.14771253 0.028166797 0.15917575
0.1592972 0.27103856 -0.10254561 0.24294089 -0.093876965 0.2133259 0.2903263 0.095155336
0.22031568 0.18778946 0.07014525 0.43402144 0.323752 0.38626158 -0.02869101 -0.49310738
-0.3208014 -0.23648685 -0.4523913 -0.48635352 -0.2885059 -0.19643652 -0.51857185 -0.17572264
0.21022248 0.24181421 -0.16293964 0.19773555 -0.18188304 0.22351004 0.076550856 0.09553589
0.17005436 -0.8518999 -0.6335547 -0.623407 -0.29644766 -0.74716514 -0.75231147 -0.72439456
-0.6522158 -0.24587756 -0.74309266 -0.66347855 -0.13954856 -0.77349806 -0.16145793 -0.7605802
-0.15240055 -0.5711126 -0.49073163 -1.0038712 -0.38566452 -0.055811785 -0.6847381 -0.037528742
-1.0423251 0.08118221 -0.9256089 -0.54333353 -1.1866968 0.04839315 0.39009187 0.37738642

conv2.bias f4 [128]
00000000: 60e8 c13c 3764 19bd c7c4 0d3e f4a5 9b3e
00000010: 18c9 8e3e c63a 9bbe 1ebb 39bc 2577 c83e
00000020: 62f6 6cbd 8b86 bdbd f7f3 7d3e 6e7d e83e
00000030: 6ab5 76bb 1d1b 063f 4ebc 0a3f f7a6 773e
00000040: 43f9 f2bb 2fe1 593e 19e6 d63e 5129 ef3d
00000050: b436 a53e afc8 13bd c659 853e b85a 25be
00000060: a61b 8cbe d95f be3e fe22 3e3e 007c bf3e
00000070: d637 1fbe 0460 353e 0d0f 283d ce6e 94be
00000080: f31f d93e c557 e43e d76f 0cbf 382c 9cbe
00000090: d9d4 c63e 6a80 073d 30bb 2bbe 7b4a 133f
000000a0: 42ac a3bd 987d e83e 2ed0 e93d 9926 3d3f
000000b0: 6c03 193f 6ef0 8ebd 823f 843d 1ecf 143e
000000c0: f78f 16be 3bf8 7fbd 0780 4a3e e559 a7be
000000d0: 3c9f 9dba 46fc 8c3e 4baf 963e 30c6 533f
000000e0: 36b5 b23e 4222 0c3e 9345 ab3e 30dc 9d3e
000000f0: 0e17 f93e e68a b1bc ac51 013f f64f 233f
00000100: 8643 4e3f 0f42 cf3e 4db9 643f 1785 4d3e
00000110: 2953 0f3f 17b3 e23e 85f8 00be 82ef 133f
00000120: 2d17 69be 3560 2c3f df95 a83e a792 e63e
00000130: 56ec adbc bc47 793e 6978 dfbe 687e f2bc
00000140: 131c 8d3e efeb 9c3e 83ed 753e 459a 7b3d
00000150: 7f58 8e3e bad0 cdbd 56ec 6fbd 335a 153f
00000160: b88d 0d3f 07c9 97be b035 033f 35d9 953e
00000170: cd40 7ebe e164 853e 5820 03bf 1f5e e63e
00000180: dcce 3bbe 282d b93e ae88 6b3e 6db7 ec3e
00000190: 2451 883e a180 4d3e 5e6b fc3e 64cd 68be
000001a0: c2b8 973c 3c80 293d 085d a03e 098a 9d3e
000001b0: 4644 0b3e 8bb5 353f 98f0 dd3d 95b4 193e
000001c0: 0e37 023f 51a5 a33d a7d6 9e3e 28d2 2c3e
000001d0: 8743 42bd 0cc9 1d3f 7cbd 0c3f 95aa 21be
000001e0: aa12 303e adb6 f93d 11ef 023f af0b a03d
000001f0: fd54 0f3e cb61 183f a7e0 983e c6d9 42bd
0.023670375 -0.037449088 0.13844596 0.3040005 0.27887797 -0.30318278 -0.011336116 0.391534
-0.057852156 -0.09254178 0.24800096 0.45408195 -0.0037644752 0.5238512 0.5419358 0.24184786
-0.007414968 0.21277307 0.41972426 0.11677802 0.32268298 -0.03608006 0.26045054 -0.16147888
-0.27364844 0.371825 0.18568036 0.37399292 -0.15548643 0.17712408 0.04102998 -0.28990787
0.42407188 0.44598213 -0.54858154 -0.30502486 0.38834265 0.03308145 -0.16770625 0.57535523
-0.0799184 0.4540832 0.1141666 0.7388702 0.59770846 -0.06979452 0.06457426 0.14532134
-0.14703356 -0.06249259 0.19775401 -0.32685772 -0.0012025605 0.2753622 0.29430613 0.82724285
0.34903878 0.13684943 0.33451518 0.30832052 0.48650402 -0.021672677 0.50515246 0.63793886
0.8057178 0.40480086 0.89345247 0.20070301 0.5598627 0.4427726 -0.12594803 0.57787335
-0.22762747 0.673343 0.32926843 0.45033762 -0.021230858 0.2434377 -0.43646553 -0.02960129
0.2756048 0.30648753 0.24016385 0.06142642 0.27801892 -0.10049577 -0.058574997 0.5834076
0.5529437 -0.2964556 0.51253796 0.29267278 -0.24829407 0.26053527 -0.5122123 0.44993684
-0.1834063 0.36167264 0.23001358 0.46233693 0.26624405 0.200686 0.49300665 -0.227346
0.018520717 0.04138206 0.31320977 0.30769375 0.13600263 0.7098014 0.10836905 0.15010293
0.50865257 0.07990516 0.31023142 0.16877043 -0.04742768 0.616349 0.5497663 -0.15787728
0.1719462 0.12193046 0.51146036 0.078147285 0.13997264 0.5952422 0.29858896 -0.047570966

linear.weight f4 [17, 128]
00000000: 855d 03bf 92da f8be bcd1 f9bd 6e3e a6be
00000010: 309f a3be b58f e3bc 46e0 63bf 5345 61bf
00000020: 9ae2 793f 5132 79be 0dd3 e6be 94e0 4d3f
00000030: 56b1 adbe fd54 a7bd 1b99 3abf f545 cbbe
00000040: b961 15bf da9a 3cbf 7a15 e9be 2f6c 9f3e
00000050: 2320 04bf ab4e bebd d71c 9cbd 3a02 86be
00000060: bf05 8ebe d9f3 28bf 1aaa acbe ced8 893d
00000070: 8c4f 84bd bb8f 78bc b100 8c3d 1921 d8be
00000080: c401 12bf ec3f 0c3f 8074 75be 12a6 e63d
00000090: 52a8 8e3e 972d 91be 0f38 31bf 95fc 303e
000000a0: aefc 03bf 3b45 243d 8d00 f3be 7054 8fbe
000000b0: edf4 4dbe 0eda d7be 7ef6 8dbf cde0 213e
000000c0: 2c7d 9bbe 38f5 a7be 9b72 52be ac3e 243e
000000d0: 5092 a2be f983 d7be 3dbc a83e 26e3 29bc
000000e0: 1c88 0b3e 61f2 d3bd d037 853f 3f78 b5bc
000000f0: 8592 d53e 8959 26bd f83d a5bc 0819 733e
00000100: 6526 d4be 5256 983e 7de9 91bb 6256 de3d
00000110: c6c9 413e 9b37 a03f 95e1 6f3e d9be c13e
00000120: 4aff 61be 4ef3 a13e 45df 54bd d680 80be
00000130: 0f67 65bd 427e 443f 0287 97bf a0c4 3ebe
00000140: 3e9c aa3e 791b bc3e 9ac3 753e 7509 3abd
00000150: ca50 a0be 10e6 ee3e 20c2 abbe 4e2d 1bbe
00000160: ff3f 973e 3569 ecbd d0cc fabe 9260 77bd
00000170: e9d2 833e 0035 763e 9f23 4dbd 9371 abbf
00000180: 44d2 63bf 4b93 c13d 74ab 7b3e 8653 b83c
00000190: 20d8 0d3f 1f28 9e3e 417d 8f3e c96e 22bf
000001a0: d43d 153f 9c7d d53e abbd f2be 27be b8be
000001b0: b841 ffbd 7366 16be 51d4 3b3f 8390 ac3e
000001c0: 039a 9f3e 8f2e b93e 7e1b 08be 4a9a b23e
000001d0: d4d7 a6bd db8f eabe 1473 4ebf 80f9 66bf
000001e0: 53b0 eabd e128 f93e 86ca 9fbe ada5 ce3e
000001f0: 5259 c03e 0b5f e2bd 50fd 10bf c127 da3e
00000200: 3ec2 3e3e e736 9a3e e6d9 383d 60a5 62be
00000210: fd36 e63c 256e 89bd 01fb 323e e062 cf3d
00000220: 4dc8 9ebe 102a 9b3e a452 f83d 59f6 88be
00000230: 6fbb 1abe 9491 093f 499c 2b3f bb3f a53c
00000240: 090f 193e 7415 4dbf 2195 1dbe dbb8 1fbf
00000250: 5230 253c a209 3b3d 442f 51be 145d bcbd
00000260: 7340 bb3d df39 9dbd 9ca0 a1bd c5fc 59bd
00000270: f640 19bf 41b5 eabe 1112 63bd a38f cf3e
00000280: 231b 9cbe 8639 db3f c2bc 62bd 6ada 67be
00000290: 3b51 07be 65d3 3abf fc29 7e3c db6d 89be
000002a0: 3e84 80bf 66e5 70bf 5e5f 85bd 5beb e03d
000002b0: 4a66 b6bd cd43 c4be f940 1ebe 6a14 d1bd
000002c0: 00fa 903d 8a49 26bf 1df7 273e 1fd4 0dbf
000002d0: d6f4 0e3e e8fe 39bf 71d9 6d3e 8d90 f1bc
000002e0: 9b72 5a3e 6257 203e b5cc 96bc 8e38 393f
000002f0: b60a 09bf e17c d13c 59d4 c6bd 2179 d13d
00000300: a5dc 3abd 4736 a1bd 96c0 1ebf 00b2 cebe
00000310: 0077 853c 65ce 8abe 79fb cbbe 3b22 d53d
00000320: 0278 b4be ca73 2dbe 019e 7abe 8d91 06be
00000330: 858b 483f 6d13 a3be 7aea 71bd ef96 c63d
00000340: 8e40 00bf d2cd 4e3e b625 ae3d b275 f63e
00000350: 896f 5a3e 4301 8bbf 6a7a 913e de85 6e3f
00000360: 1b5a e13e bcdd 8fbf f635 08be 2988 0dbe
00000370: 0683 74bd d4d3 01be 959d bdbe b07c 3cbf
00000380: e6fc b5be fc39 173e 52c2 d63e 8eec 8abe
00000390: 5efd 7ebe cabd 2d3e cd4c a8be cc84 59be
000003a0: 34a9 16be 4511 f53e 646b 64be 45a9 d8be
000003b0: dc83 f63c 33ce d4be bfef 083f 2ea9 273f
000003c0: 6b01 9d3e a6c1 78bf 3e3b fabe 7436 353f
000003d0: 0c18 ebbe 0657 f0bc e140 55be 8d29 e93d
000003e0: 6918 b8be 6337 a4bd fb24 83be c929 c7be
000003f0: 355e e73e 71e8 d33e fcd5 283d 5d2a a83e
-0.51314574 -0.48604256 -0.12198207 -0.32469505 -0.31957388 -0.027778486 -0.8901409 -0.87996405
0.9761139 -0.243356 -0.45082894 0.80420804 -0.3392436 -0.08170507 -0.7288987 -0.3970181
-0.5835224 -0.73673785 -0.45524198 0.31137225 -0.51611537 -0.092923485 -0.07622688 -0.26173574
-0.2773876 -0.6599708 -0.33723527 0.06730805 -0.06460485 -0.015170987 0.068360694 -0.42212752
-0.57033944 0.5478504 -0.23970222 0.11262144 0.27862793 -0.28355095 -0.69226164 0.17283852
-0.51557434 0.040105086 -0.47461358 -0.27994108 -0.20112963 -0.4215855 -1.1090848 0.15808411
-0.30368936 -0.32804275 -0.20551531 0.16039532 -0.31752253 -0.42092875 0.32956114 -0.010369098
0.1362614 -0.103489645 1.0407658 -0.022152064 0.41713348 -0.04061273 -0.02017115 0.23740017
-0.41435543 0.29753357 -0.004452883 0.1085632 0.18924627 1.251697 0.23425896 0.37840918
-0.22070041 0.3163094 -0.05197074 -0.25098294 -0.056006487 0.76755154 -1.1838076 -0.18629694
0.33322328 0.3673971 0.24000397 -0.045419175 -0.31311637 0.466599 -0.33546543 -0.15154001
0.29541013 -0.11543504 -0.48984385 -0.06039483 0.2574685 0.24043655 -0.0500828 -1.3394035
-0.88992715 0.09451922 0.24577123 0.022500765 0.55407906 0.30889985 0.2802525 -0.63450295
0.5829747 0.41697395 -0.4741033 -0.36082575 -0.12463707 -0.14687519 0.73370844 0.33704004
0.3117219 0.36168334 -0.13291737 0.34883338 -0.08146635 -0.45812878 -0.80644345 -0.90224457
-0.114594124 0.48664 -0.312092 0.40360776 0.37568146 -0.11053284 -0.56636524 0.42608455
0.18628785 0.30120012 0.04512968 -0.22133398 0.028102392 -0.067104615 0.17478563 0.10126281
-0.31012192 0.3030553 0.121251374 -0.26750448 -0.15110563 0.5373776 0.6703535 0.02017199
0.14947142 -0.8011086 -0.1538892 -0.6239144 0.010082321 0.045663483 -0.20428187 -0.09197441
0.09143152 -0.07677054 -0.07891962 -0.053219575 -0.5986475 -0.4584141 -0.05543715 0.40539274
-0.30489454 1.712693 -0.055355795 -0.22641912 -0.1321458 -0.7297881 0.01551294 -0.26841626
-1.0040357 -0.94100034 -0.065123305 0.109823905 -0.08906229 -0.38332978 -0.15454473 -0.10208972
0.07078934 -0.6495596 0.1640286 -0.55401796 0.13960585 -0.7265458 0.23227479 -0.029487872
0.21332781 0.15658334 -0.018408159 0.7235192 -0.5353197 0.025572242 -0.09708471 0.10228182
-0.04562058 -0.07871681 -0.6201261 -0.40370178 0.016292095 -0.27110592 -0.39840296 0.104069196
-0.3524781 -0.16938701 -0.24474336 -0.1314146 0.7833789 -0.31850758 -0.059061505 0.09696757
-0.500985 0.20195702 0.085032865 0.4813667 0.2133161 -1.085976 0.28413707 0.93173015
0.44014058 -1.1239543 -0.13301834 -0.13821472 -0.059695266 -0.12678462 -0.37034288 -0.7362776
-0.3554451 0.14768213 0.4194513 -0.27133602 -0.2490134 0.1696693 -0.32871094 -0.21242064
-0.14712983 0.47864738 -0.22306591 -0.42316642 0.030092172 -0.41563568 0.53490824 0.6549252
0.30665144 -0.97170484 -0.48873323 0.70786214 -0.45916784 -0.029338371 -0.2082553 0.11384878
-0.35956123 -0.08018377 -0.2561415 -0.38899067 0.45189062 0.41388276 0.041219696 0.3284482

linear.bias f4 [17]
00000000: a3fb 523c f53d 89be 0591 c7bc c539 76bf
00000010: eedb 9bbe ac99 36bc a47c 8cbf 3756 1ebf
00000020: 2abe 143e 2cca 1bbf a9cc f3be c55c 13be
00000030: d16e 86be 296b 9d3b a653 8bbf 1abd cabe
00000040: 5ae0 42bf
0.012877378 -0.26805082 -0.024361143 -0.961819 -0.3044123 -0.011145037 -1.0975537 -0.61850303
0.14525667 -0.60855365 -0.4761708 -0.14390858 -0.2625642 0.0048040343 -1.0884902 -0.39597398
-0.76123583
