Code/model_Valetudo.pt (torch, 103802 bytes, 16 tensors)

conv0.weight f4 [8, 3, 10, 10]
0.21714422 -0.2845023 0.080933966 0.35277328 -0.07996642 0.17827842 -0.036267966 -0.33996022
0.098127164 -0.049312714 -0.4868589 0.08960188 -0.11842297 -0.45049524 0.31495115 0.2420972
-0.19276068 0.37098756 0.124592625 -0.115494385 -0.01522223 -0.044479545 0.24709092 -0.049491946
-0.09140017 0.083962984 -0.2534505 0.012408666 -0.060236774 -0.02937615 0.2662968 -0.11255245
0.2742561 0.26928803 -0.039858036 0.19787534 -0.14334957 -0.22839868 0.108794324 -0.003266212
-0.57715267 0.22498469 0.05222184 -0.34230608 0.48711625 0.41310003 0.0533975 0.50451124
-0.002369501 -0.1370262 0.23655377 -0.0022688524 0.41197225 -0.054618295 -0.306721 0.06539615
-0.22649023 -0.062036805 0.047960803 -0.02565969 0.2731725 0.3295736 0.09498823 -0.051498234
0.11597416 0.014452738 -0.2838901 0.07922362 0.0060781604 0.17898896 -0.28618115 0.12018727
-0.063826345 -0.1784202 0.34515908 0.38847697 0.38760543 0.4151984 -0.18096815 0.24400909
-0.17392221 -0.17621715 0.38494498 -0.2592597 -0.22449946 0.33936456 -0.33709088 -0.13357908
0.13483444 -0.25726572 0.00949349 0.10224319 -0.24146228 -0.38466942 -0.15642574 -0.20087847
-0.36863807 -0.00047410763 -0.15912634 -0.04858563 -0.034448273 0.03705841 -0.12537287 0.09115132
0.32008708 0.46108428 0.34859714 -0.21012 -0.43343616 -0.10939609 0.03125628 0.12238888
0.07191551 -0.08200232 -0.19745733 0.16431326 0.20251091 0.17099507 0.29778305 -0.04301713
0.17745739 -0.12061536 0.3628366 0.21181351 -0.18733095 0.24927 -0.13163182 -0.267373
0.4834321 0.37170446 0.20910671 0.22494479 -0.17607577 -0.060138844 0.11593984 0.3181066
0.11641379 -0.33100247 -0.37565175 -0.13956784 -0.3596417 -0.06909223 -0.23433417 -0.31274062
-0.2729293 -0.049528513 0.074334644 -0.0034247816 -0.006091012 -0.2941241 -0.067659646 -0.38113624
0.13604191 0.14473207 -0.25097072 0.13983944 -0.09398756 -0.37770924 0.4073132 0.19954884
0.06852543 0.24002251 -0.15367827 0.08049434 0.31140095 0.3953589 0.10895473 -0.35468468
-0.305584 -0.39322352 0.14826986 0.31400585 -0.029410055 -0.07902857 -0.057551585 0.036587007
0.2260222 0.34824777 0.23414642 0.15643708 -0.064697094 -0.19732843 0.07749102 0.13116656
-0.082746364 -0.06636016 -0.13132535 -0.24810064 0.20116669 0.27525738 0.13748564 -0.112453416
-0.15694022 0.321106 0.15922323 0.39801732 0.34254575 -0.6228423 -0.5307218 -0.34460372
0.71623904 0.5857241 0.8518298 0.42578274 0.17018779 0.56620765 0.24428171 -0.045952488
0.24224551 0.4657755 0.15681691 0.21110834 -0.007608997 -0.21495295 -0.055573907 0.038043
0.17832278 0.07379554 -0.12554279 5.3050702e-05 -0.027261088 -0.19077916 -0.13155782 -0.05390721
0.04896848 0.18385406 0.26085532 0.087950155 0.05033847 0.303493 -0.0058351043 0.048522994
0.49528515 -0.31947905 -0.14459455 0.4430577 -0.4338447 -0.31047946 0.24939467 -0.06781547
-0.05957706 0.025805151 -0.15641455 -0.29142725 0.14105651 -0.20273341 -0.11734629 0.08170629
-0.41868505 -0.14011006 -0.0026679216 -0.3337597 -0.16974959 0.1302237 -0.17250954 0.011708902
00000000: 0e5b 5e3e 49aa 91be b5c0 a53d b39e b43e
00000010: 6fc5 a3bd 9e8e 363e b88d 14bd 440f aebe
00000020: e5f6 c83d 21fc 49bd 9245 f9be 3181 b73d
00000030: be87 f2bd 50a7 e6be 4741 a13e 54e8 773e
00000040: 0e63 45be 15f2 bd3e 6b2a ff3d 5288 ecbd
00000050: a966 79bc 2f30 36bd 6705 7d3e 11b8 4abd
00000060: 0330 bbbd c9f4 ab3d 44c4 81be b84d 4b3c
00000070: d6ba 76bd 40a6 f0bc 0e58 883e e681 e6bd
00000080: 4c6b 8c3e 1fe0 893e 2e42 23bd d59f 4a3e
00000090: 3bca 12be 58e1 69be 8fcf de3d f20d 56bb
000000a0: 47c0 13bf 6362 663e 91e6 553d be42 afbe
000000b0: 4d67 f93e d981 d33e 56b7 5a3d a627 013f
000000c0: a149 1bbb 9950 0cbe 273b 723e 07b1 14bb
000000d0: 07ee d23e 6fb7 5fbd 890a 9dbe 6bee 853d
000000e0: 0eed 67be 4e1a 7ebd 8c72 443d 4534 d2bc
000000f0: 44dd 8b3e dfbd a83e 3089 c23d d0ef 52bd
00000100: dc83 ed3d 2dcb 6c3c 0b5a 91be fe3f a23d
00000110: 4e2b c73b e248 373e 5686 92be be24 f63d
00000120: 63b7 82bd c9b3 36be b1b8 b03e 74e6 c63e
00000130: 3874 c63e e294 d43e b74f 39be 85dd 793e
00000140: aa18 32be 4572 34be 8217 c53e b0bd 84be
00000150: 30e3 65be 31c1 ad3e 2d97 acbe f4c8 08be
00000160: 0a12 0a3e 55b8 83be 958a 1b3c e164 d13d
00000170: e341 77be 64f3 c4be 122e 20be 16b3 4dbe
00000180: 21be bcbe a691 f8b9 04f2 22be ba01 47bd
00000190: a219 0dbd 8fca 173d bf61 00be 8bad ba3d
000001a0: 74e2 a33e 3d13 ec3e 537b b23e b329 57be
000001b0: 58eb ddbe 0f0b e0bd 9606 003d 05a7 fa3d
000001c0: 7048 933d d5f0 a7bd 4132 4abe bc41 283e
000001d0: 055f 4f3e 5519 2f3e 0577 983e bb32 30bd
000001e0: 64b7 353e 3005 f7bd b8c5 b93e a4e5 583e
000001f0: afd3 3fbe a340 7f3e 7eca 06be 1de5 88be
00000200: 6a84 f73e 0c50 be3e 1220 563e ed57 663e
00000210: 354d 34be 2654 76bd de71 ed3d dede a23e
00000220: 5a6a ee3d 2879 a9be 6d55 c0be dfea 0ebe
00000230: f522 b8be 3a80 8dbd 4cf5 6fbe 8a1f a0be
00000240: 64bd 8bbe 69de 4abd c33c 983d 4d72 60bb
00000250: 1d97 c7bb 6f97 96be 2491 8abd 4a24 c3be
00000260: 924e 0b3e a534 143e 3c7f 80be 1232 0f3e
00000270: 8d7c c0bd 1b63 c1be 5b8b d03e 8856 4c3e
00000280: 1057 8c3d 76c8 753e d65d 1dbe 37da a43d
00000290: f26f 9f3e 7b6c ca3e a823 df3d 3b99 b5be
000002a0: 8275 9cbe 9854 c9be 0ed4 173e 60c5 a03e
000002b0: 5bed f0bc bbd9 a1bd 36bb 6bbd 42dc 153d
000002c0: 5d72 673e 884d b23e 14c4 6f3e 0b31 203e
000002d0: e97f 84bd 7710 4abe 9db3 9e3d 8750 063e
000002e0: ed76 a9bd d6e7 87bd 277a 06be 180e 7ebe
000002f0: a4fe 4d3e 89ee 8c3e 09c9 0c3e fa4d e6bd
00000300: f0b4 20be 0168 a43e 6a0b 233e edc8 cb3e
00000310: 2862 af3e 9872 1fbf 62dd 07bf e66f b0be
00000320: 715b 373f 04f2 153f 8511 5a3f 3200 da3e
00000330: b545 2e3e fcf2 103f fc24 7a3e ad38 3cbd
00000340: 350f 783e 207a ee3e 9d94 203e c92c 583e
00000350: e554 f9bb a01c 5cbe 77a1 63bd fad2 1b3d
00000360: 3f9a 363e 1e22 973d 4a8e 00be c282 5e38
00000370: a552 dfbc 9d5b 43be 18b7 06be cecd 5cbd
00000380: 2c93 483d 3d44 3c3e d48e 853e 361f b43d
00000390: b62f 4e3d 6f63 9b3e 6734 bfbb 0cc0 463d
000003a0: 0496 fd3e c292 a3be 9810 14be 75d8 e23e
000003b0: e420 debe 2af7 9ebe 5161 7f3e d6e2 8abd
000003c0: 1307 74bd 5365 d33c 232b 20be f435 95be
000003d0: 1e71 103e 5999 4fbe 4053 f0bd a155 a73d
000003e0: e35d d6be 0379 0fbe 4cd8 2ebb 8de2 aabe
000003f0: d6d2 2dbe 5d59 053e 57a6 30be b2d6 3f3c

conv0.bias f4 [8]
0.031647254 0.04356476 0.03282775 -0.0034454707 -0.030629532 -0.024875646 -0.00071376434 0.030255517
00000000: 8da0 013d f670 323d 6476 063d 68cd 61bb
00000010: c9ea fabc 03c8 cbbc ea1b 3bba 6bda f73c

bn0.weight f4 [8]
1.0132316 0.5736832 1.0596007 0.63780195 0.79317445 0.8989843 1.6502308 0.8335505
00000000: 93b1 813f e7dc 123f ffa0 873f fd46 233f
00000010: 7b0d 4b3f d623 663f c33a d33f 9163 553f

bn0.bias f4 [8]
0.11860685 -0.14317507 -0.059118748 -0.10013739 -0.077345334 0.10445208 0.5207662 0.13952431
00000000: 26e8 f23d 7c9c 12be 8026 72bd d514 cdbd
00000010: 3b67 9ebd f9ea d53d ef50 053f 76df 0e3e

bn0.running_mean f4 [8]
-72.0312 1053.5693 -351.90967 138.75398 -125.56275 -15.368614 -7.619651 85.06189
00000000: f90f 90c2 38b2 8344 70f4 afc3 05c1 0a43
00000010: 2120 fbc2 d8e5 75c1 2ed4 f3c0 b01f aa42

bn0.running_var f4 [8]
128541.445 435225.84 172280.55 194945.77 111582.805 42209.867 20562.072 291609.28
00000000: b90e fb47 3b83 d448 233e 2848 7160 3e48
00000010: 67ef d947 dee1 2447 25a4 a046 2963 8e48

conv1.weight f4 [16, 8, 3, 3]
-0.096311994 0.19356412 0.13672489 0.4794211 0.06862217 0.3334275 0.110162966 -0.47398415
-0.3900028 -0.092799634 -0.30631262 -0.6696339 -0.405558 0.16299213 -0.27619138 0.15168084
0.13583617 -0.23639119 -0.12743531 0.024675673 -0.30589247 -0.648942 -0.3954604 -0.256584
-0.07561089 -0.003464227 0.053394392 -0.026973931 0.20198324 -0.38909525 -0.32789722 0.058288775
0.2893333 0.33192757 -0.5298339 -0.1092085 0.4535933 0.00012667221 -0.2894095 0.19409694
-0.29839218 0.26802236 -0.030274272 0.14022858 0.12443532 0.14636649 -0.21977444 -0.3288312
0.19458218 -0.04709499 -0.035974376 -0.36823627 -0.21044132 0.0050147693 -0.4989902 0.36693254
-0.04865994 0.07996857 -0.21412991 0.35556245 -0.38325128 0.22081153 -0.40466085 -0.11174333
0.13002652 -0.29421467 -0.17393173 0.09014191 -0.2902058 0.32078475 -0.109910645 -0.7444794
-0.005166472 -0.12293255 0.52991635 0.05152743 0.5510708 -0.0906184 0.5484424 0.003670235
0.02046778 -0.0047245785 -0.38407898 -0.3848719 0.2938464 0.16654283 0.66467243 -0.18499123
0.40577668 -0.0017622124 -0.07211435 -0.37794745 0.13919015 -0.2552934 0.32583383 0.0344567
0.53247374 0.22998174 0.16688201 -0.20959496 -1.075252 -0.036117632 -1.4302368 -0.53390497
-0.69293064 0.11497904 -0.17526037 -0.0046226913 0.20641601 0.36410123 -0.08990739 0.18122047
0.25728083 0.07505714 -0.063517734 0.10391644 -0.31667376 -0.09240962 -0.09683729 0.066856354
-0.26963148 0.11000631 -0.04109761 0.08902414 0.102876954 -0.047907073 0.26175454 -0.43075275
0.20820668 -0.27274412 -0.04430072 -0.07216011 0.19061275 0.24723195 -0.36963975 -0.37296495
-0.11529839 -0.06503471 -0.045627672 0.039219987 -0.16244292 0.18581593 -0.1879209 0.003932311
0.39622036 0.12446381 -0.19297019 0.13595824 -0.38460273 0.4252765 0.068110034 -0.08950934
0.09975623 -0.14068949 0.12789898 -0.047086593 -0.48294148 0.25291204 -0.07067665 -0.39140874
-0.2969118 0.2666603 0.24026665 -0.23667674 -0.0062983204 -0.47749355 0.09329187 -0.52853787
-0.36693403 -0.104575455 0.039463766 -0.10703067 -0.21608944 -0.014806796 -0.026827468 0.09829225
0.068067625 0.55555195 0.4449338 -0.02972959 -0.2100545 -0.19748545 0.27808475 0.11041526
-0.009737922 0.10476505 0.40523753 -0.12596191 -0.25376636 0.09964153 0.03943454 -0.1738382
0.22557212 -0.33747327 0.3590469 -0.1378281 -0.7833083 -0.1164991 -0.096734814 0.15842696
-0.16504562 0.07131097 0.20492792 0.10035654 -0.33180824 -0.34496596 0.23414332 -0.028200088
-0.1333972 -1.4769242 0.25895193 0.122260064 -0.040901862 0.3380628 -0.074779294 0.04219044
-0.17073041 -0.44636044 -0.28668657 0.2412861 0.16194099 0.33885512 0.08627824 -0.053920347
0.105053015 0.13922705 0.092638746 0.21068898 -0.07712834 0.050985802 0.007035775 -0.054664526
-0.05463425 -0.20668562 -0.38617468 0.018806025 -0.016530037 -0.25139907 -0.32940596 -0.2556329
0.24336177 0.51077545 0.24301444 0.2992421 0.03199277 -0.14778902 -0.023298407 0.09572314
0.18479344 -0.095482685 -0.21233486 0.04726303 0.031805057 0.18282369 -0.12987402 0.12112186
00000000: 393f c5bd ac35 463e 9c01 0c3e af76 f53e
00000010: c889 8c3d 02b7 aa3e 1f9d e13d 0dae f2be
00000020: 72ae c7be bc0d bebd 02d5 9cbe 216d 2bbf
00000030: 4ca5 cfbe 69e7 263e f568 8dbe 3952 1b3e
00000040: a318 0b3e 8810 72be 677e 02be a324 ca3c
00000050: f09d 9cbe 1021 26bf c979 cabe fa5e 83be
00000060: e2d9 9abd 1608 63bb 14b4 5a3d 6ff8 dcbc
00000070: b2d4 4e3e 7e37 c7be 25e2 a7be 36c0 6e3d
00000080: 7f23 943e 69f2 a93e 32a3 07bf b5a8 dfbd
00000090: 623d e83e 50d3 0439 7b2d 94be 59c1 463e
000000a0: dcc6 98be 3a3a 893e c001 f8bc 1598 0f3e
000000b0: f2d7 fe3d 19e1 153e 8d0c 61be 905c a8be
000000c0: 8d40 473e ade6 40bd de59 13bd 7789 bcbe
000000d0: ee7d 57be ef52 a43b a57b ffbe 95de bb3e
000000e0: a54f 47bd 90c6 a33d df44 5bbe 480c b63e
000000f0: 8339 c4be 6b1c 623e b52f cfbe b0d9 e4bd
00000100: ac25 053e 4ea3 96be 291b 32be 529c b83d
00000110: db95 94be e63d a43e d518 e1bd 3496 3ebf
00000120: 824b a9bb 10c4 fbbd 99a8 073f 6d0e 533d
00000130: fa12 0d3f 2496 b9bd b966 0c3f 5388 703b
00000140: 0cac a73c a3d0 9abb 00a6 c4be ee0d c5be
00000150: 0973 963e 348a 2a3e f927 2a3f 576e 3dbe
00000160: f6c1 cf3e 09fa e6ba b0b0 93bd 5482 c1be
00000170: dd87 0e3e d1b5 82be b1d3 a63e 7822 0d3d
00000180: 3350 083f 5580 6b3e 1ee3 2a3e 10a0 56be
00000190: dca1 89bf 15f0 13bd 0012 b7bf ffad 08bf
000001a0: e763 31bf 227a eb3d 7477 33be f279 97bb
000001b0: b85e 533e 7a6b ba3e 5e21 b8bd dc91 393e
000001c0: 50ba 833e 8fb7 993d 9615 82bd 24d2 d43d
000001d0: 1023 a2be 4141 bdbd a152 c6bd fceb 883d
000001e0: 230d 8abe fd4a e13d f855 28bd 4a52 b63d
000001f0: 27b1 d23d 353a 44bd b104 863e a08b dcbe
00000200: 2234 553e 1ea5 8bbe ac74 35bd aec8 93bd
00000210: fd2f 433e 5f2a 7d3e 6c41 bdbe 43f5 bebe
00000220: 9021 ecbd eb30 85bd 15e4 3abd 23a5 203d
00000230: 7057 26be 8846 3e3e 566e 40be 9eda 803b
00000240: 65dd ca3e e2e6 fe3d fa99 45be a338 0b3e
00000250: a6ea c4be d7bd d93e 467d 8b3d ac50 b7bd
00000260: ff4c cc3d e810 10be f3f7 023e dfdd 40bd
00000270: 1b44 f7be b07d 813e ebbe 90bd ba66 c8be
00000280: d304 98be b387 883e 7608 763e 635b 72be
00000290: 2462 cebb 097a f4be cf0f bf3d 424e 07bf
000002a0: c7de bbbe a82b d6bd c2a4 213d e532 dbbd
000002b0: 8d46 5dbe 3498 72bc 47c5 dbbc 724d c93d
000002c0: 0a67 8b3d a738 0e3f 5dce e33e 788b f3bc
000002d0: 8718 57be a039 4abe 2061 8e3e 6521 e23d
000002e0: ce8b 1fbc 0f8f d63d 4b7b cf3e 29fc 00be
000002f0: aaed 81be dc10 cc3d 1d86 213d a402 32be
00000300: 61fc 663e 4cc9 acbe ffd4 b73e cf22 0dbe
00000310: e586 48bf 1597 eebd e71c c6bd ad3a 223e
00000320: b801 29be 7c0b 923d a0d8 513e bb87 cd3d
00000330: c5e2 a9be 619f b0be 44c3 6f3e df03 e7bc
00000340: 4799 08be da0b bdbf 5995 843e 7c63 fa3d
00000350: b688 27bd 9116 ad3e e325 99bd e2cf 2c3d
00000360: f4d3 2ebe 5b89 e4be 95c8 92be b413 773e
00000370: dcd3 253e 6b7e ad3e a5b2 b03d 95db 5cbd
00000380: 0926 d73d 8991 0e3e 62b9 bd3d dabe 573e
00000390: 77f5 9dbd 7dd6 503d 5c8c e63b e9e7 5fbd
000003a0: 2ac8 5fbd 65a5 53be b0b8 c5be 180f 9a3c
000003b0: 006a 87bc 61b7 80be e6a7 a8be 51e2 82be
000003c0: d433 793e 2ec2 023f c7d8 783e 4336 993e
000003d0: da0a 033d 0156 17be 4ddc bebc 7e0a c43d
000003e0: 7e3a 3d3e 6d8c c3bd 4f6e 59be e196 413d
000003f0: 0546 023d 2236 3b3e b2fd 04be bd0e f83d

conv1.bias f4 [16]
0.10114108 -0.012865601 -0.2844733 0.16302474 0.5344532 0.3818369 0.11986657 0.008038212
0.0675057 0.030274749 -1.4702419 0.2579606 0.8936869 1.2675022 0.033762768 0.34921506
00000000: 0e23 cf3d 3eca 52bc 7ca6 91be f5ef 263e
00000010: edd1 083f 2080 c33e 9b7c f53d b4b2 033c
00000020: 6e40 8a3d c002 f83c e330 bcbf 6913 843e
00000030: aac8 643f 833d a23f d44a 0a3d 51cc b23e

convnorm1.weight f4 [16]
1.5081714 1.2543366 1.5840774 1.5774856 1.583187 1.1663107 1.5066894 1.513246
1.651405 1.9206452 1.8915347 1.7727627 1.4080501 1.2919091 1.7946904 0.98271
00000000: c30b c13f 1a8e a03f 0cc3 ca3f 0ceb c93f
00000010: dfa5 ca3f ab49 953f 33db c03f 0cb2 c13f
00000020: 3d61 d33f b4d7 f53f cf1d f23f e3e9 e23f
00000030: fc3a b43f 475d a53f 6ab8 e53f e292 7b3f

convnorm1.bias f4 [16]
0.28964606 0.14569248 0.357039 0.43659395 0.41553336 0.27701306 0.4613281 0.33733958
0.40279475 0.30682716 -0.15197873 0.43687713 0.5432391 0.52746075 0.3561669 0.30093503
00000000: 7d4c 943e 6930 153e d1cd b63e 3e89 df3e
00000010: cac0 d43e a8d4 8d3e 3233 ec3e c6b7 ac3e
00000020: 1d3b ce3e 7318 9d3e 50a0 1bbe 5cae df3e
00000030: b811 0b3f ab07 073f 825b b63e 2814 9a3e

convnorm1.running_mean f4 [16]
0.062337525 0.4939285 0.11014449 0.43618888 0.14426109 0.13821717 0.30719194 0.32531604
0.09581328 0.23883489 0.45275915 0.08682728 0.20506823 0.5574664 0.19267574 0.1534364
00000000: a255 7f3d 32e4 fc3e 6f93 e13d 2654 df3e
00000010: 2eb9 133e cd88 0d3e 4348 9d3e d38f a63e
00000020: c139 c43d 2291 743e 0cd0 e73e 80d2 b13d
00000030: 68fd 513e 1eb6 0e3f ca4c 453e 6f1e 1d3e

convnorm1.running_var f4 [16]
0.07572416 0.62039846 0.123997726 0.7836664 0.17415129 0.16431774 0.55406314 0.5062628
0.10659558 0.35426834 0.59118915 0.09172122 0.22196564 0.5985164 0.23561272 0.18991427
00000000: 4515 9b3d 6fd2 1e3f 85f2 fd3d 5c9e 483f
00000010: b754 323e e942 283e 15d7 0d3f 709a 013f
00000020: c94e da3d a962 b53e 2c58 173f 56d8 bb3d
00000030: f64a 633e 5f38 193f 7644 713e e378 423e

conv2.weight f4 [128, 16, 3, 3]
-0.4989313 -0.25618872 -0.29766786 -0.00531672 -0.270749 -0.34805948 -0.22916351 -0.11244893
0.021903895 0.046825808 0.14832431 0.10185447 -0.004649256 0.054806814 -0.02162732 -0.03773967
-0.15535627 -0.033104263 -0.02159771 -0.030412061 0.117079705 -0.28406703 0.044594467 -0.14157097
-0.057655953 -0.1919663 -0.2075212 -0.31057802 -0.17495306 0.06402086 0.06809 -0.46974605
-0.5446155 -0.4103618 -0.23168936 -0.20896439 -0.110621296 -0.023747034 -0.21958512 0.29988718
-0.03535685 0.05263782 0.06727313 0.052276026 0.10661978 -0.29620287 -0.47306797 -0.41481858
0.020762673 -0.005917832 0.003737656 0.005083228 0.043652378 0.18848212 -0.08201688 0.03133615
0.02882784 -0.009589858 -0.13358907 -0.043783855 -0.0059125926 -0.09425029 0.05277967 -0.16646089
0.043753814 -0.5076414 -0.28015098 -0.46713597 0.0032841964 -0.6498079 0.1603357 -0.21964851
0.17556627 -0.19521391 0.14033078 -0.075948834 -0.060944714 0.047169443 0.115943044 0.23847926
-0.13313723 0.05494904 -0.12354679 0.14954825 -0.073726416 -0.18833968 -0.03501713 0.13378361
0.07374888 -0.06380488 0.10611476 -0.42547664 0.26460978 -0.13103646 0.011244292 0.023161775
0.3803649 -0.15741591 -0.38533166 0.047287907 -0.8135774 -0.23348044 -0.15237541 -0.6502829
-1.0052396 -0.44724387 -0.90400916 -0.8908917 -0.029960422 0.016208826 0.0083731655 0.23029828
0.0064209234 0.066965446 0.15888497 0.08470222 0.24540107 0.07716322 0.18321308 0.0047657015
0.0025565869 -0.06820969 0.05767283 -0.28538302 -0.31185436 -0.21911128 -0.43942806 -0.32653686
-0.20429008 -0.23641422 -0.12448535 -0.3138323 -0.16153853 0.00909072 0.017979525 0.039724622
0.023336614 0.080476284 0.12912887 0.27629027 0.25113457 0.16417718 0.19497252 0.089568846
0.04052929 0.19673705 0.25459436 -0.31541085 0.3248405 0.20533504 0.3546725 -0.110348694
-0.26508874 0.060738757 -0.37308475 -0.3320577 0.07485314 -0.10463787 0.1163502 -0.51292443
-0.048289478 0.09529691 -0.5500185 -0.20338576 -0.14607465 -0.013091218 0.27539697 -0.09602951
0.031577162 -0.76272094 -0.06568122 -0.045947596 -0.27108285 -0.24925132 -0.1846227 0.009034366
0.13388479 0.17359929 0.007002401 -0.16272461 -0.31378815 -0.29960042 0.10514601 -0.23356187
-0.37832654 0.086209014 0.17135815 -0.43362853 -0.35548455 0.0010684326 -0.15306322 0.019429749
-0.98902124 0.121211044 -0.07835268 0.088230886 0.08723593 -0.49881285 -0.18377909 -0.16763401
-0.46525583 0.15606144 0.057089683 0.09978696 -0.2998791 0.052808974 0.0007169945 -0.06339833
-0.5091413 0.17955726 0.119844794 -0.35035512 0.0445534 0.0830016 -0.07486283 -0.34410477
-0.09274003 0.12699474 0.17756478 0.11208752 0.17896628 0.17169088 0.35509163 0.052125588
-0.07213788 0.47051653 0.22757138 -0.46596166 0.43492177 -0.6980046 0.59465647 -0.5929572
0.14747283 0.3110961 0.16650769 -0.04306314 0.07687661 -0.3934505 0.113408625 0.0015466972
-0.8377274 0.2608614 0.054873403 -0.063819356 -0.70564145 1.0288051 0.6215455 0.22313473
-0.56685305 -0.81711394 -0.41730824 0.91860884 -0.04971804 -0.4112207 -0.08198506 -0.37838462
00000000: ec73 ffbe 2b2b 83be ec67 98be e137 aebb
00000010: 9d9f 8abe da34 b2be d7a9 6abe a04b e6bd
00000020: cc6f b33c 6bcc 3f3d 54e2 173e 1499 d03d
00000030: c958 98bb 1c7d 603d c72b b1bc ea94 1abd
00000040: b715 1fbe 5698 07bd aeed b0bc b722 f9bc
00000050: 7cc7 ef3d 3c71 91be b0a8 363d fbf7 10be
00000060: a628 6cbd d092 44be 7080 54be 1504 9fbe
00000070: e526 33be 5e1d 833d c572 8b3d 8e82 f0be
00000080: ec6b 0bbf f11a d2be fa3f 6dbe c3fa 55be
00000090: 6b8d e2bd 2489 c2bc ecda 60be d08a 993e
000000a0: 58d2 10bd c19a 573d 7fc6 893d 631f 563d
000000b0: 795b da3d e7a7 97be f735 f2be 1a63 d4be
000000c0: 7b16 aa3c 5fea c1bb 76f3 743b 3591 a63b
000000d0: d6cc 323d 7501 413e 77f8 a7bd 565a 003d
000000e0: 5d28 ec3c c81e 1dbc 93cb 08be b356 33bd
000000f0: 6cbe c1bb 4c06 c1bd 7f2f 583d b974 2abe
00000100: 3337 333d c9f4 01bf f36f 8fbe 722c efbe
00000110: ac3b 573b cf59 26bf 0b2f 243e 8aeb 60be
00000120: a5c7 333e 28e6 47be dfb2 0f3e 108b 9bbd
00000130: 2aa1 79bd bf34 413d 8c73 ed3d e833 743e
00000140: 2055 08be 3f12 613d 1906 fdbd 2d23 193e
00000150: e0fd 96bd 1edc 40be 1f6e 0fbd 92fe 083e
00000160: a709 973d 22ac 82bd b252 d93d 13d8 d9be
00000170: ef7a 873e 6c2e 06be fb39 383c c3bd bd3c
00000180: 30bf c23e a331 21be 314a c5be f7b0 413d
00000190: 9c46 50bf 7f15 6fbe 4d08 1cbe f178 26bf
000001a0: b1ab 80bf 26fd e4be 256d 67bf 7a11 64bf
000001b0: 8f6f f5bc 5fc8 843c 9a2f 093c 50d3 6b3e
000001c0: 9c66 d23b 2e25 893d beb2 223e 5c78 ad3d
000001d0: 6b4a 7b3e c007 9e3d 369c 3b3e 9a29 9c3b
000001e0: 698c 273b 86b1 8bbd 583a 6c3d b91d 92be
000001f0: 60ab 9fbe b55e 60be b7fc e0be d72f a7be
00000200: 6b31 51be 9216 72be 2df2 febd a1ae a0be
00000210: 5b6a 25be 3ef1 143c cc49 933c 49b6 223d
00000220: 6d2c bf3c c0d0 a43d 5c3a 043e eb75 8d3e
00000230: b694 803e 101e 283e e0a6 473e df6f b73d
00000240: 0a02 263d 7075 493e 315a 823e 887d a1be
00000250: 7e51 a63e 5943 523e a297 b53e 7ffe e1bd
00000260: b6b9 87be 34c9 783d f704 bfbe 7803 aabe
00000270: 9a4c 993d 614c d6bd 0349 ee3d 044f 03bf
00000280: 30cb 45bd 072b c33d 03ce 0cbf 5b44 50be
00000290: 9894 15be 8c7c 56bc d500 8d3e 1fab c4bd
000002a0: 0e57 013d ae41 43bf e083 86bd 8c33 3cbd
000002b0: 5fcb 8abe bd3b 7fbe bc0d 3dbe e104 143c
000002c0: 1819 093e 03c4 313e 6674 e53b 48a1 26be
000002d0: d7a8 a0be 3a65 99be cb56 d73d d82a 6fbe
000002e0: 04b4 c1be 5a8e b03d 8378 2f3e 8f04 debe
000002f0: 1202 b6be a60a 8c3a 9bbc 1cbe 232b 9f3c
00000300: 7f30 7dbf 7f3d f83d 5f77 a0bd 65b2 b43d
00000310: c0a8 b23d 6664 ffbe 9630 3cbe 40a8 2bbe
00000320: 0336 eebe 92ce 1f3e dfd6 693d 1b5d cc3d
00000330: c189 99be 394e 583d b0f4 3b3a fcd6 81bd
00000340: 1657 02bf dcdd 373e 3071 f53d bf61 b3be
00000350: a07d 363d befc a93d af51 99bd 802e b0be
00000360: 7cee bdbd e90a 023e 8bd3 353e 248e e53d
00000370: f042 373e bccf 2f3e 92ce b53e a481 553d
00000380: 06bd 93bd 8be7 f03e 7908 693e 8792 eebe
00000390: 11ae de3e 6eb0 32bf 683b 183f 0bcc 17bf
000003a0: 1e03 173e fd47 9f3e fe80 2a3e fa62 30bd
000003b0: 7c71 9d3d 5872 c9be c842 e83d 8cba ca3a
000003c0: 4e75 56bf a08f 853e efc2 603d b9b3 82bd
000003d0: eba4 34bf e3af 833f 9b1d 1f3f 6e7d 643e
000003e0: 481d 11bf 612e 51bf 6da9 d5be f329 6b3f
000003f0: 25a5 4bbd 858b d2be c8e7 a7bd a1bb c1be

conv2.bias f4 [128]
0.34451395 -0.21497591 0.35817176 0.36263096 0.54058903 0.4160002 -0.04031596 -0.03969638
0.05979206 -0.26243043 -0.3224891 -0.6870598 0.009080263 0.073203176 0.038250268 0.43410587
-0.17312281 0.5066867 0.21010152 0.1431672 0.12512113 0.37276384 -0.19532043 0.38276473
-0.08258064 -0.6222419 0.36227277 0.15621 0.3600187 0.6070576 -0.018368017 0.6170742
-0.06992526 0.12476337 -0.14775825 0.057073224 0.58898485 0.27384478 0.3799616 0.044159364
0.49507698 -0.06541743 0.21446404 0.11295564 -0.11568838 -0.2117167 0.36978862 -0.043705568
0.3424756 -0.41669676 -0.013399065 0.5794609 0.05546426 0.023610268 0.24409622 0.12556934
0.11530155 -0.44511262 -0.030637706 0.26463598 0.16957884 0.029779132 0.5046371 0.31355372
0.31831855 0.063687615 -0.011605594 0.03430817 -0.031105077 0.29851297 -0.15339018 0.6210626
0.033437423 -0.0042736027 0.1835159 0.034185257 -0.27980992 -0.13450086 0.36782625 0.088076934
0.15990293 0.026436524 0.5454784 0.28616697 -0.1508441 0.13671039 0.46761465 0.66254246
0.3009412 -0.1159893 -0.00884696 0.22501673 -0.26440033 0.05339153 -0.14410897 -0.09986285
-0.4269788 -0.006828257 -0.4453069 0.24992579 0.606912 -0.061992455 -0.48215735 0.074233815
-0.5378585 0.21149172 0.1608023 0.21694328 1.0735894 -0.020947557 0.9195916 0.77577037
0.012347694 0.28178582 -0.5267429 0.40203735 0.28959203 0.0076177553 0.3392397 0.28620005
0.08557669 -0.0741721 0.378684 0.13214704 -0.7166863 0.4376145 0.23087662 0.22172554
00000000: 2264 b03e a522 5cbe 4a62 b73e c4aa b93e
00000010: 0b64 0a3f fafd d43e 5922 25bd ac98 22bd
00000020: 85e8 743d 485d 86be 4b1d a5be 27e3 2fbf
00000030: 62c5 143c 8ceb 953d 50ac 1c3d 2043 de3e
00000040: 1b47 31be 38b6 013f da24 573e 6c9a 123e
00000050: c11f 003e e7da be3e 1402 48be bdf9 c33e
00000060: 0a20 a9bd 3f4b 1fbf d17b b93e 84f5 1f3e
00000070: 5f54 b83e 2068 1b3f 8678 96bc 93f8 1d3f
00000080: fa34 8fbd f083 ff3d f04d 17be 9dc5 693d
00000090: b6c7 163f 6235 8c3e 548a c23e 73e0 343d
000000a0: bb7a fd3e 93f9 85bd 769c 5b3e 4955 e73d
000000b0: 08ee ecbd 43cc 58be ef54 bd3e 9c04 33bd
000000c0: f658 af3e 4759 d5be c087 5bbc 8d57 143f
000000d0: 7e2e 633d 526a c13c 5cf4 793e 4095 003e
000000e0: 3823 ec3d cde5 e3be edfb fabc 5e7e 873e
000000f0: 13a6 2d3e 5ef3 f33c e62f 013f 1d8a a03e
00000100: a6fa a23e a76e 823d 6425 3ebc b986 0c3d
00000110: 13d0 febc b1d6 983e 5112 1dbe f5fd 1e3f
00000120: aef5 083d 9409 8cbb 98eb 3b3e d705 0c3d
00000130: 3f43 8fbe 98ba 09be b953 bc3e ae61 b43d
00000140: 98bd 233e 6991 d83c 79a4 0b3f 7a84 923e
00000150: e076 1abe cffd 0b3e 306b ef3e 629c 293f
00000160: f714 9a3e cc8b edbd d7f2 10bc c96a 663e
00000170: 7b5f 87be 14b1 5a3d 4d91 13be e584 ccbd
00000180: f79c dabe 92bf dfbb 44ff e3be 8cec 7f3e
00000190: 965e 1b3f cdeb 7dbd 54dd f6be e607 983d
000001a0: 18b1 09bf 4991 583e 5ca9 243e 6126 5e3e
000001b0: 616b 893f 369a abbc 5b6a 6b3f e398 463f
000001c0: fb4d 4a3c 3b46 903e 9fd8 06bf d7d7 cd3e
000001d0: 6845 943e 5d9e f93b d3b0 ad3e d088 923e
000001e0: d542 af3d 8be7 97bd dfe2 c13e 8e51 073e
000001f0: c178 37bf 020f e03e ec6a 6c3e 050c 633e

linear.weight f4 [17, 128]
-0.14732163 -1.1925993 0.17975818 -0.081920296 -0.5226955 0.36325288 -0.52642953 -0.5324163
0.2921156 -0.5126352 -0.32752657 -0.20349696 -0.17051263 0.26482463 -0.12711312 0.7132551
-0.70323724 0.12612006 0.1082405 -0.29820424 -0.32729277 0.5708837 -0.15467966 0.049871746
-0.617698 -0.14950173 -0.043768518 -0.81772876 0.39695117 0.47317985 -0.24860907 -0.062000975
-0.5458157 0.23435192 -0.32981253 0.38524133 -0.08943959 0.20400055 -0.8706823 0.0034938285
0.9263447 -0.41593543 -0.610288 0.5260539 0.22150147 0.45650643 -0.25826135 -0.42407095
0.3038659 -0.119694896 -0.4206215 -0.38525468 -1.0542535 -0.30182937 0.012547619 0.22349913
-0.14660518 0.069158256 -0.46083993 0.67780375 -0.4077897 -0.4348987 0.0060687684 0.28810385
0.057434708 -0.38727397 -0.37341788 0.92455333 -0.06075201 0.518329 -0.69311583 0.2667366
-0.2891627 -0.24750608 -0.53574204 0.15713896 0.02298691 0.61216575 -0.47810337 -0.5357971
0.6832458 -0.7125615 0.07470387 -0.3106804 0.38703614 0.03687077 -0.14249879 -0.014031425
0.31109703 -0.14325398 -0.32032108 0.29045475 -0.086246826 0.52571565 0.31647944 -0.97000945
0.51816607 -0.751071 0.62299675 -0.50833553 -0.60869646 -0.104146115 0.19420022 -0.1231257
-0.77093506 0.50090176 0.19146162 -0.58803284 -0.25479686 -0.6225161 -0.39402857 0.6646681
0.14030433 -0.11255756 -0.09085062 -0.4391374 0.24935372 0.01120085 -0.3421099 -0.09568659
-0.14805928 -0.32043833 -0.15144032 -0.25639126 -0.21300478 -0.41325828 0.044351637 -0.15262544
-0.07722981 -0.3045721 0.23149972 0.008293931 -0.25105307 0.1347386 -0.54687726 0.30805334
0.06081165 -0.27292684 -0.53658235 -0.07418744 0.44559357 -0.40546665 -0.038219996 -0.19212823
-0.112649836 0.7013923 0.05254836 0.30527055 0.8219731 0.44385767 -0.7404797 0.18368581
0.015597321 -0.6553199 0.3230226 -0.03201179 -0.2124359 -0.29453453 -0.15288906 0.05689513
-0.078184165 0.031830177 -0.2563471 -0.36282313 -0.59700423 -0.07299215 0.0730825 0.22658683
-0.016588828 -0.038705368 -0.100632824 -0.1739267 -0.6591803 -0.39753416 0.006175941 -0.6822266
-0.6045947 -0.5723386 0.20954567 0.038636573 0.056243256 0.09100654 -0.42186943 0.5111749
-0.6960623 -0.66033804 -0.11748312 -0.19606198 -0.087379254 0.18538485 0.6822569 0.10871443
0.79016167 -0.37157843 -0.22294153 -0.25406992 -0.261998 0.19743086 0.16564164 -0.18946458
0.08044484 -0.52898085 0.09149879 0.4507423 -0.19804129 0.32688674 -0.27175006 -0.29990143
0.8825537 -0.23797135 0.21048336 1.010016 -0.44454166 -0.16876242 0.64310116 0.15706052
-0.47415954 -0.087317586 -0.1556921 -0.50629973 -0.6298161 -0.8423071 -1.041568 -0.50708544
-0.18546227 -0.745888 -0.03656326 0.3283716 -0.034543384 -0.37796587 -0.41013026 0.9168747
-0.7062187 -0.3824624 0.26395175 0.063330784 -0.42599386 0.31149563 -0.113898866 -0.12935539
-0.03287866 -0.05373097 -0.40615234 0.27947217 -0.20547514 0.11523562 -0.24338657 0.14752533
0.2752109 -0.16360563 0.021123823 -0.14484231 -0.2736825 0.83261144 -0.15461412 0.72375816
00000000: 7bdb 16be 18a7 98bf 8712 383e d4c5 a7bd
00000010: 5fcf 05bf 48fc b93e 16c4 06bf 6f4c 08bf
00000020: 2d90 953e 0f3c 03bf 90b1 a7be 8261 50be
00000030: dd9a 2ebe 1897 873e f129 02be e397 363f
00000040: 5b07 34bf 9e25 013e 32ad dd3d 3aae 98be
00000050: eb92 a7be 6f25 123f 5864 1ebe 5146 4c3d
00000060: 7521 1ebf fb16 19be 9e46 33bd ac56 51bf
00000070: 2f3d cb3e a144 f23e 6093 7ebe bcf4 7dbd
00000080: 94ba 0bbf f3f9 6f3e 30dd a8be 5a3e c53e
00000090: 1b2c b7bd 85e5 503e 09e5 5ebf b7f8 643b
000000a0: ed24 6d3f 7df5 d4be d63b 1cbf 78ab 063f
000000b0: 48d1 623e 36bb e93e d53a 84be d41f d9be
000000c0: 5094 9b3e 9922 f5bd b45b d7be 1a40 c5be
000000d0: c7f1 86bf 6189 9abe 8794 4d3c f5dc 643e
000000e0: ab1f 16be d8a2 8d3d 36f3 ebbe 8c84 2d3f
000000f0: d0c9 d0be 0bab debe 85dc c63b 5982 933e
00000100: a840 6b3d c648 c6be a130 bfbe 87af 6c3f
00000110: 1ad7 78bd 36b1 043f 0a70 31bf b391 883e
00000120: 220d 94be 3c72 7dbe 6426 09bf 09e9 203e
00000130: 0b4f bc3c e5b6 1c3f f7c9 f4be 002a 09bf
00000140: 32e9 2e3f 6e6a 36bf 58fe 983d 8011 9fbe
00000150: 9a29 c63e ce05 173d 34eb 11be 10e4 65bc
00000160: 1c48 9f3e 2cb1 12be 2001 a4be 7cb6 943e
00000170: 2da2 b0bd 4d95 063f 9809 a23e 8a52 78bf
00000180: 88a6 043f 3046 40bf b77c 1f3f 4722 02bf
00000190: 88d3 1bbf 8f4a d5bd 6cdc 463e 5429 fcbd
000001a0: 005c 45bf 193b 003f 840e 443e 5289 16bf
000001b0: bc74 82be 375d 1fbf 1dbe c9be b027 2a3f
000001c0: f0ab 0f3e 9484 e6bd e40f babd 9ed6 e0be
000001d0: 9556 7f3e c583 373c 0729 afbe 55f7 c3bd
000001e0: da9c 17be 7e10 a4be 2c13 1bbe b745 83be
000001f0: ed1d 5abe 9796 d3be 10aa 353d d849 1cbe
00000200: aa2a 9ebd e0f0 9bbe 430e 6d3e 45e3 073c
00000210: 078a 80be eaf8 093e 2600 0cbf 2bb9 9d3e
00000220: a315 793d 11bd 8bbe 765d 09bf 96ef 97bd
00000230: d724 e43e 5399 cfbe 928c 1cbd 43bd 44be
00000240: f5b4 e6bd 728e 333f f33c 573d 6c4c 9c3e
00000250: d46c 523f 5041 e33e 1490 3dbf 2218 3c3e
00000260: e88b 7f3c 0cc3 27bf 3863 a53e cb1e 03bd
00000270: cc88 59be 3bcd 96be f38e 1cbe de0a 693d
00000280: 051f a0bd 5c60 023d ed3f 83be f4c3 b9be
00000290: 45d5 18bf e97c 95bd 47ac 953d 6106 683e
000002a0: 4be5 87bc 8589 1ebd 9518 cebd d719 32be
000002b0: 0ac0 28bf 9989 cbbe 8c5f ca3b 67a6 2ebf
000002c0: b8c6 1abf c884 12bf 2493 563e 6241 1e3d
000002d0: 545f 663d a361 ba3d 45ff d7be 5cdc 023f
000002e0: 2431 32bf ea0b 29bf fd9a f0bd 79c4 48be
000002f0: e5f3 b2bd 87d5 3d3e 63a8 2e3f aca5 de3d
00000300: 0948 4a3f 873f bebe c94a 64be 7415 82be
00000310: 9a24 86be 512b 4a3e f69d 293e 0103 42be
00000320: 44c0 a43d 4a6b 07bf b863 bb3d b2c7 e63e
00000330: 56cb 4abe b35d a73e d322 8bbe ae8c 99be
00000340: 0aef 613f c3ae 73be f388 573e 3448 813f
00000350: f79a e3be 0ed0 2cbe 47a2 243f 79d4 203e
00000360: 0ac5 f2be 90d3 b2bd c06d 1fbe dc9c 01bf
00000370: a13b 21bf 70a1 57bf 1a52 85bf 5ad0 01bf
00000380: d2e9 3dbe 84f2 3ebf 5bc3 15bd 5320 a83e
00000390: 5d7d 0dbd be84 c1be 98fc d1be 4db8 6a3f
000003a0: c0ca 34bf 1dd2 c3be af24 873e 92b3 813d
000003b0: de1b dabe 5b7c 9f3e cf43 e9bd bd75 04be
000003c0: c6ab 06bd 0115 5cbd 33f3 cfbe fa16 8f3e
000003d0: 1368 52be a700 ec3d 543a 79be e110 173e
000003e0: 71e8 8c3e 3c88 27be de0b ad3c 8b51 14be
000003f0: 1d20 8cbe 0626 553f 2a53 1ebe 3748 393f

linear.bias f4 [17]
-0.19520538 -0.3160881 -0.06830456 -1.0444701 -0.18323056 0.022371719 -1.107611 -0.6583679
0.334796 -0.6955994 -0.45339027 0.0033074266 -0.45517045 -0.045640625 -1.0204906 -0.3334615
-0.6756162
00000000: ebe3 47be 4dd6 a1be 43e3 8bbd 32b1 85bf
00000010: cba0 3bbe e544 b73c 32c6 8dbf cc8a 28bf
00000020: 626a ab3e cd12 32bf c522 e8be 69c1 583b
00000030: 1a0c e9be aaf1 3abd 709f 82bf 77bb aabe
00000040: 2ff5 2cbf
